<bound method Module.state_dict of Decoder(
  (decoder): Sequential(
    (0): Linear(in_features=5, out_features=10, bias=True)
    (1): ReLU()
    (2): Linear(in_features=10, out_features=20, bias=True)
    (3): ReLU()
    (4): Linear(in_features=20, out_features=40, bias=True)
  )
)><bound method Module.state_dict of Decoder(
  (decoder): Sequential(
    (0): Linear(in_features=5, out_features=10, bias=True)
    (1): ReLU()
    (2): Linear(in_features=10, out_features=20, bias=True)
    (3): ReLU()
    (4): Linear(in_features=20, out_features=40, bias=True)
  )
)><bound method Module.state_dict of Decoder(
  (decoder): Sequential(
    (0): Linear(in_features=5, out_features=10, bias=True)
    (1): ReLU()
    (2): Linear(in_features=10, out_features=20, bias=True)
    (3): ReLU()
    (4): Linear(in_features=20, out_features=40, bias=True)
  )
)><bound method Module.state_dict of Decoder(
  (decoder): Sequential(
    (0): Linear(in_features=5, out_features=10, bias=True)
    (1): ReLU()
    (2): Linear(in_features=10, out_features=20, bias=True)
    (3): ReLU()
    (4): Linear(in_features=20, out_features=40, bias=True)
  )
)><bound method Module.state_dict of Decoder(
  (decoder): Sequential(
    (0): Linear(in_features=5, out_features=10, bias=True)
    (1): ReLU()
    (2): Linear(in_features=10, out_features=20, bias=True)
    (3): ReLU()
    (4): Linear(in_features=20, out_features=40, bias=True)
  )
)><bound method Module.state_dict of Decoder(
  (decoder): Sequential(
    (0): Linear(in_features=5, out_features=10, bias=True)
    (1): ReLU()
    (2): Linear(in_features=10, out_features=20, bias=True)
    (3): ReLU()
    (4): Linear(in_features=20, out_features=40, bias=True)
  )
)><bound method Module.state_dict of Decoder(
  (decoder): Sequential(
    (0): Linear(in_features=5, out_features=10, bias=True)
    (1): ReLU()
    (2): Linear(in_features=10, out_features=20, bias=True)
    (3): ReLU()
    (4): Linear(in_features=20, out_features=40, bias=True)
  )
)><bound method Module.state_dict of Decoder(
  (decoder): Sequential(
    (0): Linear(in_features=5, out_features=10, bias=True)
    (1): ReLU()
    (2): Linear(in_features=10, out_features=20, bias=True)
    (3): ReLU()
    (4): Linear(in_features=20, out_features=40, bias=True)
  )
)><bound method Module.state_dict of Decoder(
  (decoder): Sequential(
    (0): Linear(in_features=5, out_features=10, bias=True)
    (1): ReLU()
    (2): Linear(in_features=10, out_features=20, bias=True)
    (3): ReLU()
    (4): Linear(in_features=20, out_features=40, bias=True)
  )
)><bound method Module.state_dict of Decoder(
  (decoder): Sequential(
    (0): Linear(in_features=5, out_features=10, bias=True)
    (1): ReLU()
    (2): Linear(in_features=10, out_features=20, bias=True)
    (3): ReLU()
    (4): Linear(in_features=20, out_features=40, bias=True)
  )
)><bound method Module.state_dict of Decoder(
  (decoder): Sequential(
    (0): Linear(in_features=5, out_features=10, bias=True)
    (1): ReLU()
    (2): Linear(in_features=10, out_features=20, bias=True)
    (3): ReLU()
    (4): Linear(in_features=20, out_features=40, bias=True)
  )
)><bound method Module.state_dict of Decoder(
  (decoder): Sequential(
    (0): Linear(in_features=5, out_features=10, bias=True)
    (1): ReLU()
    (2): Linear(in_features=10, out_features=20, bias=True)
    (3): ReLU()
    (4): Linear(in_features=20, out_features=40, bias=True)
  )
)><bound method Module.state_dict of Decoder(
  (decoder): Sequential(
    (0): Linear(in_features=5, out_features=10, bias=True)
    (1): ReLU()
    (2): Linear(in_features=10, out_features=20, bias=True)
    (3): ReLU()
    (4): Linear(in_features=20, out_features=40, bias=True)
  )
)><bound method Module.state_dict of Decoder(
  (decoder): Sequential(
    (0): Linear(in_features=5, out_features=10, bias=True)
    (1): ReLU()
    (2): Linear(in_features=10, out_features=20, bias=True)
    (3): ReLU()
    (4): Linear(in_features=20, out_features=40, bias=True)
  )
)><bound method Module.state_dict of Decoder(
  (decoder): Sequential(
    (0): Linear(in_features=5, out_features=10, bias=True)
    (1): ReLU()
    (2): Linear(in_features=10, out_features=20, bias=True)
    (3): ReLU()
    (4): Linear(in_features=20, out_features=40, bias=True)
  )
)><bound method Module.state_dict of Decoder(
  (decoder): Sequential(
    (0): Linear(in_features=5, out_features=10, bias=True)
    (1): ReLU()
    (2): Linear(in_features=10, out_features=20, bias=True)
    (3): ReLU()
    (4): Linear(in_features=20, out_features=40, bias=True)
  )
)><bound method Module.state_dict of Decoder(
  (decoder): Sequential(
    (0): Linear(in_features=5, out_features=10, bias=True)
    (1): ReLU()
    (2): Linear(in_features=10, out_features=20, bias=True)
    (3): ReLU()
    (4): Linear(in_features=20, out_features=40, bias=True)
  )
)><bound method Module.state_dict of Decoder(
  (decoder): Sequential(
    (0): Linear(in_features=5, out_features=10, bias=True)
    (1): ReLU()
    (2): Linear(in_features=10, out_features=20, bias=True)
    (3): ReLU()
    (4): Linear(in_features=20, out_features=40, bias=True)
  )
)><bound method Module.state_dict of Decoder(
  (decoder): Sequential(
    (0): Linear(in_features=5, out_features=10, bias=True)
    (1): ReLU()
    (2): Linear(in_features=10, out_features=20, bias=True)
    (3): ReLU()
    (4): Linear(in_features=20, out_features=40, bias=True)
  )
)><bound method Module.state_dict of Decoder(
  (decoder): Sequential(
    (0): Linear(in_features=5, out_features=10, bias=True)
    (1): ReLU()
    (2): Linear(in_features=10, out_features=20, bias=True)
    (3): ReLU()
    (4): Linear(in_features=20, out_features=40, bias=True)
  )
)><bound method Module.state_dict of Decoder(
  (decoder): Sequential(
    (0): Linear(in_features=5, out_features=10, bias=True)
    (1): ReLU()
    (2): Linear(in_features=10, out_features=20, bias=True)
    (3): ReLU()
    (4): Linear(in_features=20, out_features=40, bias=True)
  )
)><bound method Module.state_dict of Decoder(
  (decoder): Sequential(
    (0): Linear(in_features=5, out_features=10, bias=True)
    (1): ReLU()
    (2): Linear(in_features=10, out_features=20, bias=True)
    (3): ReLU()
    (4): Linear(in_features=20, out_features=40, bias=True)
  )
)><bound method Module.state_dict of Decoder(
  (decoder): Sequential(
    (0): Linear(in_features=5, out_features=10, bias=True)
    (1): ReLU()
    (2): Linear(in_features=10, out_features=20, bias=True)
    (3): ReLU()
    (4): Linear(in_features=20, out_features=40, bias=True)
  )
)><bound method Module.state_dict of Decoder(
  (decoder): Sequential(
    (0): Linear(in_features=5, out_features=10, bias=True)
    (1): ReLU()
    (2): Linear(in_features=10, out_features=20, bias=True)
    (3): ReLU()
    (4): Linear(in_features=20, out_features=40, bias=True)
  )
)><bound method Module.state_dict of Decoder(
  (decoder): Sequential(
    (0): Linear(in_features=5, out_features=10, bias=True)
    (1): ReLU()
    (2): Linear(in_features=10, out_features=20, bias=True)
    (3): ReLU()
    (4): Linear(in_features=20, out_features=40, bias=True)
  )
)><bound method Module.state_dict of Decoder(
  (decoder): Sequential(
    (0): Linear(in_features=5, out_features=10, bias=True)
    (1): ReLU()
    (2): Linear(in_features=10, out_features=20, bias=True)
    (3): ReLU()
    (4): Linear(in_features=20, out_features=40, bias=True)
  )
)><bound method Module.state_dict of Decoder(
  (decoder): Sequential(
    (0): Linear(in_features=5, out_features=10, bias=True)
    (1): ReLU()
    (2): Linear(in_features=10, out_features=20, bias=True)
    (3): ReLU()
    (4): Linear(in_features=20, out_features=40, bias=True)
  )
)><bound method Module.state_dict of Decoder(
  (decoder): Sequential(
    (0): Linear(in_features=5, out_features=10, bias=True)
    (1): ReLU()
    (2): Linear(in_features=10, out_features=20, bias=True)
    (3): ReLU()
    (4): Linear(in_features=20, out_features=40, bias=True)
  )
)><bound method Module.state_dict of Decoder(
  (decoder): Sequential(
    (0): Linear(in_features=5, out_features=10, bias=True)
    (1): ReLU()
    (2): Linear(in_features=10, out_features=20, bias=True)
    (3): ReLU()
    (4): Linear(in_features=20, out_features=40, bias=True)
  )
)><bound method Module.state_dict of Decoder(
  (decoder): Sequential(
    (0): Linear(in_features=5, out_features=10, bias=True)
    (1): ReLU()
    (2): Linear(in_features=10, out_features=20, bias=True)
    (3): ReLU()
    (4): Linear(in_features=20, out_features=40, bias=True)
  )
)><bound method Module.state_dict of Decoder(
  (decoder): Sequential(
    (0): Linear(in_features=5, out_features=10, bias=True)
    (1): ReLU()
    (2): Linear(in_features=10, out_features=20, bias=True)
    (3): ReLU()
    (4): Linear(in_features=20, out_features=40, bias=True)
  )
)><bound method Module.state_dict of Decoder(
  (decoder): Sequential(
    (0): Linear(in_features=5, out_features=10, bias=True)
    (1): ReLU()
    (2): Linear(in_features=10, out_features=20, bias=True)
    (3): ReLU()
    (4): Linear(in_features=20, out_features=40, bias=True)
  )
)><bound method Module.state_dict of Decoder(
  (decoder): Sequential(
    (0): Linear(in_features=5, out_features=10, bias=True)
    (1): ReLU()
    (2): Linear(in_features=10, out_features=20, bias=True)
    (3): ReLU()
    (4): Linear(in_features=20, out_features=40, bias=True)
  )
)><bound method Module.state_dict of Decoder(
  (decoder): Sequential(
    (0): Linear(in_features=5, out_features=10, bias=True)
    (1): ReLU()
    (2): Linear(in_features=10, out_features=20, bias=True)
    (3): ReLU()
    (4): Linear(in_features=20, out_features=40, bias=True)
  )
)><bound method Module.state_dict of Decoder(
  (decoder): Sequential(
    (0): Linear(in_features=5, out_features=10, bias=True)
    (1): ReLU()
    (2): Linear(in_features=10, out_features=20, bias=True)
    (3): ReLU()
    (4): Linear(in_features=20, out_features=40, bias=True)
  )
)><bound method Module.state_dict of Decoder(
  (decoder): Sequential(
    (0): Linear(in_features=5, out_features=10, bias=True)
    (1): ReLU()
    (2): Linear(in_features=10, out_features=20, bias=True)
    (3): ReLU()
    (4): Linear(in_features=20, out_features=40, bias=True)
  )
)><bound method Module.state_dict of Decoder(
  (decoder): Sequential(
    (0): Linear(in_features=5, out_features=10, bias=True)
    (1): ReLU()
    (2): Linear(in_features=10, out_features=20, bias=True)
    (3): ReLU()
    (4): Linear(in_features=20, out_features=40, bias=True)
  )
)><bound method Module.state_dict of Decoder(
  (decoder): Sequential(
    (0): Linear(in_features=5, out_features=10, bias=True)
    (1): ReLU()
    (2): Linear(in_features=10, out_features=20, bias=True)
    (3): ReLU()
    (4): Linear(in_features=20, out_features=40, bias=True)
  )
)><bound method Module.state_dict of Decoder(
  (decoder): Sequential(
    (0): Linear(in_features=5, out_features=10, bias=True)
    (1): ReLU()
    (2): Linear(in_features=10, out_features=20, bias=True)
    (3): ReLU()
    (4): Linear(in_features=20, out_features=40, bias=True)
  )
)><bound method Module.state_dict of Decoder(
  (decoder): Sequential(
    (0): Linear(in_features=5, out_features=10, bias=True)
    (1): ReLU()
    (2): Linear(in_features=10, out_features=20, bias=True)
    (3): ReLU()
    (4): Linear(in_features=20, out_features=40, bias=True)
  )
)><bound method Module.state_dict of Decoder(
  (decoder): Sequential(
    (0): Linear(in_features=5, out_features=10, bias=True)
    (1): ReLU()
    (2): Linear(in_features=10, out_features=20, bias=True)
    (3): ReLU()
    (4): Linear(in_features=20, out_features=40, bias=True)
  )
)><bound method Module.state_dict of Decoder(
  (decoder): Sequential(
    (0): Linear(in_features=5, out_features=10, bias=True)
    (1): ReLU()
    (2): Linear(in_features=10, out_features=20, bias=True)
    (3): ReLU()
    (4): Linear(in_features=20, out_features=40, bias=True)
  )
)><bound method Module.state_dict of Decoder(
  (decoder): Sequential(
    (0): Linear(in_features=5, out_features=10, bias=True)
    (1): ReLU()
    (2): Linear(in_features=10, out_features=20, bias=True)
    (3): ReLU()
    (4): Linear(in_features=20, out_features=40, bias=True)
  )
)><bound method Module.state_dict of Decoder(
  (decoder): Sequential(
    (0): Linear(in_features=5, out_features=10, bias=True)
    (1): ReLU()
    (2): Linear(in_features=10, out_features=20, bias=True)
    (3): ReLU()
    (4): Linear(in_features=20, out_features=40, bias=True)
  )
)><bound method Module.state_dict of Decoder(
  (decoder): Sequential(
    (0): Linear(in_features=5, out_features=10, bias=True)
    (1): ReLU()
    (2): Linear(in_features=10, out_features=20, bias=True)
    (3): ReLU()
    (4): Linear(in_features=20, out_features=40, bias=True)
  )
)><bound method Module.state_dict of Decoder(
  (decoder): Sequential(
    (0): Linear(in_features=5, out_features=10, bias=True)
    (1): ReLU()
    (2): Linear(in_features=10, out_features=20, bias=True)
    (3): ReLU()
    (4): Linear(in_features=20, out_features=40, bias=True)
  )
)><bound method Module.state_dict of Decoder(
  (decoder): Sequential(
    (0): Linear(in_features=5, out_features=10, bias=True)
    (1): ReLU()
    (2): Linear(in_features=10, out_features=20, bias=True)
    (3): ReLU()
    (4): Linear(in_features=20, out_features=40, bias=True)
  )
)><bound method Module.state_dict of Decoder(
  (decoder): Sequential(
    (0): Linear(in_features=5, out_features=10, bias=True)
    (1): ReLU()
    (2): Linear(in_features=10, out_features=20, bias=True)
    (3): ReLU()
    (4): Linear(in_features=20, out_features=40, bias=True)
  )
)><bound method Module.state_dict of Decoder(
  (decoder): Sequential(
    (0): Linear(in_features=5, out_features=10, bias=True)
    (1): ReLU()
    (2): Linear(in_features=10, out_features=20, bias=True)
    (3): ReLU()
    (4): Linear(in_features=20, out_features=40, bias=True)
  )
)><bound method Module.state_dict of Decoder(
  (decoder): Sequential(
    (0): Linear(in_features=5, out_features=10, bias=True)
    (1): ReLU()
    (2): Linear(in_features=10, out_features=20, bias=True)
    (3): ReLU()
    (4): Linear(in_features=20, out_features=40, bias=True)
  )
)><bound method Module.state_dict of Decoder(
  (decoder): Sequential(
    (0): Linear(in_features=5, out_features=10, bias=True)
    (1): ReLU()
    (2): Linear(in_features=10, out_features=20, bias=True)
    (3): ReLU()
    (4): Linear(in_features=20, out_features=40, bias=True)
  )
)><bound method Module.state_dict of Decoder(
  (decoder): Sequential(
    (0): Linear(in_features=5, out_features=10, bias=True)
    (1): ReLU()
    (2): Linear(in_features=10, out_features=20, bias=True)
    (3): ReLU()
    (4): Linear(in_features=20, out_features=40, bias=True)
  )
)><bound method Module.state_dict of Decoder(
  (decoder): Sequential(
    (0): Linear(in_features=5, out_features=10, bias=True)
    (1): ReLU()
    (2): Linear(in_features=10, out_features=20, bias=True)
    (3): ReLU()
    (4): Linear(in_features=20, out_features=40, bias=True)
  )
)><bound method Module.state_dict of Decoder(
  (decoder): Sequential(
    (0): Linear(in_features=5, out_features=10, bias=True)
    (1): ReLU()
    (2): Linear(in_features=10, out_features=20, bias=True)
    (3): ReLU()
    (4): Linear(in_features=20, out_features=40, bias=True)
  )
)><bound method Module.state_dict of Decoder(
  (decoder): Sequential(
    (0): Linear(in_features=5, out_features=10, bias=True)
    (1): ReLU()
    (2): Linear(in_features=10, out_features=20, bias=True)
    (3): ReLU()
    (4): Linear(in_features=20, out_features=40, bias=True)
  )
)><bound method Module.state_dict of Decoder(
  (decoder): Sequential(
    (0): Linear(in_features=5, out_features=10, bias=True)
    (1): ReLU()
    (2): Linear(in_features=10, out_features=20, bias=True)
    (3): ReLU()
    (4): Linear(in_features=20, out_features=40, bias=True)
  )
)><bound method Module.state_dict of Decoder(
  (decoder): Sequential(
    (0): Linear(in_features=5, out_features=10, bias=True)
    (1): ReLU()
    (2): Linear(in_features=10, out_features=20, bias=True)
    (3): ReLU()
    (4): Linear(in_features=20, out_features=40, bias=True)
  )
)><bound method Module.state_dict of Decoder(
  (decoder): Sequential(
    (0): Linear(in_features=5, out_features=10, bias=True)
    (1): ReLU()
    (2): Linear(in_features=10, out_features=20, bias=True)
    (3): ReLU()
    (4): Linear(in_features=20, out_features=40, bias=True)
  )
)><bound method Module.state_dict of Decoder(
  (decoder): Sequential(
    (0): Linear(in_features=5, out_features=10, bias=True)
    (1): ReLU()
    (2): Linear(in_features=10, out_features=20, bias=True)
    (3): ReLU()
    (4): Linear(in_features=20, out_features=40, bias=True)
  )
)><bound method Module.state_dict of Decoder(
  (decoder): Sequential(
    (0): Linear(in_features=5, out_features=10, bias=True)
    (1): ReLU()
    (2): Linear(in_features=10, out_features=20, bias=True)
    (3): ReLU()
    (4): Linear(in_features=20, out_features=40, bias=True)
  )
)><bound method Module.state_dict of Decoder(
  (decoder): Sequential(
    (0): Linear(in_features=5, out_features=10, bias=True)
    (1): ReLU()
    (2): Linear(in_features=10, out_features=20, bias=True)
    (3): ReLU()
    (4): Linear(in_features=20, out_features=40, bias=True)
  )
)><bound method Module.state_dict of Decoder(
  (decoder): Sequential(
    (0): Linear(in_features=5, out_features=10, bias=True)
    (1): ReLU()
    (2): Linear(in_features=10, out_features=20, bias=True)
    (3): ReLU()
    (4): Linear(in_features=20, out_features=40, bias=True)
  )
)><bound method Module.state_dict of Decoder(
  (decoder): Sequential(
    (0): Linear(in_features=5, out_features=10, bias=True)
    (1): ReLU()
    (2): Linear(in_features=10, out_features=20, bias=True)
    (3): ReLU()
    (4): Linear(in_features=20, out_features=40, bias=True)
  )
)><bound method Module.state_dict of Decoder(
  (decoder): Sequential(
    (0): Linear(in_features=5, out_features=10, bias=True)
    (1): ReLU()
    (2): Linear(in_features=10, out_features=20, bias=True)
    (3): ReLU()
    (4): Linear(in_features=20, out_features=40, bias=True)
  )
)><bound method Module.state_dict of Decoder(
  (decoder): Sequential(
    (0): Linear(in_features=5, out_features=10, bias=True)
    (1): ReLU()
    (2): Linear(in_features=10, out_features=20, bias=True)
    (3): ReLU()
    (4): Linear(in_features=20, out_features=40, bias=True)
  )
)><bound method Module.state_dict of Decoder(
  (decoder): Sequential(
    (0): Linear(in_features=5, out_features=10, bias=True)
    (1): ReLU()
    (2): Linear(in_features=10, out_features=20, bias=True)
    (3): ReLU()
    (4): Linear(in_features=20, out_features=40, bias=True)
  )
)><bound method Module.state_dict of Decoder(
  (decoder): Sequential(
    (0): Linear(in_features=5, out_features=10, bias=True)
    (1): ReLU()
    (2): Linear(in_features=10, out_features=20, bias=True)
    (3): ReLU()
    (4): Linear(in_features=20, out_features=40, bias=True)
  )
)><bound method Module.state_dict of Decoder(
  (decoder): Sequential(
    (0): Linear(in_features=5, out_features=10, bias=True)
    (1): ReLU()
    (2): Linear(in_features=10, out_features=20, bias=True)
    (3): ReLU()
    (4): Linear(in_features=20, out_features=40, bias=True)
  )
)><bound method Module.state_dict of Decoder(
  (decoder): Sequential(
    (0): Linear(in_features=5, out_features=10, bias=True)
    (1): ReLU()
    (2): Linear(in_features=10, out_features=20, bias=True)
    (3): ReLU()
    (4): Linear(in_features=20, out_features=40, bias=True)
  )
)><bound method Module.state_dict of Decoder(
  (decoder): Sequential(
    (0): Linear(in_features=5, out_features=10, bias=True)
    (1): ReLU()
    (2): Linear(in_features=10, out_features=20, bias=True)
    (3): ReLU()
    (4): Linear(in_features=20, out_features=40, bias=True)
  )
)><bound method Module.state_dict of Decoder(
  (decoder): Sequential(
    (0): Linear(in_features=5, out_features=10, bias=True)
    (1): ReLU()
    (2): Linear(in_features=10, out_features=20, bias=True)
    (3): ReLU()
    (4): Linear(in_features=20, out_features=40, bias=True)
  )
)><bound method Module.state_dict of Decoder(
  (decoder): Sequential(
    (0): Linear(in_features=5, out_features=10, bias=True)
    (1): ReLU()
    (2): Linear(in_features=10, out_features=20, bias=True)
    (3): ReLU()
    (4): Linear(in_features=20, out_features=40, bias=True)
  )
)><bound method Module.state_dict of Decoder(
  (decoder): Sequential(
    (0): Linear(in_features=5, out_features=10, bias=True)
    (1): ReLU()
    (2): Linear(in_features=10, out_features=20, bias=True)
    (3): ReLU()
    (4): Linear(in_features=20, out_features=40, bias=True)
  )
)><bound method Module.state_dict of Decoder(
  (decoder): Sequential(
    (0): Linear(in_features=5, out_features=10, bias=True)
    (1): ReLU()
    (2): Linear(in_features=10, out_features=20, bias=True)
    (3): ReLU()
    (4): Linear(in_features=20, out_features=40, bias=True)
  )
)><bound method Module.state_dict of Decoder(
  (decoder): Sequential(
    (0): Linear(in_features=5, out_features=10, bias=True)
    (1): ReLU()
    (2): Linear(in_features=10, out_features=20, bias=True)
    (3): ReLU()
    (4): Linear(in_features=20, out_features=40, bias=True)
  )
)><bound method Module.state_dict of Decoder(
  (decoder): Sequential(
    (0): Linear(in_features=5, out_features=10, bias=True)
    (1): ReLU()
    (2): Linear(in_features=10, out_features=20, bias=True)
    (3): ReLU()
    (4): Linear(in_features=20, out_features=40, bias=True)
  )
)><bound method Module.state_dict of Decoder(
  (decoder): Sequential(
    (0): Linear(in_features=5, out_features=10, bias=True)
    (1): ReLU()
    (2): Linear(in_features=10, out_features=20, bias=True)
    (3): ReLU()
    (4): Linear(in_features=20, out_features=40, bias=True)
  )
)><bound method Module.state_dict of Decoder(
  (decoder): Sequential(
    (0): Linear(in_features=5, out_features=10, bias=True)
    (1): ReLU()
    (2): Linear(in_features=10, out_features=20, bias=True)
    (3): ReLU()
    (4): Linear(in_features=20, out_features=40, bias=True)
  )
)><bound method Module.state_dict of Decoder(
  (decoder): Sequential(
    (0): Linear(in_features=5, out_features=10, bias=True)
    (1): ReLU()
    (2): Linear(in_features=10, out_features=20, bias=True)
    (3): ReLU()
    (4): Linear(in_features=20, out_features=40, bias=True)
  )
)><bound method Module.state_dict of Decoder(
  (decoder): Sequential(
    (0): Linear(in_features=5, out_features=10, bias=True)
    (1): ReLU()
    (2): Linear(in_features=10, out_features=20, bias=True)
    (3): ReLU()
    (4): Linear(in_features=20, out_features=40, bias=True)
  )
)><bound method Module.state_dict of Decoder(
  (decoder): Sequential(
    (0): Linear(in_features=5, out_features=10, bias=True)
    (1): ReLU()
    (2): Linear(in_features=10, out_features=20, bias=True)
    (3): ReLU()
    (4): Linear(in_features=20, out_features=40, bias=True)
  )
)><bound method Module.state_dict of Decoder(
  (decoder): Sequential(
    (0): Linear(in_features=5, out_features=10, bias=True)
    (1): ReLU()
    (2): Linear(in_features=10, out_features=20, bias=True)
    (3): ReLU()
    (4): Linear(in_features=20, out_features=40, bias=True)
  )
)><bound method Module.state_dict of Decoder(
  (decoder): Sequential(
    (0): Linear(in_features=5, out_features=10, bias=True)
    (1): ReLU()
    (2): Linear(in_features=10, out_features=20, bias=True)
    (3): ReLU()
    (4): Linear(in_features=20, out_features=40, bias=True)
  )
)><bound method Module.state_dict of Decoder(
  (decoder): Sequential(
    (0): Linear(in_features=5, out_features=10, bias=True)
    (1): ReLU()
    (2): Linear(in_features=10, out_features=20, bias=True)
    (3): ReLU()
    (4): Linear(in_features=20, out_features=40, bias=True)
  )
)><bound method Module.state_dict of Decoder(
  (decoder): Sequential(
    (0): Linear(in_features=5, out_features=10, bias=True)
    (1): ReLU()
    (2): Linear(in_features=10, out_features=20, bias=True)
    (3): ReLU()
    (4): Linear(in_features=20, out_features=40, bias=True)
  )
)><bound method Module.state_dict of Decoder(
  (decoder): Sequential(
    (0): Linear(in_features=5, out_features=10, bias=True)
    (1): ReLU()
    (2): Linear(in_features=10, out_features=20, bias=True)
    (3): ReLU()
    (4): Linear(in_features=20, out_features=40, bias=True)
  )
)><bound method Module.state_dict of Decoder(
  (decoder): Sequential(
    (0): Linear(in_features=5, out_features=10, bias=True)
    (1): ReLU()
    (2): Linear(in_features=10, out_features=20, bias=True)
    (3): ReLU()
    (4): Linear(in_features=20, out_features=40, bias=True)
  )
)><bound method Module.state_dict of Decoder(
  (decoder): Sequential(
    (0): Linear(in_features=5, out_features=10, bias=True)
    (1): ReLU()
    (2): Linear(in_features=10, out_features=20, bias=True)
    (3): ReLU()
    (4): Linear(in_features=20, out_features=40, bias=True)
  )
)><bound method Module.state_dict of Decoder(
  (decoder): Sequential(
    (0): Linear(in_features=5, out_features=10, bias=True)
    (1): ReLU()
    (2): Linear(in_features=10, out_features=20, bias=True)
    (3): ReLU()
    (4): Linear(in_features=20, out_features=40, bias=True)
  )
)><bound method Module.state_dict of Decoder(
  (decoder): Sequential(
    (0): Linear(in_features=5, out_features=10, bias=True)
    (1): ReLU()
    (2): Linear(in_features=10, out_features=20, bias=True)
    (3): ReLU()
    (4): Linear(in_features=20, out_features=40, bias=True)
  )
)><bound method Module.state_dict of Decoder(
  (decoder): Sequential(
    (0): Linear(in_features=5, out_features=10, bias=True)
    (1): ReLU()
    (2): Linear(in_features=10, out_features=20, bias=True)
    (3): ReLU()
    (4): Linear(in_features=20, out_features=40, bias=True)
  )
)><bound method Module.state_dict of Decoder(
  (decoder): Sequential(
    (0): Linear(in_features=5, out_features=10, bias=True)
    (1): ReLU()
    (2): Linear(in_features=10, out_features=20, bias=True)
    (3): ReLU()
    (4): Linear(in_features=20, out_features=40, bias=True)
  )
)><bound method Module.state_dict of Decoder(
  (decoder): Sequential(
    (0): Linear(in_features=5, out_features=10, bias=True)
    (1): ReLU()
    (2): Linear(in_features=10, out_features=20, bias=True)
    (3): ReLU()
    (4): Linear(in_features=20, out_features=40, bias=True)
  )
)><bound method Module.state_dict of Decoder(
  (decoder): Sequential(
    (0): Linear(in_features=5, out_features=10, bias=True)
    (1): ReLU()
    (2): Linear(in_features=10, out_features=20, bias=True)
    (3): ReLU()
    (4): Linear(in_features=20, out_features=40, bias=True)
  )
)><bound method Module.state_dict of Decoder(
  (decoder): Sequential(
    (0): Linear(in_features=5, out_features=10, bias=True)
    (1): ReLU()
    (2): Linear(in_features=10, out_features=20, bias=True)
    (3): ReLU()
    (4): Linear(in_features=20, out_features=40, bias=True)
  )
)><bound method Module.state_dict of Decoder(
  (decoder): Sequential(
    (0): Linear(in_features=5, out_features=10, bias=True)
    (1): ReLU()
    (2): Linear(in_features=10, out_features=20, bias=True)
    (3): ReLU()
    (4): Linear(in_features=20, out_features=40, bias=True)
  )
)><bound method Module.state_dict of Decoder(
  (decoder): Sequential(
    (0): Linear(in_features=5, out_features=10, bias=True)
    (1): ReLU()
    (2): Linear(in_features=10, out_features=20, bias=True)
    (3): ReLU()
    (4): Linear(in_features=20, out_features=40, bias=True)
  )
)><bound method Module.state_dict of Decoder(
  (decoder): Sequential(
    (0): Linear(in_features=5, out_features=10, bias=True)
    (1): ReLU()
    (2): Linear(in_features=10, out_features=20, bias=True)
    (3): ReLU()
    (4): Linear(in_features=20, out_features=40, bias=True)
  )
)><bound method Module.state_dict of Decoder(
  (decoder): Sequential(
    (0): Linear(in_features=5, out_features=10, bias=True)
    (1): ReLU()
    (2): Linear(in_features=10, out_features=20, bias=True)
    (3): ReLU()
    (4): Linear(in_features=20, out_features=40, bias=True)
  )
)><bound method Module.state_dict of Decoder(
  (decoder): Sequential(
    (0): Linear(in_features=5, out_features=10, bias=True)
    (1): ReLU()
    (2): Linear(in_features=10, out_features=20, bias=True)
    (3): ReLU()
    (4): Linear(in_features=20, out_features=40, bias=True)
  )
)><bound method Module.state_dict of Decoder(
  (decoder): Sequential(
    (0): Linear(in_features=5, out_features=10, bias=True)
    (1): ReLU()
    (2): Linear(in_features=10, out_features=20, bias=True)
    (3): ReLU()
    (4): Linear(in_features=20, out_features=40, bias=True)
  )
)><bound method Module.state_dict of Decoder(
  (decoder): Sequential(
    (0): Linear(in_features=5, out_features=10, bias=True)
    (1): ReLU()
    (2): Linear(in_features=10, out_features=20, bias=True)
    (3): ReLU()
    (4): Linear(in_features=20, out_features=40, bias=True)
  )
)><bound method Module.state_dict of Decoder(
  (decoder): Sequential(
    (0): Linear(in_features=5, out_features=10, bias=True)
    (1): ReLU()
    (2): Linear(in_features=10, out_features=20, bias=True)
    (3): ReLU()
    (4): Linear(in_features=20, out_features=40, bias=True)
  )
)><bound method Module.state_dict of Decoder(
  (decoder): Sequential(
    (0): Linear(in_features=5, out_features=10, bias=True)
    (1): ReLU()
    (2): Linear(in_features=10, out_features=20, bias=True)
    (3): ReLU()
    (4): Linear(in_features=20, out_features=40, bias=True)
  )
)><bound method Module.state_dict of Decoder(
  (decoder): Sequential(
    (0): Linear(in_features=5, out_features=10, bias=True)
    (1): ReLU()
    (2): Linear(in_features=10, out_features=20, bias=True)
    (3): ReLU()
    (4): Linear(in_features=20, out_features=40, bias=True)
  )
)><bound method Module.state_dict of Decoder(
  (decoder): Sequential(
    (0): Linear(in_features=5, out_features=10, bias=True)
    (1): ReLU()
    (2): Linear(in_features=10, out_features=20, bias=True)
    (3): ReLU()
    (4): Linear(in_features=20, out_features=40, bias=True)
  )
)><bound method Module.state_dict of Decoder(
  (decoder): Sequential(
    (0): Linear(in_features=5, out_features=10, bias=True)
    (1): ReLU()
    (2): Linear(in_features=10, out_features=20, bias=True)
    (3): ReLU()
    (4): Linear(in_features=20, out_features=40, bias=True)
  )
)><bound method Module.state_dict of Decoder(
  (decoder): Sequential(
    (0): Linear(in_features=5, out_features=10, bias=True)
    (1): ReLU()
    (2): Linear(in_features=10, out_features=20, bias=True)
    (3): ReLU()
    (4): Linear(in_features=20, out_features=40, bias=True)
  )
)><bound method Module.state_dict of Decoder(
  (decoder): Sequential(
    (0): Linear(in_features=5, out_features=10, bias=True)
    (1): ReLU()
    (2): Linear(in_features=10, out_features=20, bias=True)
    (3): ReLU()
    (4): Linear(in_features=20, out_features=40, bias=True)
  )
)><bound method Module.state_dict of Decoder(
  (decoder): Sequential(
    (0): Linear(in_features=5, out_features=10, bias=True)
    (1): ReLU()
    (2): Linear(in_features=10, out_features=20, bias=True)
    (3): ReLU()
    (4): Linear(in_features=20, out_features=40, bias=True)
  )
)><bound method Module.state_dict of Decoder(
  (decoder): Sequential(
    (0): Linear(in_features=5, out_features=10, bias=True)
    (1): ReLU()
    (2): Linear(in_features=10, out_features=20, bias=True)
    (3): ReLU()
    (4): Linear(in_features=20, out_features=40, bias=True)
  )
)><bound method Module.state_dict of Decoder(
  (decoder): Sequential(
    (0): Linear(in_features=5, out_features=10, bias=True)
    (1): ReLU()
    (2): Linear(in_features=10, out_features=20, bias=True)
    (3): ReLU()
    (4): Linear(in_features=20, out_features=40, bias=True)
  )
)><bound method Module.state_dict of Decoder(
  (decoder): Sequential(
    (0): Linear(in_features=5, out_features=10, bias=True)
    (1): ReLU()
    (2): Linear(in_features=10, out_features=20, bias=True)
    (3): ReLU()
    (4): Linear(in_features=20, out_features=40, bias=True)
  )
)><bound method Module.state_dict of Decoder(
  (decoder): Sequential(
    (0): Linear(in_features=5, out_features=10, bias=True)
    (1): ReLU()
    (2): Linear(in_features=10, out_features=20, bias=True)
    (3): ReLU()
    (4): Linear(in_features=20, out_features=40, bias=True)
  )
)><bound method Module.state_dict of Decoder(
  (decoder): Sequential(
    (0): Linear(in_features=5, out_features=10, bias=True)
    (1): ReLU()
    (2): Linear(in_features=10, out_features=20, bias=True)
    (3): ReLU()
    (4): Linear(in_features=20, out_features=40, bias=True)
  )
)><bound method Module.state_dict of Decoder(
  (decoder): Sequential(
    (0): Linear(in_features=5, out_features=10, bias=True)
    (1): ReLU()
    (2): Linear(in_features=10, out_features=20, bias=True)
    (3): ReLU()
    (4): Linear(in_features=20, out_features=40, bias=True)
  )
)><bound method Module.state_dict of Decoder(
  (decoder): Sequential(
    (0): Linear(in_features=5, out_features=10, bias=True)
    (1): ReLU()
    (2): Linear(in_features=10, out_features=20, bias=True)
    (3): ReLU()
    (4): Linear(in_features=20, out_features=40, bias=True)
  )
)><bound method Module.state_dict of Decoder(
  (decoder): Sequential(
    (0): Linear(in_features=5, out_features=10, bias=True)
    (1): ReLU()
    (2): Linear(in_features=10, out_features=20, bias=True)
    (3): ReLU()
    (4): Linear(in_features=20, out_features=40, bias=True)
  )
)><bound method Module.state_dict of Decoder(
  (decoder): Sequential(
    (0): Linear(in_features=5, out_features=10, bias=True)
    (1): ReLU()
    (2): Linear(in_features=10, out_features=20, bias=True)
    (3): ReLU()
    (4): Linear(in_features=20, out_features=40, bias=True)
  )
)><bound method Module.state_dict of Decoder(
  (decoder): Sequential(
    (0): Linear(in_features=5, out_features=10, bias=True)
    (1): ReLU()
    (2): Linear(in_features=10, out_features=20, bias=True)
    (3): ReLU()
    (4): Linear(in_features=20, out_features=40, bias=True)
  )
)><bound method Module.state_dict of Decoder(
  (decoder): Sequential(
    (0): Linear(in_features=5, out_features=10, bias=True)
    (1): ReLU()
    (2): Linear(in_features=10, out_features=20, bias=True)
    (3): ReLU()
    (4): Linear(in_features=20, out_features=40, bias=True)
  )
)><bound method Module.state_dict of Decoder(
  (decoder): Sequential(
    (0): Linear(in_features=5, out_features=10, bias=True)
    (1): ReLU()
    (2): Linear(in_features=10, out_features=20, bias=True)
    (3): ReLU()
    (4): Linear(in_features=20, out_features=40, bias=True)
  )
)><bound method Module.state_dict of Decoder(
  (decoder): Sequential(
    (0): Linear(in_features=5, out_features=10, bias=True)
    (1): ReLU()
    (2): Linear(in_features=10, out_features=20, bias=True)
    (3): ReLU()
    (4): Linear(in_features=20, out_features=40, bias=True)
  )
)><bound method Module.state_dict of Decoder(
  (decoder): Sequential(
    (0): Linear(in_features=5, out_features=10, bias=True)
    (1): ReLU()
    (2): Linear(in_features=10, out_features=20, bias=True)
    (3): ReLU()
    (4): Linear(in_features=20, out_features=40, bias=True)
  )
)><bound method Module.state_dict of Decoder(
  (decoder): Sequential(
    (0): Linear(in_features=5, out_features=10, bias=True)
    (1): ReLU()
    (2): Linear(in_features=10, out_features=20, bias=True)
    (3): ReLU()
    (4): Linear(in_features=20, out_features=40, bias=True)
  )
)><bound method Module.state_dict of Decoder(
  (decoder): Sequential(
    (0): Linear(in_features=5, out_features=10, bias=True)
    (1): ReLU()
    (2): Linear(in_features=10, out_features=20, bias=True)
    (3): ReLU()
    (4): Linear(in_features=20, out_features=40, bias=True)
  )
)><bound method Module.state_dict of Decoder(
  (decoder): Sequential(
    (0): Linear(in_features=5, out_features=10, bias=True)
    (1): ReLU()
    (2): Linear(in_features=10, out_features=20, bias=True)
    (3): ReLU()
    (4): Linear(in_features=20, out_features=40, bias=True)
  )
)><bound method Module.state_dict of Decoder(
  (decoder): Sequential(
    (0): Linear(in_features=5, out_features=10, bias=True)
    (1): ReLU()
    (2): Linear(in_features=10, out_features=20, bias=True)
    (3): ReLU()
    (4): Linear(in_features=20, out_features=40, bias=True)
  )
)><bound method Module.state_dict of Decoder(
  (decoder): Sequential(
    (0): Linear(in_features=5, out_features=10, bias=True)
    (1): ReLU()
    (2): Linear(in_features=10, out_features=20, bias=True)
    (3): ReLU()
    (4): Linear(in_features=20, out_features=40, bias=True)
  )
)><bound method Module.state_dict of Decoder(
  (decoder): Sequential(
    (0): Linear(in_features=5, out_features=10, bias=True)
    (1): ReLU()
    (2): Linear(in_features=10, out_features=20, bias=True)
    (3): ReLU()
    (4): Linear(in_features=20, out_features=40, bias=True)
  )
)><bound method Module.state_dict of Decoder(
  (decoder): Sequential(
    (0): Linear(in_features=5, out_features=10, bias=True)
    (1): ReLU()
    (2): Linear(in_features=10, out_features=20, bias=True)
    (3): ReLU()
    (4): Linear(in_features=20, out_features=40, bias=True)
  )
)><bound method Module.state_dict of Decoder(
  (decoder): Sequential(
    (0): Linear(in_features=5, out_features=10, bias=True)
    (1): ReLU()
    (2): Linear(in_features=10, out_features=20, bias=True)
    (3): ReLU()
    (4): Linear(in_features=20, out_features=40, bias=True)
  )
)><bound method Module.state_dict of Decoder(
  (decoder): Sequential(
    (0): Linear(in_features=5, out_features=10, bias=True)
    (1): ReLU()
    (2): Linear(in_features=10, out_features=20, bias=True)
    (3): ReLU()
    (4): Linear(in_features=20, out_features=40, bias=True)
  )
)><bound method Module.state_dict of Decoder(
  (decoder): Sequential(
    (0): Linear(in_features=5, out_features=10, bias=True)
    (1): ReLU()
    (2): Linear(in_features=10, out_features=20, bias=True)
    (3): ReLU()
    (4): Linear(in_features=20, out_features=40, bias=True)
  )
)><bound method Module.state_dict of Decoder(
  (decoder): Sequential(
    (0): Linear(in_features=5, out_features=10, bias=True)
    (1): ReLU()
    (2): Linear(in_features=10, out_features=20, bias=True)
    (3): ReLU()
    (4): Linear(in_features=20, out_features=40, bias=True)
  )
)><bound method Module.state_dict of Decoder(
  (decoder): Sequential(
    (0): Linear(in_features=5, out_features=10, bias=True)
    (1): ReLU()
    (2): Linear(in_features=10, out_features=20, bias=True)
    (3): ReLU()
    (4): Linear(in_features=20, out_features=40, bias=True)
  )
)><bound method Module.state_dict of Decoder(
  (decoder): Sequential(
    (0): Linear(in_features=5, out_features=10, bias=True)
    (1): ReLU()
    (2): Linear(in_features=10, out_features=20, bias=True)
    (3): ReLU()
    (4): Linear(in_features=20, out_features=40, bias=True)
  )
)><bound method Module.state_dict of Decoder(
  (decoder): Sequential(
    (0): Linear(in_features=5, out_features=10, bias=True)
    (1): ReLU()
    (2): Linear(in_features=10, out_features=20, bias=True)
    (3): ReLU()
    (4): Linear(in_features=20, out_features=40, bias=True)
  )
)><bound method Module.state_dict of Decoder(
  (decoder): Sequential(
    (0): Linear(in_features=5, out_features=10, bias=True)
    (1): ReLU()
    (2): Linear(in_features=10, out_features=20, bias=True)
    (3): ReLU()
    (4): Linear(in_features=20, out_features=40, bias=True)
  )
)><bound method Module.state_dict of Decoder(
  (decoder): Sequential(
    (0): Linear(in_features=5, out_features=10, bias=True)
    (1): ReLU()
    (2): Linear(in_features=10, out_features=20, bias=True)
    (3): ReLU()
    (4): Linear(in_features=20, out_features=40, bias=True)
  )
)><bound method Module.state_dict of Decoder(
  (decoder): Sequential(
    (0): Linear(in_features=5, out_features=10, bias=True)
    (1): ReLU()
    (2): Linear(in_features=10, out_features=20, bias=True)
    (3): ReLU()
    (4): Linear(in_features=20, out_features=40, bias=True)
  )
)><bound method Module.state_dict of Decoder(
  (decoder): Sequential(
    (0): Linear(in_features=5, out_features=10, bias=True)
    (1): ReLU()
    (2): Linear(in_features=10, out_features=20, bias=True)
    (3): ReLU()
    (4): Linear(in_features=20, out_features=40, bias=True)
  )
)><bound method Module.state_dict of Decoder(
  (decoder): Sequential(
    (0): Linear(in_features=5, out_features=10, bias=True)
    (1): ReLU()
    (2): Linear(in_features=10, out_features=20, bias=True)
    (3): ReLU()
    (4): Linear(in_features=20, out_features=40, bias=True)
  )
)><bound method Module.state_dict of Decoder(
  (decoder): Sequential(
    (0): Linear(in_features=5, out_features=10, bias=True)
    (1): ReLU()
    (2): Linear(in_features=10, out_features=20, bias=True)
    (3): ReLU()
    (4): Linear(in_features=20, out_features=40, bias=True)
  )
)><bound method Module.state_dict of Decoder(
  (decoder): Sequential(
    (0): Linear(in_features=5, out_features=10, bias=True)
    (1): ReLU()
    (2): Linear(in_features=10, out_features=20, bias=True)
    (3): ReLU()
    (4): Linear(in_features=20, out_features=40, bias=True)
  )
)><bound method Module.state_dict of Decoder(
  (decoder): Sequential(
    (0): Linear(in_features=5, out_features=10, bias=True)
    (1): ReLU()
    (2): Linear(in_features=10, out_features=20, bias=True)
    (3): ReLU()
    (4): Linear(in_features=20, out_features=40, bias=True)
  )
)><bound method Module.state_dict of Decoder(
  (decoder): Sequential(
    (0): Linear(in_features=5, out_features=10, bias=True)
    (1): ReLU()
    (2): Linear(in_features=10, out_features=20, bias=True)
    (3): ReLU()
    (4): Linear(in_features=20, out_features=40, bias=True)
  )
)><bound method Module.state_dict of Decoder(
  (decoder): Sequential(
    (0): Linear(in_features=5, out_features=10, bias=True)
    (1): ReLU()
    (2): Linear(in_features=10, out_features=20, bias=True)
    (3): ReLU()
    (4): Linear(in_features=20, out_features=40, bias=True)
  )
)><bound method Module.state_dict of Decoder(
  (decoder): Sequential(
    (0): Linear(in_features=5, out_features=10, bias=True)
    (1): ReLU()
    (2): Linear(in_features=10, out_features=20, bias=True)
    (3): ReLU()
    (4): Linear(in_features=20, out_features=40, bias=True)
  )
)><bound method Module.state_dict of Decoder(
  (decoder): Sequential(
    (0): Linear(in_features=5, out_features=10, bias=True)
    (1): ReLU()
    (2): Linear(in_features=10, out_features=20, bias=True)
    (3): ReLU()
    (4): Linear(in_features=20, out_features=40, bias=True)
  )
)><bound method Module.state_dict of Decoder(
  (decoder): Sequential(
    (0): Linear(in_features=5, out_features=10, bias=True)
    (1): ReLU()
    (2): Linear(in_features=10, out_features=20, bias=True)
    (3): ReLU()
    (4): Linear(in_features=20, out_features=40, bias=True)
  )
)><bound method Module.state_dict of Decoder(
  (decoder): Sequential(
    (0): Linear(in_features=5, out_features=10, bias=True)
    (1): ReLU()
    (2): Linear(in_features=10, out_features=20, bias=True)
    (3): ReLU()
    (4): Linear(in_features=20, out_features=40, bias=True)
  )
)><bound method Module.state_dict of Decoder(
  (decoder): Sequential(
    (0): Linear(in_features=5, out_features=10, bias=True)
    (1): ReLU()
    (2): Linear(in_features=10, out_features=20, bias=True)
    (3): ReLU()
    (4): Linear(in_features=20, out_features=40, bias=True)
  )
)><bound method Module.state_dict of Decoder(
  (decoder): Sequential(
    (0): Linear(in_features=5, out_features=10, bias=True)
    (1): ReLU()
    (2): Linear(in_features=10, out_features=20, bias=True)
    (3): ReLU()
    (4): Linear(in_features=20, out_features=40, bias=True)
  )
)><bound method Module.state_dict of Decoder(
  (decoder): Sequential(
    (0): Linear(in_features=5, out_features=10, bias=True)
    (1): ReLU()
    (2): Linear(in_features=10, out_features=20, bias=True)
    (3): ReLU()
    (4): Linear(in_features=20, out_features=40, bias=True)
  )
)><bound method Module.state_dict of Decoder(
  (decoder): Sequential(
    (0): Linear(in_features=5, out_features=10, bias=True)
    (1): ReLU()
    (2): Linear(in_features=10, out_features=20, bias=True)
    (3): ReLU()
    (4): Linear(in_features=20, out_features=40, bias=True)
  )
)><bound method Module.state_dict of Decoder(
  (decoder): Sequential(
    (0): Linear(in_features=5, out_features=10, bias=True)
    (1): ReLU()
    (2): Linear(in_features=10, out_features=20, bias=True)
    (3): ReLU()
    (4): Linear(in_features=20, out_features=40, bias=True)
  )
)><bound method Module.state_dict of Decoder(
  (decoder): Sequential(
    (0): Linear(in_features=5, out_features=10, bias=True)
    (1): ReLU()
    (2): Linear(in_features=10, out_features=20, bias=True)
    (3): ReLU()
    (4): Linear(in_features=20, out_features=40, bias=True)
  )
)><bound method Module.state_dict of Decoder(
  (decoder): Sequential(
    (0): Linear(in_features=5, out_features=10, bias=True)
    (1): ReLU()
    (2): Linear(in_features=10, out_features=20, bias=True)
    (3): ReLU()
    (4): Linear(in_features=20, out_features=40, bias=True)
  )
)><bound method Module.state_dict of Decoder(
  (decoder): Sequential(
    (0): Linear(in_features=5, out_features=10, bias=True)
    (1): ReLU()
    (2): Linear(in_features=10, out_features=20, bias=True)
    (3): ReLU()
    (4): Linear(in_features=20, out_features=40, bias=True)
  )
)><bound method Module.state_dict of Decoder(
  (decoder): Sequential(
    (0): Linear(in_features=5, out_features=10, bias=True)
    (1): ReLU()
    (2): Linear(in_features=10, out_features=20, bias=True)
    (3): ReLU()
    (4): Linear(in_features=20, out_features=40, bias=True)
  )
)><bound method Module.state_dict of Decoder(
  (decoder): Sequential(
    (0): Linear(in_features=5, out_features=10, bias=True)
    (1): ReLU()
    (2): Linear(in_features=10, out_features=20, bias=True)
    (3): ReLU()
    (4): Linear(in_features=20, out_features=40, bias=True)
  )
)><bound method Module.state_dict of Decoder(
  (decoder): Sequential(
    (0): Linear(in_features=5, out_features=10, bias=True)
    (1): ReLU()
    (2): Linear(in_features=10, out_features=20, bias=True)
    (3): ReLU()
    (4): Linear(in_features=20, out_features=40, bias=True)
  )
)><bound method Module.state_dict of Decoder(
  (decoder): Sequential(
    (0): Linear(in_features=5, out_features=10, bias=True)
    (1): ReLU()
    (2): Linear(in_features=10, out_features=20, bias=True)
    (3): ReLU()
    (4): Linear(in_features=20, out_features=40, bias=True)
  )
)><bound method Module.state_dict of Decoder(
  (decoder): Sequential(
    (0): Linear(in_features=5, out_features=10, bias=True)
    (1): ReLU()
    (2): Linear(in_features=10, out_features=20, bias=True)
    (3): ReLU()
    (4): Linear(in_features=20, out_features=40, bias=True)
  )
)><bound method Module.state_dict of Decoder(
  (decoder): Sequential(
    (0): Linear(in_features=5, out_features=10, bias=True)
    (1): ReLU()
    (2): Linear(in_features=10, out_features=20, bias=True)
    (3): ReLU()
    (4): Linear(in_features=20, out_features=40, bias=True)
  )
)><bound method Module.state_dict of Decoder(
  (decoder): Sequential(
    (0): Linear(in_features=5, out_features=10, bias=True)
    (1): ReLU()
    (2): Linear(in_features=10, out_features=20, bias=True)
    (3): ReLU()
    (4): Linear(in_features=20, out_features=40, bias=True)
  )
)><bound method Module.state_dict of Decoder(
  (decoder): Sequential(
    (0): Linear(in_features=5, out_features=10, bias=True)
    (1): ReLU()
    (2): Linear(in_features=10, out_features=20, bias=True)
    (3): ReLU()
    (4): Linear(in_features=20, out_features=40, bias=True)
  )
)><bound method Module.state_dict of Decoder(
  (decoder): Sequential(
    (0): Linear(in_features=5, out_features=10, bias=True)
    (1): ReLU()
    (2): Linear(in_features=10, out_features=20, bias=True)
    (3): ReLU()
    (4): Linear(in_features=20, out_features=40, bias=True)
  )
)><bound method Module.state_dict of Decoder(
  (decoder): Sequential(
    (0): Linear(in_features=5, out_features=10, bias=True)
    (1): ReLU()
    (2): Linear(in_features=10, out_features=20, bias=True)
    (3): ReLU()
    (4): Linear(in_features=20, out_features=40, bias=True)
  )
)><bound method Module.state_dict of Decoder(
  (decoder): Sequential(
    (0): Linear(in_features=5, out_features=10, bias=True)
    (1): ReLU()
    (2): Linear(in_features=10, out_features=20, bias=True)
    (3): ReLU()
    (4): Linear(in_features=20, out_features=40, bias=True)
  )
)><bound method Module.state_dict of Decoder(
  (decoder): Sequential(
    (0): Linear(in_features=5, out_features=10, bias=True)
    (1): ReLU()
    (2): Linear(in_features=10, out_features=20, bias=True)
    (3): ReLU()
    (4): Linear(in_features=20, out_features=40, bias=True)
  )
)><bound method Module.state_dict of Decoder(
  (decoder): Sequential(
    (0): Linear(in_features=5, out_features=10, bias=True)
    (1): ReLU()
    (2): Linear(in_features=10, out_features=20, bias=True)
    (3): ReLU()
    (4): Linear(in_features=20, out_features=40, bias=True)
  )
)><bound method Module.state_dict of Decoder(
  (decoder): Sequential(
    (0): Linear(in_features=5, out_features=10, bias=True)
    (1): ReLU()
    (2): Linear(in_features=10, out_features=20, bias=True)
    (3): ReLU()
    (4): Linear(in_features=20, out_features=40, bias=True)
  )
)><bound method Module.state_dict of Decoder(
  (decoder): Sequential(
    (0): Linear(in_features=5, out_features=10, bias=True)
    (1): ReLU()
    (2): Linear(in_features=10, out_features=20, bias=True)
    (3): ReLU()
    (4): Linear(in_features=20, out_features=40, bias=True)
  )
)><bound method Module.state_dict of Decoder(
  (decoder): Sequential(
    (0): Linear(in_features=5, out_features=10, bias=True)
    (1): ReLU()
    (2): Linear(in_features=10, out_features=20, bias=True)
    (3): ReLU()
    (4): Linear(in_features=20, out_features=40, bias=True)
  )
)><bound method Module.state_dict of Decoder(
  (decoder): Sequential(
    (0): Linear(in_features=5, out_features=10, bias=True)
    (1): ReLU()
    (2): Linear(in_features=10, out_features=20, bias=True)
    (3): ReLU()
    (4): Linear(in_features=20, out_features=40, bias=True)
  )
)><bound method Module.state_dict of Decoder(
  (decoder): Sequential(
    (0): Linear(in_features=5, out_features=10, bias=True)
    (1): ReLU()
    (2): Linear(in_features=10, out_features=20, bias=True)
    (3): ReLU()
    (4): Linear(in_features=20, out_features=40, bias=True)
  )
)><bound method Module.state_dict of Decoder(
  (decoder): Sequential(
    (0): Linear(in_features=5, out_features=10, bias=True)
    (1): ReLU()
    (2): Linear(in_features=10, out_features=20, bias=True)
    (3): ReLU()
    (4): Linear(in_features=20, out_features=40, bias=True)
  )
)><bound method Module.state_dict of Decoder(
  (decoder): Sequential(
    (0): Linear(in_features=5, out_features=10, bias=True)
    (1): ReLU()
    (2): Linear(in_features=10, out_features=20, bias=True)
    (3): ReLU()
    (4): Linear(in_features=20, out_features=40, bias=True)
  )
)><bound method Module.state_dict of Decoder(
  (decoder): Sequential(
    (0): Linear(in_features=5, out_features=10, bias=True)
    (1): ReLU()
    (2): Linear(in_features=10, out_features=20, bias=True)
    (3): ReLU()
    (4): Linear(in_features=20, out_features=40, bias=True)
  )
)><bound method Module.state_dict of Decoder(
  (decoder): Sequential(
    (0): Linear(in_features=5, out_features=10, bias=True)
    (1): ReLU()
    (2): Linear(in_features=10, out_features=20, bias=True)
    (3): ReLU()
    (4): Linear(in_features=20, out_features=40, bias=True)
  )
)><bound method Module.state_dict of Decoder(
  (decoder): Sequential(
    (0): Linear(in_features=5, out_features=10, bias=True)
    (1): ReLU()
    (2): Linear(in_features=10, out_features=20, bias=True)
    (3): ReLU()
    (4): Linear(in_features=20, out_features=40, bias=True)
  )
)><bound method Module.state_dict of Decoder(
  (decoder): Sequential(
    (0): Linear(in_features=5, out_features=10, bias=True)
    (1): ReLU()
    (2): Linear(in_features=10, out_features=20, bias=True)
    (3): ReLU()
    (4): Linear(in_features=20, out_features=40, bias=True)
  )
)><bound method Module.state_dict of Decoder(
  (decoder): Sequential(
    (0): Linear(in_features=5, out_features=10, bias=True)
    (1): ReLU()
    (2): Linear(in_features=10, out_features=20, bias=True)
    (3): ReLU()
    (4): Linear(in_features=20, out_features=40, bias=True)
  )
)><bound method Module.state_dict of Decoder(
  (decoder): Sequential(
    (0): Linear(in_features=5, out_features=10, bias=True)
    (1): ReLU()
    (2): Linear(in_features=10, out_features=20, bias=True)
    (3): ReLU()
    (4): Linear(in_features=20, out_features=40, bias=True)
  )
)><bound method Module.state_dict of Decoder(
  (decoder): Sequential(
    (0): Linear(in_features=5, out_features=10, bias=True)
    (1): ReLU()
    (2): Linear(in_features=10, out_features=20, bias=True)
    (3): ReLU()
    (4): Linear(in_features=20, out_features=40, bias=True)
  )
)><bound method Module.state_dict of Decoder(
  (decoder): Sequential(
    (0): Linear(in_features=5, out_features=10, bias=True)
    (1): ReLU()
    (2): Linear(in_features=10, out_features=20, bias=True)
    (3): ReLU()
    (4): Linear(in_features=20, out_features=40, bias=True)
  )
)><bound method Module.state_dict of Decoder(
  (decoder): Sequential(
    (0): Linear(in_features=5, out_features=10, bias=True)
    (1): ReLU()
    (2): Linear(in_features=10, out_features=20, bias=True)
    (3): ReLU()
    (4): Linear(in_features=20, out_features=40, bias=True)
  )
)><bound method Module.state_dict of Decoder(
  (decoder): Sequential(
    (0): Linear(in_features=5, out_features=10, bias=True)
    (1): ReLU()
    (2): Linear(in_features=10, out_features=20, bias=True)
    (3): ReLU()
    (4): Linear(in_features=20, out_features=40, bias=True)
  )
)><bound method Module.state_dict of Decoder(
  (decoder): Sequential(
    (0): Linear(in_features=5, out_features=10, bias=True)
    (1): ReLU()
    (2): Linear(in_features=10, out_features=20, bias=True)
    (3): ReLU()
    (4): Linear(in_features=20, out_features=40, bias=True)
  )
)><bound method Module.state_dict of Decoder(
  (decoder): Sequential(
    (0): Linear(in_features=5, out_features=10, bias=True)
    (1): ReLU()
    (2): Linear(in_features=10, out_features=20, bias=True)
    (3): ReLU()
    (4): Linear(in_features=20, out_features=40, bias=True)
  )
)><bound method Module.state_dict of Decoder(
  (decoder): Sequential(
    (0): Linear(in_features=5, out_features=10, bias=True)
    (1): ReLU()
    (2): Linear(in_features=10, out_features=20, bias=True)
    (3): ReLU()
    (4): Linear(in_features=20, out_features=40, bias=True)
  )
)><bound method Module.state_dict of Decoder(
  (decoder): Sequential(
    (0): Linear(in_features=5, out_features=10, bias=True)
    (1): ReLU()
    (2): Linear(in_features=10, out_features=20, bias=True)
    (3): ReLU()
    (4): Linear(in_features=20, out_features=40, bias=True)
  )
)><bound method Module.state_dict of Decoder(
  (decoder): Sequential(
    (0): Linear(in_features=5, out_features=10, bias=True)
    (1): ReLU()
    (2): Linear(in_features=10, out_features=20, bias=True)
    (3): ReLU()
    (4): Linear(in_features=20, out_features=40, bias=True)
  )
)><bound method Module.state_dict of Decoder(
  (decoder): Sequential(
    (0): Linear(in_features=5, out_features=10, bias=True)
    (1): ReLU()
    (2): Linear(in_features=10, out_features=20, bias=True)
    (3): ReLU()
    (4): Linear(in_features=20, out_features=40, bias=True)
  )
)><bound method Module.state_dict of Decoder(
  (decoder): Sequential(
    (0): Linear(in_features=5, out_features=10, bias=True)
    (1): ReLU()
    (2): Linear(in_features=10, out_features=20, bias=True)
    (3): ReLU()
    (4): Linear(in_features=20, out_features=40, bias=True)
  )
)><bound method Module.state_dict of Decoder(
  (decoder): Sequential(
    (0): Linear(in_features=5, out_features=10, bias=True)
    (1): ReLU()
    (2): Linear(in_features=10, out_features=20, bias=True)
    (3): ReLU()
    (4): Linear(in_features=20, out_features=40, bias=True)
  )
)><bound method Module.state_dict of Decoder(
  (decoder): Sequential(
    (0): Linear(in_features=5, out_features=10, bias=True)
    (1): ReLU()
    (2): Linear(in_features=10, out_features=20, bias=True)
    (3): ReLU()
    (4): Linear(in_features=20, out_features=40, bias=True)
  )
)><bound method Module.state_dict of Decoder(
  (decoder): Sequential(
    (0): Linear(in_features=5, out_features=10, bias=True)
    (1): ReLU()
    (2): Linear(in_features=10, out_features=20, bias=True)
    (3): ReLU()
    (4): Linear(in_features=20, out_features=40, bias=True)
  )
)><bound method Module.state_dict of Decoder(
  (decoder): Sequential(
    (0): Linear(in_features=5, out_features=10, bias=True)
    (1): ReLU()
    (2): Linear(in_features=10, out_features=20, bias=True)
    (3): ReLU()
    (4): Linear(in_features=20, out_features=40, bias=True)
  )
)><bound method Module.state_dict of Decoder(
  (decoder): Sequential(
    (0): Linear(in_features=5, out_features=10, bias=True)
    (1): ReLU()
    (2): Linear(in_features=10, out_features=20, bias=True)
    (3): ReLU()
    (4): Linear(in_features=20, out_features=40, bias=True)
  )
)><bound method Module.state_dict of Decoder(
  (decoder): Sequential(
    (0): Linear(in_features=5, out_features=10, bias=True)
    (1): ReLU()
    (2): Linear(in_features=10, out_features=20, bias=True)
    (3): ReLU()
    (4): Linear(in_features=20, out_features=40, bias=True)
  )
)><bound method Module.state_dict of Decoder(
  (decoder): Sequential(
    (0): Linear(in_features=5, out_features=10, bias=True)
    (1): ReLU()
    (2): Linear(in_features=10, out_features=20, bias=True)
    (3): ReLU()
    (4): Linear(in_features=20, out_features=40, bias=True)
  )
)><bound method Module.state_dict of Decoder(
  (decoder): Sequential(
    (0): Linear(in_features=5, out_features=10, bias=True)
    (1): ReLU()
    (2): Linear(in_features=10, out_features=20, bias=True)
    (3): ReLU()
    (4): Linear(in_features=20, out_features=40, bias=True)
  )
)><bound method Module.state_dict of Decoder(
  (decoder): Sequential(
    (0): Linear(in_features=5, out_features=10, bias=True)
    (1): ReLU()
    (2): Linear(in_features=10, out_features=20, bias=True)
    (3): ReLU()
    (4): Linear(in_features=20, out_features=40, bias=True)
  )
)><bound method Module.state_dict of Decoder(
  (decoder): Sequential(
    (0): Linear(in_features=5, out_features=10, bias=True)
    (1): ReLU()
    (2): Linear(in_features=10, out_features=20, bias=True)
    (3): ReLU()
    (4): Linear(in_features=20, out_features=40, bias=True)
  )
)><bound method Module.state_dict of Decoder(
  (decoder): Sequential(
    (0): Linear(in_features=5, out_features=10, bias=True)
    (1): ReLU()
    (2): Linear(in_features=10, out_features=20, bias=True)
    (3): ReLU()
    (4): Linear(in_features=20, out_features=40, bias=True)
  )
)><bound method Module.state_dict of Decoder(
  (decoder): Sequential(
    (0): Linear(in_features=5, out_features=10, bias=True)
    (1): ReLU()
    (2): Linear(in_features=10, out_features=20, bias=True)
    (3): ReLU()
    (4): Linear(in_features=20, out_features=40, bias=True)
  )
)><bound method Module.state_dict of Decoder(
  (decoder): Sequential(
    (0): Linear(in_features=5, out_features=10, bias=True)
    (1): ReLU()
    (2): Linear(in_features=10, out_features=20, bias=True)
    (3): ReLU()
    (4): Linear(in_features=20, out_features=40, bias=True)
  )
)><bound method Module.state_dict of Decoder(
  (decoder): Sequential(
    (0): Linear(in_features=5, out_features=10, bias=True)
    (1): ReLU()
    (2): Linear(in_features=10, out_features=20, bias=True)
    (3): ReLU()
    (4): Linear(in_features=20, out_features=40, bias=True)
  )
)><bound method Module.state_dict of Decoder(
  (decoder): Sequential(
    (0): Linear(in_features=5, out_features=10, bias=True)
    (1): ReLU()
    (2): Linear(in_features=10, out_features=20, bias=True)
    (3): ReLU()
    (4): Linear(in_features=20, out_features=40, bias=True)
  )
)><bound method Module.state_dict of Decoder(
  (decoder): Sequential(
    (0): Linear(in_features=5, out_features=10, bias=True)
    (1): ReLU()
    (2): Linear(in_features=10, out_features=20, bias=True)
    (3): ReLU()
    (4): Linear(in_features=20, out_features=40, bias=True)
  )
)><bound method Module.state_dict of Decoder(
  (decoder): Sequential(
    (0): Linear(in_features=5, out_features=10, bias=True)
    (1): ReLU()
    (2): Linear(in_features=10, out_features=20, bias=True)
    (3): ReLU()
    (4): Linear(in_features=20, out_features=40, bias=True)
  )
)><bound method Module.state_dict of Decoder(
  (decoder): Sequential(
    (0): Linear(in_features=5, out_features=10, bias=True)
    (1): ReLU()
    (2): Linear(in_features=10, out_features=20, bias=True)
    (3): ReLU()
    (4): Linear(in_features=20, out_features=40, bias=True)
  )
)><bound method Module.state_dict of Decoder(
  (decoder): Sequential(
    (0): Linear(in_features=5, out_features=10, bias=True)
    (1): ReLU()
    (2): Linear(in_features=10, out_features=20, bias=True)
    (3): ReLU()
    (4): Linear(in_features=20, out_features=40, bias=True)
  )
)><bound method Module.state_dict of Decoder(
  (decoder): Sequential(
    (0): Linear(in_features=5, out_features=10, bias=True)
    (1): ReLU()
    (2): Linear(in_features=10, out_features=20, bias=True)
    (3): ReLU()
    (4): Linear(in_features=20, out_features=40, bias=True)
  )
)><bound method Module.state_dict of Decoder(
  (decoder): Sequential(
    (0): Linear(in_features=5, out_features=10, bias=True)
    (1): ReLU()
    (2): Linear(in_features=10, out_features=20, bias=True)
    (3): ReLU()
    (4): Linear(in_features=20, out_features=40, bias=True)
  )
)><bound method Module.state_dict of Decoder(
  (decoder): Sequential(
    (0): Linear(in_features=5, out_features=10, bias=True)
    (1): ReLU()
    (2): Linear(in_features=10, out_features=20, bias=True)
    (3): ReLU()
    (4): Linear(in_features=20, out_features=40, bias=True)
  )
)><bound method Module.state_dict of Decoder(
  (decoder): Sequential(
    (0): Linear(in_features=5, out_features=10, bias=True)
    (1): ReLU()
    (2): Linear(in_features=10, out_features=20, bias=True)
    (3): ReLU()
    (4): Linear(in_features=20, out_features=40, bias=True)
  )
)><bound method Module.state_dict of Decoder(
  (decoder): Sequential(
    (0): Linear(in_features=5, out_features=10, bias=True)
    (1): ReLU()
    (2): Linear(in_features=10, out_features=20, bias=True)
    (3): ReLU()
    (4): Linear(in_features=20, out_features=40, bias=True)
  )
)><bound method Module.state_dict of Decoder(
  (decoder): Sequential(
    (0): Linear(in_features=5, out_features=10, bias=True)
    (1): ReLU()
    (2): Linear(in_features=10, out_features=20, bias=True)
    (3): ReLU()
    (4): Linear(in_features=20, out_features=40, bias=True)
  )
)><bound method Module.state_dict of Decoder(
  (decoder): Sequential(
    (0): Linear(in_features=5, out_features=10, bias=True)
    (1): ReLU()
    (2): Linear(in_features=10, out_features=20, bias=True)
    (3): ReLU()
    (4): Linear(in_features=20, out_features=40, bias=True)
  )
)><bound method Module.state_dict of Decoder(
  (decoder): Sequential(
    (0): Linear(in_features=5, out_features=10, bias=True)
    (1): ReLU()
    (2): Linear(in_features=10, out_features=20, bias=True)
    (3): ReLU()
    (4): Linear(in_features=20, out_features=40, bias=True)
  )
)><bound method Module.state_dict of Decoder(
  (decoder): Sequential(
    (0): Linear(in_features=5, out_features=10, bias=True)
    (1): ReLU()
    (2): Linear(in_features=10, out_features=20, bias=True)
    (3): ReLU()
    (4): Linear(in_features=20, out_features=40, bias=True)
  )
)><bound method Module.state_dict of Decoder(
  (decoder): Sequential(
    (0): Linear(in_features=5, out_features=10, bias=True)
    (1): ReLU()
    (2): Linear(in_features=10, out_features=20, bias=True)
    (3): ReLU()
    (4): Linear(in_features=20, out_features=40, bias=True)
  )
)><bound method Module.state_dict of Decoder(
  (decoder): Sequential(
    (0): Linear(in_features=5, out_features=10, bias=True)
    (1): ReLU()
    (2): Linear(in_features=10, out_features=20, bias=True)
    (3): ReLU()
    (4): Linear(in_features=20, out_features=40, bias=True)
  )
)><bound method Module.state_dict of Decoder(
  (decoder): Sequential(
    (0): Linear(in_features=5, out_features=10, bias=True)
    (1): ReLU()
    (2): Linear(in_features=10, out_features=20, bias=True)
    (3): ReLU()
    (4): Linear(in_features=20, out_features=40, bias=True)
  )
)><bound method Module.state_dict of Decoder(
  (decoder): Sequential(
    (0): Linear(in_features=5, out_features=10, bias=True)
    (1): ReLU()
    (2): Linear(in_features=10, out_features=20, bias=True)
    (3): ReLU()
    (4): Linear(in_features=20, out_features=40, bias=True)
  )
)><bound method Module.state_dict of Decoder(
  (decoder): Sequential(
    (0): Linear(in_features=5, out_features=10, bias=True)
    (1): ReLU()
    (2): Linear(in_features=10, out_features=20, bias=True)
    (3): ReLU()
    (4): Linear(in_features=20, out_features=40, bias=True)
  )
)><bound method Module.state_dict of Decoder(
  (decoder): Sequential(
    (0): Linear(in_features=5, out_features=10, bias=True)
    (1): ReLU()
    (2): Linear(in_features=10, out_features=20, bias=True)
    (3): ReLU()
    (4): Linear(in_features=20, out_features=40, bias=True)
  )
)><bound method Module.state_dict of Decoder(
  (decoder): Sequential(
    (0): Linear(in_features=5, out_features=10, bias=True)
    (1): ReLU()
    (2): Linear(in_features=10, out_features=20, bias=True)
    (3): ReLU()
    (4): Linear(in_features=20, out_features=40, bias=True)
  )
)><bound method Module.state_dict of Decoder(
  (decoder): Sequential(
    (0): Linear(in_features=5, out_features=10, bias=True)
    (1): ReLU()
    (2): Linear(in_features=10, out_features=20, bias=True)
    (3): ReLU()
    (4): Linear(in_features=20, out_features=40, bias=True)
  )
)><bound method Module.state_dict of Decoder(
  (decoder): Sequential(
    (0): Linear(in_features=5, out_features=10, bias=True)
    (1): ReLU()
    (2): Linear(in_features=10, out_features=20, bias=True)
    (3): ReLU()
    (4): Linear(in_features=20, out_features=40, bias=True)
  )
)><bound method Module.state_dict of Decoder(
  (decoder): Sequential(
    (0): Linear(in_features=5, out_features=10, bias=True)
    (1): ReLU()
    (2): Linear(in_features=10, out_features=20, bias=True)
    (3): ReLU()
    (4): Linear(in_features=20, out_features=40, bias=True)
  )
)><bound method Module.state_dict of Decoder(
  (decoder): Sequential(
    (0): Linear(in_features=5, out_features=10, bias=True)
    (1): ReLU()
    (2): Linear(in_features=10, out_features=20, bias=True)
    (3): ReLU()
    (4): Linear(in_features=20, out_features=40, bias=True)
  )
)><bound method Module.state_dict of Decoder(
  (decoder): Sequential(
    (0): Linear(in_features=5, out_features=10, bias=True)
    (1): ReLU()
    (2): Linear(in_features=10, out_features=20, bias=True)
    (3): ReLU()
    (4): Linear(in_features=20, out_features=40, bias=True)
  )
)><bound method Module.state_dict of Decoder(
  (decoder): Sequential(
    (0): Linear(in_features=5, out_features=10, bias=True)
    (1): ReLU()
    (2): Linear(in_features=10, out_features=20, bias=True)
    (3): ReLU()
    (4): Linear(in_features=20, out_features=40, bias=True)
  )
)><bound method Module.state_dict of Decoder(
  (decoder): Sequential(
    (0): Linear(in_features=5, out_features=10, bias=True)
    (1): ReLU()
    (2): Linear(in_features=10, out_features=20, bias=True)
    (3): ReLU()
    (4): Linear(in_features=20, out_features=40, bias=True)
  )
)><bound method Module.state_dict of Decoder(
  (decoder): Sequential(
    (0): Linear(in_features=5, out_features=10, bias=True)
    (1): ReLU()
    (2): Linear(in_features=10, out_features=20, bias=True)
    (3): ReLU()
    (4): Linear(in_features=20, out_features=40, bias=True)
  )
)><bound method Module.state_dict of Decoder(
  (decoder): Sequential(
    (0): Linear(in_features=5, out_features=10, bias=True)
    (1): ReLU()
    (2): Linear(in_features=10, out_features=20, bias=True)
    (3): ReLU()
    (4): Linear(in_features=20, out_features=40, bias=True)
  )
)><bound method Module.state_dict of Decoder(
  (decoder): Sequential(
    (0): Linear(in_features=5, out_features=10, bias=True)
    (1): ReLU()
    (2): Linear(in_features=10, out_features=20, bias=True)
    (3): ReLU()
    (4): Linear(in_features=20, out_features=40, bias=True)
  )
)><bound method Module.state_dict of Decoder(
  (decoder): Sequential(
    (0): Linear(in_features=5, out_features=10, bias=True)
    (1): ReLU()
    (2): Linear(in_features=10, out_features=20, bias=True)
    (3): ReLU()
    (4): Linear(in_features=20, out_features=40, bias=True)
  )
)><bound method Module.state_dict of Decoder(
  (decoder): Sequential(
    (0): Linear(in_features=5, out_features=10, bias=True)
    (1): ReLU()
    (2): Linear(in_features=10, out_features=20, bias=True)
    (3): ReLU()
    (4): Linear(in_features=20, out_features=40, bias=True)
  )
)><bound method Module.state_dict of Decoder(
  (decoder): Sequential(
    (0): Linear(in_features=5, out_features=10, bias=True)
    (1): ReLU()
    (2): Linear(in_features=10, out_features=20, bias=True)
    (3): ReLU()
    (4): Linear(in_features=20, out_features=40, bias=True)
  )
)><bound method Module.state_dict of Decoder(
  (decoder): Sequential(
    (0): Linear(in_features=5, out_features=10, bias=True)
    (1): ReLU()
    (2): Linear(in_features=10, out_features=20, bias=True)
    (3): ReLU()
    (4): Linear(in_features=20, out_features=40, bias=True)
  )
)><bound method Module.state_dict of Decoder(
  (decoder): Sequential(
    (0): Linear(in_features=5, out_features=10, bias=True)
    (1): ReLU()
    (2): Linear(in_features=10, out_features=20, bias=True)
    (3): ReLU()
    (4): Linear(in_features=20, out_features=40, bias=True)
  )
)><bound method Module.state_dict of Decoder(
  (decoder): Sequential(
    (0): Linear(in_features=5, out_features=10, bias=True)
    (1): ReLU()
    (2): Linear(in_features=10, out_features=20, bias=True)
    (3): ReLU()
    (4): Linear(in_features=20, out_features=40, bias=True)
  )
)><bound method Module.state_dict of Decoder(
  (decoder): Sequential(
    (0): Linear(in_features=5, out_features=10, bias=True)
    (1): ReLU()
    (2): Linear(in_features=10, out_features=20, bias=True)
    (3): ReLU()
    (4): Linear(in_features=20, out_features=40, bias=True)
  )
)><bound method Module.state_dict of Decoder(
  (decoder): Sequential(
    (0): Linear(in_features=5, out_features=10, bias=True)
    (1): ReLU()
    (2): Linear(in_features=10, out_features=20, bias=True)
    (3): ReLU()
    (4): Linear(in_features=20, out_features=40, bias=True)
  )
)><bound method Module.state_dict of Decoder(
  (decoder): Sequential(
    (0): Linear(in_features=5, out_features=10, bias=True)
    (1): ReLU()
    (2): Linear(in_features=10, out_features=20, bias=True)
    (3): ReLU()
    (4): Linear(in_features=20, out_features=40, bias=True)
  )
)><bound method Module.state_dict of Decoder(
  (decoder): Sequential(
    (0): Linear(in_features=5, out_features=10, bias=True)
    (1): ReLU()
    (2): Linear(in_features=10, out_features=20, bias=True)
    (3): ReLU()
    (4): Linear(in_features=20, out_features=40, bias=True)
  )
)><bound method Module.state_dict of Decoder(
  (decoder): Sequential(
    (0): Linear(in_features=5, out_features=10, bias=True)
    (1): ReLU()
    (2): Linear(in_features=10, out_features=20, bias=True)
    (3): ReLU()
    (4): Linear(in_features=20, out_features=40, bias=True)
  )
)><bound method Module.state_dict of Decoder(
  (decoder): Sequential(
    (0): Linear(in_features=5, out_features=10, bias=True)
    (1): ReLU()
    (2): Linear(in_features=10, out_features=20, bias=True)
    (3): ReLU()
    (4): Linear(in_features=20, out_features=40, bias=True)
  )
)><bound method Module.state_dict of Decoder(
  (decoder): Sequential(
    (0): Linear(in_features=5, out_features=10, bias=True)
    (1): ReLU()
    (2): Linear(in_features=10, out_features=20, bias=True)
    (3): ReLU()
    (4): Linear(in_features=20, out_features=40, bias=True)
  )
)><bound method Module.state_dict of Decoder(
  (decoder): Sequential(
    (0): Linear(in_features=5, out_features=10, bias=True)
    (1): ReLU()
    (2): Linear(in_features=10, out_features=20, bias=True)
    (3): ReLU()
    (4): Linear(in_features=20, out_features=40, bias=True)
  )
)><bound method Module.state_dict of Decoder(
  (decoder): Sequential(
    (0): Linear(in_features=5, out_features=10, bias=True)
    (1): ReLU()
    (2): Linear(in_features=10, out_features=20, bias=True)
    (3): ReLU()
    (4): Linear(in_features=20, out_features=40, bias=True)
  )
)><bound method Module.state_dict of Decoder(
  (decoder): Sequential(
    (0): Linear(in_features=5, out_features=10, bias=True)
    (1): ReLU()
    (2): Linear(in_features=10, out_features=20, bias=True)
    (3): ReLU()
    (4): Linear(in_features=20, out_features=40, bias=True)
  )
)><bound method Module.state_dict of Decoder(
  (decoder): Sequential(
    (0): Linear(in_features=5, out_features=10, bias=True)
    (1): ReLU()
    (2): Linear(in_features=10, out_features=20, bias=True)
    (3): ReLU()
    (4): Linear(in_features=20, out_features=40, bias=True)
  )
)><bound method Module.state_dict of Decoder(
  (decoder): Sequential(
    (0): Linear(in_features=5, out_features=10, bias=True)
    (1): ReLU()
    (2): Linear(in_features=10, out_features=20, bias=True)
    (3): ReLU()
    (4): Linear(in_features=20, out_features=40, bias=True)
  )
)><bound method Module.state_dict of Decoder(
  (decoder): Sequential(
    (0): Linear(in_features=5, out_features=10, bias=True)
    (1): ReLU()
    (2): Linear(in_features=10, out_features=20, bias=True)
    (3): ReLU()
    (4): Linear(in_features=20, out_features=40, bias=True)
  )
)><bound method Module.state_dict of Decoder(
  (decoder): Sequential(
    (0): Linear(in_features=5, out_features=10, bias=True)
    (1): ReLU()
    (2): Linear(in_features=10, out_features=20, bias=True)
    (3): ReLU()
    (4): Linear(in_features=20, out_features=40, bias=True)
  )
)><bound method Module.state_dict of Decoder(
  (decoder): Sequential(
    (0): Linear(in_features=5, out_features=10, bias=True)
    (1): ReLU()
    (2): Linear(in_features=10, out_features=20, bias=True)
    (3): ReLU()
    (4): Linear(in_features=20, out_features=40, bias=True)
  )
)><bound method Module.state_dict of Decoder(
  (decoder): Sequential(
    (0): Linear(in_features=5, out_features=10, bias=True)
    (1): ReLU()
    (2): Linear(in_features=10, out_features=20, bias=True)
    (3): ReLU()
    (4): Linear(in_features=20, out_features=40, bias=True)
  )
)><bound method Module.state_dict of Decoder(
  (decoder): Sequential(
    (0): Linear(in_features=5, out_features=10, bias=True)
    (1): ReLU()
    (2): Linear(in_features=10, out_features=20, bias=True)
    (3): ReLU()
    (4): Linear(in_features=20, out_features=40, bias=True)
  )
)><bound method Module.state_dict of Decoder(
  (decoder): Sequential(
    (0): Linear(in_features=5, out_features=10, bias=True)
    (1): ReLU()
    (2): Linear(in_features=10, out_features=20, bias=True)
    (3): ReLU()
    (4): Linear(in_features=20, out_features=40, bias=True)
  )
)><bound method Module.state_dict of Decoder(
  (decoder): Sequential(
    (0): Linear(in_features=5, out_features=10, bias=True)
    (1): ReLU()
    (2): Linear(in_features=10, out_features=20, bias=True)
    (3): ReLU()
    (4): Linear(in_features=20, out_features=40, bias=True)
  )
)><bound method Module.state_dict of Decoder(
  (decoder): Sequential(
    (0): Linear(in_features=5, out_features=10, bias=True)
    (1): ReLU()
    (2): Linear(in_features=10, out_features=20, bias=True)
    (3): ReLU()
    (4): Linear(in_features=20, out_features=40, bias=True)
  )
)><bound method Module.state_dict of Decoder(
  (decoder): Sequential(
    (0): Linear(in_features=5, out_features=10, bias=True)
    (1): ReLU()
    (2): Linear(in_features=10, out_features=20, bias=True)
    (3): ReLU()
    (4): Linear(in_features=20, out_features=40, bias=True)
  )
)><bound method Module.state_dict of Decoder(
  (decoder): Sequential(
    (0): Linear(in_features=5, out_features=10, bias=True)
    (1): ReLU()
    (2): Linear(in_features=10, out_features=20, bias=True)
    (3): ReLU()
    (4): Linear(in_features=20, out_features=40, bias=True)
  )
)><bound method Module.state_dict of Decoder(
  (decoder): Sequential(
    (0): Linear(in_features=5, out_features=10, bias=True)
    (1): ReLU()
    (2): Linear(in_features=10, out_features=20, bias=True)
    (3): ReLU()
    (4): Linear(in_features=20, out_features=40, bias=True)
  )
)><bound method Module.state_dict of Decoder(
  (decoder): Sequential(
    (0): Linear(in_features=5, out_features=10, bias=True)
    (1): ReLU()
    (2): Linear(in_features=10, out_features=20, bias=True)
    (3): ReLU()
    (4): Linear(in_features=20, out_features=40, bias=True)
  )
)><bound method Module.state_dict of Decoder(
  (decoder): Sequential(
    (0): Linear(in_features=5, out_features=10, bias=True)
    (1): ReLU()
    (2): Linear(in_features=10, out_features=20, bias=True)
    (3): ReLU()
    (4): Linear(in_features=20, out_features=40, bias=True)
  )
)><bound method Module.state_dict of Decoder(
  (decoder): Sequential(
    (0): Linear(in_features=5, out_features=10, bias=True)
    (1): ReLU()
    (2): Linear(in_features=10, out_features=20, bias=True)
    (3): ReLU()
    (4): Linear(in_features=20, out_features=40, bias=True)
  )
)><bound method Module.state_dict of Decoder(
  (decoder): Sequential(
    (0): Linear(in_features=5, out_features=10, bias=True)
    (1): ReLU()
    (2): Linear(in_features=10, out_features=20, bias=True)
    (3): ReLU()
    (4): Linear(in_features=20, out_features=40, bias=True)
  )
)><bound method Module.state_dict of Decoder(
  (decoder): Sequential(
    (0): Linear(in_features=5, out_features=10, bias=True)
    (1): ReLU()
    (2): Linear(in_features=10, out_features=20, bias=True)
    (3): ReLU()
    (4): Linear(in_features=20, out_features=40, bias=True)
  )
)><bound method Module.state_dict of Decoder(
  (decoder): Sequential(
    (0): Linear(in_features=5, out_features=10, bias=True)
    (1): ReLU()
    (2): Linear(in_features=10, out_features=20, bias=True)
    (3): ReLU()
    (4): Linear(in_features=20, out_features=40, bias=True)
  )
)><bound method Module.state_dict of Decoder(
  (decoder): Sequential(
    (0): Linear(in_features=5, out_features=10, bias=True)
    (1): ReLU()
    (2): Linear(in_features=10, out_features=20, bias=True)
    (3): ReLU()
    (4): Linear(in_features=20, out_features=40, bias=True)
  )
)><bound method Module.state_dict of Decoder(
  (decoder): Sequential(
    (0): Linear(in_features=5, out_features=10, bias=True)
    (1): ReLU()
    (2): Linear(in_features=10, out_features=20, bias=True)
    (3): ReLU()
    (4): Linear(in_features=20, out_features=40, bias=True)
  )
)><bound method Module.state_dict of Decoder(
  (decoder): Sequential(
    (0): Linear(in_features=5, out_features=10, bias=True)
    (1): ReLU()
    (2): Linear(in_features=10, out_features=20, bias=True)
    (3): ReLU()
    (4): Linear(in_features=20, out_features=40, bias=True)
  )
)><bound method Module.state_dict of Decoder(
  (decoder): Sequential(
    (0): Linear(in_features=5, out_features=10, bias=True)
    (1): ReLU()
    (2): Linear(in_features=10, out_features=20, bias=True)
    (3): ReLU()
    (4): Linear(in_features=20, out_features=40, bias=True)
  )
)><bound method Module.state_dict of Decoder(
  (decoder): Sequential(
    (0): Linear(in_features=5, out_features=10, bias=True)
    (1): ReLU()
    (2): Linear(in_features=10, out_features=20, bias=True)
    (3): ReLU()
    (4): Linear(in_features=20, out_features=40, bias=True)
  )
)><bound method Module.state_dict of Decoder(
  (decoder): Sequential(
    (0): Linear(in_features=5, out_features=10, bias=True)
    (1): ReLU()
    (2): Linear(in_features=10, out_features=20, bias=True)
    (3): ReLU()
    (4): Linear(in_features=20, out_features=40, bias=True)
  )
)><bound method Module.state_dict of Decoder(
  (decoder): Sequential(
    (0): Linear(in_features=5, out_features=10, bias=True)
    (1): ReLU()
    (2): Linear(in_features=10, out_features=20, bias=True)
    (3): ReLU()
    (4): Linear(in_features=20, out_features=40, bias=True)
  )
)><bound method Module.state_dict of Decoder(
  (decoder): Sequential(
    (0): Linear(in_features=5, out_features=10, bias=True)
    (1): ReLU()
    (2): Linear(in_features=10, out_features=20, bias=True)
    (3): ReLU()
    (4): Linear(in_features=20, out_features=40, bias=True)
  )
)><bound method Module.state_dict of Decoder(
  (decoder): Sequential(
    (0): Linear(in_features=5, out_features=10, bias=True)
    (1): ReLU()
    (2): Linear(in_features=10, out_features=20, bias=True)
    (3): ReLU()
    (4): Linear(in_features=20, out_features=40, bias=True)
  )
)><bound method Module.state_dict of Decoder(
  (decoder): Sequential(
    (0): Linear(in_features=5, out_features=10, bias=True)
    (1): ReLU()
    (2): Linear(in_features=10, out_features=20, bias=True)
    (3): ReLU()
    (4): Linear(in_features=20, out_features=40, bias=True)
  )
)><bound method Module.state_dict of Decoder(
  (decoder): Sequential(
    (0): Linear(in_features=5, out_features=10, bias=True)
    (1): ReLU()
    (2): Linear(in_features=10, out_features=20, bias=True)
    (3): ReLU()
    (4): Linear(in_features=20, out_features=40, bias=True)
  )
)><bound method Module.state_dict of Decoder(
  (decoder): Sequential(
    (0): Linear(in_features=5, out_features=10, bias=True)
    (1): ReLU()
    (2): Linear(in_features=10, out_features=20, bias=True)
    (3): ReLU()
    (4): Linear(in_features=20, out_features=40, bias=True)
  )
)><bound method Module.state_dict of Decoder(
  (decoder): Sequential(
    (0): Linear(in_features=5, out_features=10, bias=True)
    (1): ReLU()
    (2): Linear(in_features=10, out_features=20, bias=True)
    (3): ReLU()
    (4): Linear(in_features=20, out_features=40, bias=True)
  )
)><bound method Module.state_dict of Decoder(
  (decoder): Sequential(
    (0): Linear(in_features=5, out_features=10, bias=True)
    (1): ReLU()
    (2): Linear(in_features=10, out_features=20, bias=True)
    (3): ReLU()
    (4): Linear(in_features=20, out_features=40, bias=True)
  )
)><bound method Module.state_dict of Decoder(
  (decoder): Sequential(
    (0): Linear(in_features=5, out_features=10, bias=True)
    (1): ReLU()
    (2): Linear(in_features=10, out_features=20, bias=True)
    (3): ReLU()
    (4): Linear(in_features=20, out_features=40, bias=True)
  )
)><bound method Module.state_dict of Decoder(
  (decoder): Sequential(
    (0): Linear(in_features=5, out_features=10, bias=True)
    (1): ReLU()
    (2): Linear(in_features=10, out_features=20, bias=True)
    (3): ReLU()
    (4): Linear(in_features=20, out_features=40, bias=True)
  )
)><bound method Module.state_dict of Decoder(
  (decoder): Sequential(
    (0): Linear(in_features=5, out_features=10, bias=True)
    (1): ReLU()
    (2): Linear(in_features=10, out_features=20, bias=True)
    (3): ReLU()
    (4): Linear(in_features=20, out_features=40, bias=True)
  )
)><bound method Module.state_dict of Decoder(
  (decoder): Sequential(
    (0): Linear(in_features=5, out_features=10, bias=True)
    (1): ReLU()
    (2): Linear(in_features=10, out_features=20, bias=True)
    (3): ReLU()
    (4): Linear(in_features=20, out_features=40, bias=True)
  )
)><bound method Module.state_dict of Decoder(
  (decoder): Sequential(
    (0): Linear(in_features=5, out_features=10, bias=True)
    (1): ReLU()
    (2): Linear(in_features=10, out_features=20, bias=True)
    (3): ReLU()
    (4): Linear(in_features=20, out_features=40, bias=True)
  )
)><bound method Module.state_dict of Decoder(
  (decoder): Sequential(
    (0): Linear(in_features=5, out_features=10, bias=True)
    (1): ReLU()
    (2): Linear(in_features=10, out_features=20, bias=True)
    (3): ReLU()
    (4): Linear(in_features=20, out_features=40, bias=True)
  )
)><bound method Module.state_dict of Decoder(
  (decoder): Sequential(
    (0): Linear(in_features=5, out_features=10, bias=True)
    (1): ReLU()
    (2): Linear(in_features=10, out_features=20, bias=True)
    (3): ReLU()
    (4): Linear(in_features=20, out_features=40, bias=True)
  )
)><bound method Module.state_dict of Decoder(
  (decoder): Sequential(
    (0): Linear(in_features=5, out_features=10, bias=True)
    (1): ReLU()
    (2): Linear(in_features=10, out_features=20, bias=True)
    (3): ReLU()
    (4): Linear(in_features=20, out_features=40, bias=True)
  )
)><bound method Module.state_dict of Decoder(
  (decoder): Sequential(
    (0): Linear(in_features=5, out_features=10, bias=True)
    (1): ReLU()
    (2): Linear(in_features=10, out_features=20, bias=True)
    (3): ReLU()
    (4): Linear(in_features=20, out_features=40, bias=True)
  )
)><bound method Module.state_dict of Decoder(
  (decoder): Sequential(
    (0): Linear(in_features=5, out_features=10, bias=True)
    (1): ReLU()
    (2): Linear(in_features=10, out_features=20, bias=True)
    (3): ReLU()
    (4): Linear(in_features=20, out_features=40, bias=True)
  )
)><bound method Module.state_dict of Decoder(
  (decoder): Sequential(
    (0): Linear(in_features=5, out_features=10, bias=True)
    (1): ReLU()
    (2): Linear(in_features=10, out_features=20, bias=True)
    (3): ReLU()
    (4): Linear(in_features=20, out_features=40, bias=True)
  )
)><bound method Module.state_dict of Decoder(
  (decoder): Sequential(
    (0): Linear(in_features=5, out_features=10, bias=True)
    (1): ReLU()
    (2): Linear(in_features=10, out_features=20, bias=True)
    (3): ReLU()
    (4): Linear(in_features=20, out_features=40, bias=True)
  )
)><bound method Module.state_dict of Decoder(
  (decoder): Sequential(
    (0): Linear(in_features=5, out_features=10, bias=True)
    (1): ReLU()
    (2): Linear(in_features=10, out_features=20, bias=True)
    (3): ReLU()
    (4): Linear(in_features=20, out_features=40, bias=True)
  )
)><bound method Module.state_dict of Decoder(
  (decoder): Sequential(
    (0): Linear(in_features=5, out_features=10, bias=True)
    (1): ReLU()
    (2): Linear(in_features=10, out_features=20, bias=True)
    (3): ReLU()
    (4): Linear(in_features=20, out_features=40, bias=True)
  )
)><bound method Module.state_dict of Decoder(
  (decoder): Sequential(
    (0): Linear(in_features=5, out_features=10, bias=True)
    (1): ReLU()
    (2): Linear(in_features=10, out_features=20, bias=True)
    (3): ReLU()
    (4): Linear(in_features=20, out_features=40, bias=True)
  )
)><bound method Module.state_dict of Decoder(
  (decoder): Sequential(
    (0): Linear(in_features=5, out_features=10, bias=True)
    (1): ReLU()
    (2): Linear(in_features=10, out_features=20, bias=True)
    (3): ReLU()
    (4): Linear(in_features=20, out_features=40, bias=True)
  )
)><bound method Module.state_dict of Decoder(
  (decoder): Sequential(
    (0): Linear(in_features=5, out_features=10, bias=True)
    (1): ReLU()
    (2): Linear(in_features=10, out_features=20, bias=True)
    (3): ReLU()
    (4): Linear(in_features=20, out_features=40, bias=True)
  )
)><bound method Module.state_dict of Decoder(
  (decoder): Sequential(
    (0): Linear(in_features=5, out_features=10, bias=True)
    (1): ReLU()
    (2): Linear(in_features=10, out_features=20, bias=True)
    (3): ReLU()
    (4): Linear(in_features=20, out_features=40, bias=True)
  )
)><bound method Module.state_dict of Decoder(
  (decoder): Sequential(
    (0): Linear(in_features=5, out_features=10, bias=True)
    (1): ReLU()
    (2): Linear(in_features=10, out_features=20, bias=True)
    (3): ReLU()
    (4): Linear(in_features=20, out_features=40, bias=True)
  )
)><bound method Module.state_dict of Decoder(
  (decoder): Sequential(
    (0): Linear(in_features=5, out_features=10, bias=True)
    (1): ReLU()
    (2): Linear(in_features=10, out_features=20, bias=True)
    (3): ReLU()
    (4): Linear(in_features=20, out_features=40, bias=True)
  )
)><bound method Module.state_dict of Decoder(
  (decoder): Sequential(
    (0): Linear(in_features=5, out_features=10, bias=True)
    (1): ReLU()
    (2): Linear(in_features=10, out_features=20, bias=True)
    (3): ReLU()
    (4): Linear(in_features=20, out_features=40, bias=True)
  )
)><bound method Module.state_dict of Decoder(
  (decoder): Sequential(
    (0): Linear(in_features=5, out_features=10, bias=True)
    (1): ReLU()
    (2): Linear(in_features=10, out_features=20, bias=True)
    (3): ReLU()
    (4): Linear(in_features=20, out_features=40, bias=True)
  )
)><bound method Module.state_dict of Decoder(
  (decoder): Sequential(
    (0): Linear(in_features=5, out_features=10, bias=True)
    (1): ReLU()
    (2): Linear(in_features=10, out_features=20, bias=True)
    (3): ReLU()
    (4): Linear(in_features=20, out_features=40, bias=True)
  )
)><bound method Module.state_dict of Decoder(
  (decoder): Sequential(
    (0): Linear(in_features=5, out_features=10, bias=True)
    (1): ReLU()
    (2): Linear(in_features=10, out_features=20, bias=True)
    (3): ReLU()
    (4): Linear(in_features=20, out_features=40, bias=True)
  )
)><bound method Module.state_dict of Decoder(
  (decoder): Sequential(
    (0): Linear(in_features=5, out_features=10, bias=True)
    (1): ReLU()
    (2): Linear(in_features=10, out_features=20, bias=True)
    (3): ReLU()
    (4): Linear(in_features=20, out_features=40, bias=True)
  )
)><bound method Module.state_dict of Decoder(
  (decoder): Sequential(
    (0): Linear(in_features=5, out_features=10, bias=True)
    (1): ReLU()
    (2): Linear(in_features=10, out_features=20, bias=True)
    (3): ReLU()
    (4): Linear(in_features=20, out_features=40, bias=True)
  )
)><bound method Module.state_dict of Decoder(
  (decoder): Sequential(
    (0): Linear(in_features=5, out_features=10, bias=True)
    (1): ReLU()
    (2): Linear(in_features=10, out_features=20, bias=True)
    (3): ReLU()
    (4): Linear(in_features=20, out_features=40, bias=True)
  )
)><bound method Module.state_dict of Decoder(
  (decoder): Sequential(
    (0): Linear(in_features=5, out_features=10, bias=True)
    (1): ReLU()
    (2): Linear(in_features=10, out_features=20, bias=True)
    (3): ReLU()
    (4): Linear(in_features=20, out_features=40, bias=True)
  )
)><bound method Module.state_dict of Decoder(
  (decoder): Sequential(
    (0): Linear(in_features=5, out_features=10, bias=True)
    (1): ReLU()
    (2): Linear(in_features=10, out_features=20, bias=True)
    (3): ReLU()
    (4): Linear(in_features=20, out_features=40, bias=True)
  )
)><bound method Module.state_dict of Decoder(
  (decoder): Sequential(
    (0): Linear(in_features=5, out_features=10, bias=True)
    (1): ReLU()
    (2): Linear(in_features=10, out_features=20, bias=True)
    (3): ReLU()
    (4): Linear(in_features=20, out_features=40, bias=True)
  )
)><bound method Module.state_dict of Decoder(
  (decoder): Sequential(
    (0): Linear(in_features=5, out_features=10, bias=True)
    (1): ReLU()
    (2): Linear(in_features=10, out_features=20, bias=True)
    (3): ReLU()
    (4): Linear(in_features=20, out_features=40, bias=True)
  )
)><bound method Module.state_dict of Decoder(
  (decoder): Sequential(
    (0): Linear(in_features=5, out_features=10, bias=True)
    (1): ReLU()
    (2): Linear(in_features=10, out_features=20, bias=True)
    (3): ReLU()
    (4): Linear(in_features=20, out_features=40, bias=True)
  )
)><bound method Module.state_dict of Decoder(
  (decoder): Sequential(
    (0): Linear(in_features=5, out_features=10, bias=True)
    (1): ReLU()
    (2): Linear(in_features=10, out_features=20, bias=True)
    (3): ReLU()
    (4): Linear(in_features=20, out_features=40, bias=True)
  )
)><bound method Module.state_dict of Decoder(
  (decoder): Sequential(
    (0): Linear(in_features=5, out_features=10, bias=True)
    (1): ReLU()
    (2): Linear(in_features=10, out_features=20, bias=True)
    (3): ReLU()
    (4): Linear(in_features=20, out_features=40, bias=True)
  )
)><bound method Module.state_dict of Decoder(
  (decoder): Sequential(
    (0): Linear(in_features=5, out_features=10, bias=True)
    (1): ReLU()
    (2): Linear(in_features=10, out_features=20, bias=True)
    (3): ReLU()
    (4): Linear(in_features=20, out_features=40, bias=True)
  )
)><bound method Module.state_dict of Decoder(
  (decoder): Sequential(
    (0): Linear(in_features=5, out_features=10, bias=True)
    (1): ReLU()
    (2): Linear(in_features=10, out_features=20, bias=True)
    (3): ReLU()
    (4): Linear(in_features=20, out_features=40, bias=True)
  )
)><bound method Module.state_dict of Decoder(
  (decoder): Sequential(
    (0): Linear(in_features=5, out_features=10, bias=True)
    (1): ReLU()
    (2): Linear(in_features=10, out_features=20, bias=True)
    (3): ReLU()
    (4): Linear(in_features=20, out_features=40, bias=True)
  )
)><bound method Module.state_dict of Decoder(
  (decoder): Sequential(
    (0): Linear(in_features=5, out_features=10, bias=True)
    (1): ReLU()
    (2): Linear(in_features=10, out_features=20, bias=True)
    (3): ReLU()
    (4): Linear(in_features=20, out_features=40, bias=True)
  )
)><bound method Module.state_dict of Decoder(
  (decoder): Sequential(
    (0): Linear(in_features=5, out_features=10, bias=True)
    (1): ReLU()
    (2): Linear(in_features=10, out_features=20, bias=True)
    (3): ReLU()
    (4): Linear(in_features=20, out_features=40, bias=True)
  )
)><bound method Module.state_dict of Decoder(
  (decoder): Sequential(
    (0): Linear(in_features=5, out_features=10, bias=True)
    (1): ReLU()
    (2): Linear(in_features=10, out_features=20, bias=True)
    (3): ReLU()
    (4): Linear(in_features=20, out_features=40, bias=True)
  )
)><bound method Module.state_dict of Decoder(
  (decoder): Sequential(
    (0): Linear(in_features=5, out_features=10, bias=True)
    (1): ReLU()
    (2): Linear(in_features=10, out_features=20, bias=True)
    (3): ReLU()
    (4): Linear(in_features=20, out_features=40, bias=True)
  )
)><bound method Module.state_dict of Decoder(
  (decoder): Sequential(
    (0): Linear(in_features=5, out_features=10, bias=True)
    (1): ReLU()
    (2): Linear(in_features=10, out_features=20, bias=True)
    (3): ReLU()
    (4): Linear(in_features=20, out_features=40, bias=True)
  )
)><bound method Module.state_dict of Decoder(
  (decoder): Sequential(
    (0): Linear(in_features=5, out_features=10, bias=True)
    (1): ReLU()
    (2): Linear(in_features=10, out_features=20, bias=True)
    (3): ReLU()
    (4): Linear(in_features=20, out_features=40, bias=True)
  )
)><bound method Module.state_dict of Decoder(
  (decoder): Sequential(
    (0): Linear(in_features=5, out_features=10, bias=True)
    (1): ReLU()
    (2): Linear(in_features=10, out_features=20, bias=True)
    (3): ReLU()
    (4): Linear(in_features=20, out_features=40, bias=True)
  )
)><bound method Module.state_dict of Decoder(
  (decoder): Sequential(
    (0): Linear(in_features=5, out_features=10, bias=True)
    (1): ReLU()
    (2): Linear(in_features=10, out_features=20, bias=True)
    (3): ReLU()
    (4): Linear(in_features=20, out_features=40, bias=True)
  )
)><bound method Module.state_dict of Decoder(
  (decoder): Sequential(
    (0): Linear(in_features=5, out_features=10, bias=True)
    (1): ReLU()
    (2): Linear(in_features=10, out_features=20, bias=True)
    (3): ReLU()
    (4): Linear(in_features=20, out_features=40, bias=True)
  )
)><bound method Module.state_dict of Decoder(
  (decoder): Sequential(
    (0): Linear(in_features=5, out_features=10, bias=True)
    (1): ReLU()
    (2): Linear(in_features=10, out_features=20, bias=True)
    (3): ReLU()
    (4): Linear(in_features=20, out_features=40, bias=True)
  )
)><bound method Module.state_dict of Decoder(
  (decoder): Sequential(
    (0): Linear(in_features=5, out_features=10, bias=True)
    (1): ReLU()
    (2): Linear(in_features=10, out_features=20, bias=True)
    (3): ReLU()
    (4): Linear(in_features=20, out_features=40, bias=True)
  )
)><bound method Module.state_dict of Decoder(
  (decoder): Sequential(
    (0): Linear(in_features=5, out_features=10, bias=True)
    (1): ReLU()
    (2): Linear(in_features=10, out_features=20, bias=True)
    (3): ReLU()
    (4): Linear(in_features=20, out_features=40, bias=True)
  )
)><bound method Module.state_dict of Decoder(
  (decoder): Sequential(
    (0): Linear(in_features=5, out_features=10, bias=True)
    (1): ReLU()
    (2): Linear(in_features=10, out_features=20, bias=True)
    (3): ReLU()
    (4): Linear(in_features=20, out_features=40, bias=True)
  )
)><bound method Module.state_dict of Decoder(
  (decoder): Sequential(
    (0): Linear(in_features=5, out_features=10, bias=True)
    (1): ReLU()
    (2): Linear(in_features=10, out_features=20, bias=True)
    (3): ReLU()
    (4): Linear(in_features=20, out_features=40, bias=True)
  )
)><bound method Module.state_dict of Decoder(
  (decoder): Sequential(
    (0): Linear(in_features=5, out_features=10, bias=True)
    (1): ReLU()
    (2): Linear(in_features=10, out_features=20, bias=True)
    (3): ReLU()
    (4): Linear(in_features=20, out_features=40, bias=True)
  )
)><bound method Module.state_dict of Decoder(
  (decoder): Sequential(
    (0): Linear(in_features=5, out_features=10, bias=True)
    (1): ReLU()
    (2): Linear(in_features=10, out_features=20, bias=True)
    (3): ReLU()
    (4): Linear(in_features=20, out_features=40, bias=True)
  )
)><bound method Module.state_dict of Decoder(
  (decoder): Sequential(
    (0): Linear(in_features=5, out_features=10, bias=True)
    (1): ReLU()
    (2): Linear(in_features=10, out_features=20, bias=True)
    (3): ReLU()
    (4): Linear(in_features=20, out_features=40, bias=True)
  )
)><bound method Module.state_dict of Decoder(
  (decoder): Sequential(
    (0): Linear(in_features=5, out_features=10, bias=True)
    (1): ReLU()
    (2): Linear(in_features=10, out_features=20, bias=True)
    (3): ReLU()
    (4): Linear(in_features=20, out_features=40, bias=True)
  )
)><bound method Module.state_dict of Decoder(
  (decoder): Sequential(
    (0): Linear(in_features=5, out_features=10, bias=True)
    (1): ReLU()
    (2): Linear(in_features=10, out_features=20, bias=True)
    (3): ReLU()
    (4): Linear(in_features=20, out_features=40, bias=True)
  )
)><bound method Module.state_dict of Decoder(
  (decoder): Sequential(
    (0): Linear(in_features=5, out_features=10, bias=True)
    (1): ReLU()
    (2): Linear(in_features=10, out_features=20, bias=True)
    (3): ReLU()
    (4): Linear(in_features=20, out_features=40, bias=True)
  )
)><bound method Module.state_dict of Decoder(
  (decoder): Sequential(
    (0): Linear(in_features=5, out_features=10, bias=True)
    (1): ReLU()
    (2): Linear(in_features=10, out_features=20, bias=True)
    (3): ReLU()
    (4): Linear(in_features=20, out_features=40, bias=True)
  )
)><bound method Module.state_dict of Decoder(
  (decoder): Sequential(
    (0): Linear(in_features=5, out_features=10, bias=True)
    (1): ReLU()
    (2): Linear(in_features=10, out_features=20, bias=True)
    (3): ReLU()
    (4): Linear(in_features=20, out_features=40, bias=True)
  )
)><bound method Module.state_dict of Decoder(
  (decoder): Sequential(
    (0): Linear(in_features=5, out_features=10, bias=True)
    (1): ReLU()
    (2): Linear(in_features=10, out_features=20, bias=True)
    (3): ReLU()
    (4): Linear(in_features=20, out_features=40, bias=True)
  )
)><bound method Module.state_dict of Decoder(
  (decoder): Sequential(
    (0): Linear(in_features=5, out_features=10, bias=True)
    (1): ReLU()
    (2): Linear(in_features=10, out_features=20, bias=True)
    (3): ReLU()
    (4): Linear(in_features=20, out_features=40, bias=True)
  )
)><bound method Module.state_dict of Decoder(
  (decoder): Sequential(
    (0): Linear(in_features=5, out_features=10, bias=True)
    (1): ReLU()
    (2): Linear(in_features=10, out_features=20, bias=True)
    (3): ReLU()
    (4): Linear(in_features=20, out_features=40, bias=True)
  )
)><bound method Module.state_dict of Decoder(
  (decoder): Sequential(
    (0): Linear(in_features=5, out_features=10, bias=True)
    (1): ReLU()
    (2): Linear(in_features=10, out_features=20, bias=True)
    (3): ReLU()
    (4): Linear(in_features=20, out_features=40, bias=True)
  )
)><bound method Module.state_dict of Decoder(
  (decoder): Sequential(
    (0): Linear(in_features=5, out_features=10, bias=True)
    (1): ReLU()
    (2): Linear(in_features=10, out_features=20, bias=True)
    (3): ReLU()
    (4): Linear(in_features=20, out_features=40, bias=True)
  )
)><bound method Module.state_dict of Decoder(
  (decoder): Sequential(
    (0): Linear(in_features=5, out_features=10, bias=True)
    (1): ReLU()
    (2): Linear(in_features=10, out_features=20, bias=True)
    (3): ReLU()
    (4): Linear(in_features=20, out_features=40, bias=True)
  )
)><bound method Module.state_dict of Decoder(
  (decoder): Sequential(
    (0): Linear(in_features=5, out_features=10, bias=True)
    (1): ReLU()
    (2): Linear(in_features=10, out_features=20, bias=True)
    (3): ReLU()
    (4): Linear(in_features=20, out_features=40, bias=True)
  )
)><bound method Module.state_dict of Decoder(
  (decoder): Sequential(
    (0): Linear(in_features=5, out_features=10, bias=True)
    (1): ReLU()
    (2): Linear(in_features=10, out_features=20, bias=True)
    (3): ReLU()
    (4): Linear(in_features=20, out_features=40, bias=True)
  )
)><bound method Module.state_dict of Decoder(
  (decoder): Sequential(
    (0): Linear(in_features=5, out_features=10, bias=True)
    (1): ReLU()
    (2): Linear(in_features=10, out_features=20, bias=True)
    (3): ReLU()
    (4): Linear(in_features=20, out_features=40, bias=True)
  )
)><bound method Module.state_dict of Decoder(
  (decoder): Sequential(
    (0): Linear(in_features=5, out_features=10, bias=True)
    (1): ReLU()
    (2): Linear(in_features=10, out_features=20, bias=True)
    (3): ReLU()
    (4): Linear(in_features=20, out_features=40, bias=True)
  )
)><bound method Module.state_dict of Decoder(
  (decoder): Sequential(
    (0): Linear(in_features=5, out_features=10, bias=True)
    (1): ReLU()
    (2): Linear(in_features=10, out_features=20, bias=True)
    (3): ReLU()
    (4): Linear(in_features=20, out_features=40, bias=True)
  )
)><bound method Module.state_dict of Decoder(
  (decoder): Sequential(
    (0): Linear(in_features=5, out_features=10, bias=True)
    (1): ReLU()
    (2): Linear(in_features=10, out_features=20, bias=True)
    (3): ReLU()
    (4): Linear(in_features=20, out_features=40, bias=True)
  )
)><bound method Module.state_dict of Decoder(
  (decoder): Sequential(
    (0): Linear(in_features=5, out_features=10, bias=True)
    (1): ReLU()
    (2): Linear(in_features=10, out_features=20, bias=True)
    (3): ReLU()
    (4): Linear(in_features=20, out_features=40, bias=True)
  )
)><bound method Module.state_dict of Decoder(
  (decoder): Sequential(
    (0): Linear(in_features=5, out_features=10, bias=True)
    (1): ReLU()
    (2): Linear(in_features=10, out_features=20, bias=True)
    (3): ReLU()
    (4): Linear(in_features=20, out_features=40, bias=True)
  )
)><bound method Module.state_dict of Decoder(
  (decoder): Sequential(
    (0): Linear(in_features=5, out_features=10, bias=True)
    (1): ReLU()
    (2): Linear(in_features=10, out_features=20, bias=True)
    (3): ReLU()
    (4): Linear(in_features=20, out_features=40, bias=True)
  )
)><bound method Module.state_dict of Decoder(
  (decoder): Sequential(
    (0): Linear(in_features=5, out_features=10, bias=True)
    (1): ReLU()
    (2): Linear(in_features=10, out_features=20, bias=True)
    (3): ReLU()
    (4): Linear(in_features=20, out_features=40, bias=True)
  )
)><bound method Module.state_dict of Decoder(
  (decoder): Sequential(
    (0): Linear(in_features=5, out_features=10, bias=True)
    (1): ReLU()
    (2): Linear(in_features=10, out_features=20, bias=True)
    (3): ReLU()
    (4): Linear(in_features=20, out_features=40, bias=True)
  )
)><bound method Module.state_dict of Decoder(
  (decoder): Sequential(
    (0): Linear(in_features=5, out_features=10, bias=True)
    (1): ReLU()
    (2): Linear(in_features=10, out_features=20, bias=True)
    (3): ReLU()
    (4): Linear(in_features=20, out_features=40, bias=True)
  )
)><bound method Module.state_dict of Decoder(
  (decoder): Sequential(
    (0): Linear(in_features=5, out_features=10, bias=True)
    (1): ReLU()
    (2): Linear(in_features=10, out_features=20, bias=True)
    (3): ReLU()
    (4): Linear(in_features=20, out_features=40, bias=True)
  )
)><bound method Module.state_dict of Decoder(
  (decoder): Sequential(
    (0): Linear(in_features=5, out_features=10, bias=True)
    (1): ReLU()
    (2): Linear(in_features=10, out_features=20, bias=True)
    (3): ReLU()
    (4): Linear(in_features=20, out_features=40, bias=True)
  )
)><bound method Module.state_dict of Decoder(
  (decoder): Sequential(
    (0): Linear(in_features=5, out_features=10, bias=True)
    (1): ReLU()
    (2): Linear(in_features=10, out_features=20, bias=True)
    (3): ReLU()
    (4): Linear(in_features=20, out_features=40, bias=True)
  )
)><bound method Module.state_dict of Decoder(
  (decoder): Sequential(
    (0): Linear(in_features=5, out_features=10, bias=True)
    (1): ReLU()
    (2): Linear(in_features=10, out_features=20, bias=True)
    (3): ReLU()
    (4): Linear(in_features=20, out_features=40, bias=True)
  )
)><bound method Module.state_dict of Decoder(
  (decoder): Sequential(
    (0): Linear(in_features=5, out_features=10, bias=True)
    (1): ReLU()
    (2): Linear(in_features=10, out_features=20, bias=True)
    (3): ReLU()
    (4): Linear(in_features=20, out_features=40, bias=True)
  )
)><bound method Module.state_dict of Decoder(
  (decoder): Sequential(
    (0): Linear(in_features=5, out_features=10, bias=True)
    (1): ReLU()
    (2): Linear(in_features=10, out_features=20, bias=True)
    (3): ReLU()
    (4): Linear(in_features=20, out_features=40, bias=True)
  )
)><bound method Module.state_dict of Decoder(
  (decoder): Sequential(
    (0): Linear(in_features=5, out_features=10, bias=True)
    (1): ReLU()
    (2): Linear(in_features=10, out_features=20, bias=True)
    (3): ReLU()
    (4): Linear(in_features=20, out_features=40, bias=True)
  )
)><bound method Module.state_dict of Decoder(
  (decoder): Sequential(
    (0): Linear(in_features=5, out_features=10, bias=True)
    (1): ReLU()
    (2): Linear(in_features=10, out_features=20, bias=True)
    (3): ReLU()
    (4): Linear(in_features=20, out_features=40, bias=True)
  )
)><bound method Module.state_dict of Decoder(
  (decoder): Sequential(
    (0): Linear(in_features=5, out_features=10, bias=True)
    (1): ReLU()
    (2): Linear(in_features=10, out_features=20, bias=True)
    (3): ReLU()
    (4): Linear(in_features=20, out_features=40, bias=True)
  )
)><bound method Module.state_dict of Decoder(
  (decoder): Sequential(
    (0): Linear(in_features=5, out_features=10, bias=True)
    (1): ReLU()
    (2): Linear(in_features=10, out_features=20, bias=True)
    (3): ReLU()
    (4): Linear(in_features=20, out_features=40, bias=True)
  )
)><bound method Module.state_dict of Decoder(
  (decoder): Sequential(
    (0): Linear(in_features=5, out_features=10, bias=True)
    (1): ReLU()
    (2): Linear(in_features=10, out_features=20, bias=True)
    (3): ReLU()
    (4): Linear(in_features=20, out_features=40, bias=True)
  )
)><bound method Module.state_dict of Decoder(
  (decoder): Sequential(
    (0): Linear(in_features=5, out_features=10, bias=True)
    (1): ReLU()
    (2): Linear(in_features=10, out_features=20, bias=True)
    (3): ReLU()
    (4): Linear(in_features=20, out_features=40, bias=True)
  )
)><bound method Module.state_dict of Decoder(
  (decoder): Sequential(
    (0): Linear(in_features=5, out_features=10, bias=True)
    (1): ReLU()
    (2): Linear(in_features=10, out_features=20, bias=True)
    (3): ReLU()
    (4): Linear(in_features=20, out_features=40, bias=True)
  )
)><bound method Module.state_dict of Decoder(
  (decoder): Sequential(
    (0): Linear(in_features=5, out_features=10, bias=True)
    (1): ReLU()
    (2): Linear(in_features=10, out_features=20, bias=True)
    (3): ReLU()
    (4): Linear(in_features=20, out_features=40, bias=True)
  )
)><bound method Module.state_dict of Decoder(
  (decoder): Sequential(
    (0): Linear(in_features=5, out_features=10, bias=True)
    (1): ReLU()
    (2): Linear(in_features=10, out_features=20, bias=True)
    (3): ReLU()
    (4): Linear(in_features=20, out_features=40, bias=True)
  )
)><bound method Module.state_dict of Decoder(
  (decoder): Sequential(
    (0): Linear(in_features=5, out_features=10, bias=True)
    (1): ReLU()
    (2): Linear(in_features=10, out_features=20, bias=True)
    (3): ReLU()
    (4): Linear(in_features=20, out_features=40, bias=True)
  )
)><bound method Module.state_dict of Decoder(
  (decoder): Sequential(
    (0): Linear(in_features=5, out_features=10, bias=True)
    (1): ReLU()
    (2): Linear(in_features=10, out_features=20, bias=True)
    (3): ReLU()
    (4): Linear(in_features=20, out_features=40, bias=True)
  )
)><bound method Module.state_dict of Decoder(
  (decoder): Sequential(
    (0): Linear(in_features=5, out_features=10, bias=True)
    (1): ReLU()
    (2): Linear(in_features=10, out_features=20, bias=True)
    (3): ReLU()
    (4): Linear(in_features=20, out_features=40, bias=True)
  )
)><bound method Module.state_dict of Decoder(
  (decoder): Sequential(
    (0): Linear(in_features=5, out_features=10, bias=True)
    (1): ReLU()
    (2): Linear(in_features=10, out_features=20, bias=True)
    (3): ReLU()
    (4): Linear(in_features=20, out_features=40, bias=True)
  )
)><bound method Module.state_dict of Decoder(
  (decoder): Sequential(
    (0): Linear(in_features=5, out_features=10, bias=True)
    (1): ReLU()
    (2): Linear(in_features=10, out_features=20, bias=True)
    (3): ReLU()
    (4): Linear(in_features=20, out_features=40, bias=True)
  )
)><bound method Module.state_dict of Decoder(
  (decoder): Sequential(
    (0): Linear(in_features=5, out_features=10, bias=True)
    (1): ReLU()
    (2): Linear(in_features=10, out_features=20, bias=True)
    (3): ReLU()
    (4): Linear(in_features=20, out_features=40, bias=True)
  )
)><bound method Module.state_dict of Decoder(
  (decoder): Sequential(
    (0): Linear(in_features=5, out_features=10, bias=True)
    (1): ReLU()
    (2): Linear(in_features=10, out_features=20, bias=True)
    (3): ReLU()
    (4): Linear(in_features=20, out_features=40, bias=True)
  )
)><bound method Module.state_dict of Decoder(
  (decoder): Sequential(
    (0): Linear(in_features=5, out_features=10, bias=True)
    (1): ReLU()
    (2): Linear(in_features=10, out_features=20, bias=True)
    (3): ReLU()
    (4): Linear(in_features=20, out_features=40, bias=True)
  )
)><bound method Module.state_dict of Decoder(
  (decoder): Sequential(
    (0): Linear(in_features=5, out_features=10, bias=True)
    (1): ReLU()
    (2): Linear(in_features=10, out_features=20, bias=True)
    (3): ReLU()
    (4): Linear(in_features=20, out_features=40, bias=True)
  )
)><bound method Module.state_dict of Decoder(
  (decoder): Sequential(
    (0): Linear(in_features=5, out_features=10, bias=True)
    (1): ReLU()
    (2): Linear(in_features=10, out_features=20, bias=True)
    (3): ReLU()
    (4): Linear(in_features=20, out_features=40, bias=True)
  )
)><bound method Module.state_dict of Decoder(
  (decoder): Sequential(
    (0): Linear(in_features=5, out_features=10, bias=True)
    (1): ReLU()
    (2): Linear(in_features=10, out_features=20, bias=True)
    (3): ReLU()
    (4): Linear(in_features=20, out_features=40, bias=True)
  )
)><bound method Module.state_dict of Decoder(
  (decoder): Sequential(
    (0): Linear(in_features=5, out_features=10, bias=True)
    (1): ReLU()
    (2): Linear(in_features=10, out_features=20, bias=True)
    (3): ReLU()
    (4): Linear(in_features=20, out_features=40, bias=True)
  )
)><bound method Module.state_dict of Decoder(
  (decoder): Sequential(
    (0): Linear(in_features=5, out_features=10, bias=True)
    (1): ReLU()
    (2): Linear(in_features=10, out_features=20, bias=True)
    (3): ReLU()
    (4): Linear(in_features=20, out_features=40, bias=True)
  )
)><bound method Module.state_dict of Decoder(
  (decoder): Sequential(
    (0): Linear(in_features=5, out_features=10, bias=True)
    (1): ReLU()
    (2): Linear(in_features=10, out_features=20, bias=True)
    (3): ReLU()
    (4): Linear(in_features=20, out_features=40, bias=True)
  )
)><bound method Module.state_dict of Decoder(
  (decoder): Sequential(
    (0): Linear(in_features=5, out_features=10, bias=True)
    (1): ReLU()
    (2): Linear(in_features=10, out_features=20, bias=True)
    (3): ReLU()
    (4): Linear(in_features=20, out_features=40, bias=True)
  )
)><bound method Module.state_dict of Decoder(
  (decoder): Sequential(
    (0): Linear(in_features=5, out_features=10, bias=True)
    (1): ReLU()
    (2): Linear(in_features=10, out_features=20, bias=True)
    (3): ReLU()
    (4): Linear(in_features=20, out_features=40, bias=True)
  )
)><bound method Module.state_dict of Decoder(
  (decoder): Sequential(
    (0): Linear(in_features=5, out_features=10, bias=True)
    (1): ReLU()
    (2): Linear(in_features=10, out_features=20, bias=True)
    (3): ReLU()
    (4): Linear(in_features=20, out_features=40, bias=True)
  )
)><bound method Module.state_dict of Decoder(
  (decoder): Sequential(
    (0): Linear(in_features=5, out_features=10, bias=True)
    (1): ReLU()
    (2): Linear(in_features=10, out_features=20, bias=True)
    (3): ReLU()
    (4): Linear(in_features=20, out_features=40, bias=True)
  )
)><bound method Module.state_dict of Decoder(
  (decoder): Sequential(
    (0): Linear(in_features=5, out_features=10, bias=True)
    (1): ReLU()
    (2): Linear(in_features=10, out_features=20, bias=True)
    (3): ReLU()
    (4): Linear(in_features=20, out_features=40, bias=True)
  )
)><bound method Module.state_dict of Decoder(
  (decoder): Sequential(
    (0): Linear(in_features=5, out_features=10, bias=True)
    (1): ReLU()
    (2): Linear(in_features=10, out_features=20, bias=True)
    (3): ReLU()
    (4): Linear(in_features=20, out_features=40, bias=True)
  )
)><bound method Module.state_dict of Decoder(
  (decoder): Sequential(
    (0): Linear(in_features=5, out_features=10, bias=True)
    (1): ReLU()
    (2): Linear(in_features=10, out_features=20, bias=True)
    (3): ReLU()
    (4): Linear(in_features=20, out_features=40, bias=True)
  )
)><bound method Module.state_dict of Decoder(
  (decoder): Sequential(
    (0): Linear(in_features=5, out_features=10, bias=True)
    (1): ReLU()
    (2): Linear(in_features=10, out_features=20, bias=True)
    (3): ReLU()
    (4): Linear(in_features=20, out_features=40, bias=True)
  )
)><bound method Module.state_dict of Decoder(
  (decoder): Sequential(
    (0): Linear(in_features=5, out_features=10, bias=True)
    (1): ReLU()
    (2): Linear(in_features=10, out_features=20, bias=True)
    (3): ReLU()
    (4): Linear(in_features=20, out_features=40, bias=True)
  )
)><bound method Module.state_dict of Decoder(
  (decoder): Sequential(
    (0): Linear(in_features=5, out_features=10, bias=True)
    (1): ReLU()
    (2): Linear(in_features=10, out_features=20, bias=True)
    (3): ReLU()
    (4): Linear(in_features=20, out_features=40, bias=True)
  )
)><bound method Module.state_dict of Decoder(
  (decoder): Sequential(
    (0): Linear(in_features=5, out_features=10, bias=True)
    (1): ReLU()
    (2): Linear(in_features=10, out_features=20, bias=True)
    (3): ReLU()
    (4): Linear(in_features=20, out_features=40, bias=True)
  )
)><bound method Module.state_dict of Decoder(
  (decoder): Sequential(
    (0): Linear(in_features=5, out_features=10, bias=True)
    (1): ReLU()
    (2): Linear(in_features=10, out_features=20, bias=True)
    (3): ReLU()
    (4): Linear(in_features=20, out_features=40, bias=True)
  )
)><bound method Module.state_dict of Decoder(
  (decoder): Sequential(
    (0): Linear(in_features=5, out_features=10, bias=True)
    (1): ReLU()
    (2): Linear(in_features=10, out_features=20, bias=True)
    (3): ReLU()
    (4): Linear(in_features=20, out_features=40, bias=True)
  )
)><bound method Module.state_dict of Decoder(
  (decoder): Sequential(
    (0): Linear(in_features=5, out_features=10, bias=True)
    (1): ReLU()
    (2): Linear(in_features=10, out_features=20, bias=True)
    (3): ReLU()
    (4): Linear(in_features=20, out_features=40, bias=True)
  )
)><bound method Module.state_dict of Decoder(
  (decoder): Sequential(
    (0): Linear(in_features=5, out_features=10, bias=True)
    (1): ReLU()
    (2): Linear(in_features=10, out_features=20, bias=True)
    (3): ReLU()
    (4): Linear(in_features=20, out_features=40, bias=True)
  )
)><bound method Module.state_dict of Decoder(
  (decoder): Sequential(
    (0): Linear(in_features=5, out_features=10, bias=True)
    (1): ReLU()
    (2): Linear(in_features=10, out_features=20, bias=True)
    (3): ReLU()
    (4): Linear(in_features=20, out_features=40, bias=True)
  )
)><bound method Module.state_dict of Decoder(
  (decoder): Sequential(
    (0): Linear(in_features=5, out_features=10, bias=True)
    (1): ReLU()
    (2): Linear(in_features=10, out_features=20, bias=True)
    (3): ReLU()
    (4): Linear(in_features=20, out_features=40, bias=True)
  )
)><bound method Module.state_dict of Decoder(
  (decoder): Sequential(
    (0): Linear(in_features=5, out_features=10, bias=True)
    (1): ReLU()
    (2): Linear(in_features=10, out_features=20, bias=True)
    (3): ReLU()
    (4): Linear(in_features=20, out_features=40, bias=True)
  )
)><bound method Module.state_dict of Decoder(
  (decoder): Sequential(
    (0): Linear(in_features=5, out_features=10, bias=True)
    (1): ReLU()
    (2): Linear(in_features=10, out_features=20, bias=True)
    (3): ReLU()
    (4): Linear(in_features=20, out_features=40, bias=True)
  )
)><bound method Module.state_dict of Decoder(
  (decoder): Sequential(
    (0): Linear(in_features=5, out_features=10, bias=True)
    (1): ReLU()
    (2): Linear(in_features=10, out_features=20, bias=True)
    (3): ReLU()
    (4): Linear(in_features=20, out_features=40, bias=True)
  )
)><bound method Module.state_dict of Decoder(
  (decoder): Sequential(
    (0): Linear(in_features=5, out_features=10, bias=True)
    (1): ReLU()
    (2): Linear(in_features=10, out_features=20, bias=True)
    (3): ReLU()
    (4): Linear(in_features=20, out_features=40, bias=True)
  )
)><bound method Module.state_dict of Decoder(
  (decoder): Sequential(
    (0): Linear(in_features=5, out_features=10, bias=True)
    (1): ReLU()
    (2): Linear(in_features=10, out_features=20, bias=True)
    (3): ReLU()
    (4): Linear(in_features=20, out_features=40, bias=True)
  )
)><bound method Module.state_dict of Decoder(
  (decoder): Sequential(
    (0): Linear(in_features=5, out_features=10, bias=True)
    (1): ReLU()
    (2): Linear(in_features=10, out_features=20, bias=True)
    (3): ReLU()
    (4): Linear(in_features=20, out_features=40, bias=True)
  )
)><bound method Module.state_dict of Decoder(
  (decoder): Sequential(
    (0): Linear(in_features=5, out_features=10, bias=True)
    (1): ReLU()
    (2): Linear(in_features=10, out_features=20, bias=True)
    (3): ReLU()
    (4): Linear(in_features=20, out_features=40, bias=True)
  )
)><bound method Module.state_dict of Decoder(
  (decoder): Sequential(
    (0): Linear(in_features=5, out_features=10, bias=True)
    (1): ReLU()
    (2): Linear(in_features=10, out_features=20, bias=True)
    (3): ReLU()
    (4): Linear(in_features=20, out_features=40, bias=True)
  )
)><bound method Module.state_dict of Decoder(
  (decoder): Sequential(
    (0): Linear(in_features=5, out_features=10, bias=True)
    (1): ReLU()
    (2): Linear(in_features=10, out_features=20, bias=True)
    (3): ReLU()
    (4): Linear(in_features=20, out_features=40, bias=True)
  )
)><bound method Module.state_dict of Decoder(
  (decoder): Sequential(
    (0): Linear(in_features=5, out_features=10, bias=True)
    (1): ReLU()
    (2): Linear(in_features=10, out_features=20, bias=True)
    (3): ReLU()
    (4): Linear(in_features=20, out_features=40, bias=True)
  )
)><bound method Module.state_dict of Decoder(
  (decoder): Sequential(
    (0): Linear(in_features=5, out_features=10, bias=True)
    (1): ReLU()
    (2): Linear(in_features=10, out_features=20, bias=True)
    (3): ReLU()
    (4): Linear(in_features=20, out_features=40, bias=True)
  )
)><bound method Module.state_dict of Decoder(
  (decoder): Sequential(
    (0): Linear(in_features=5, out_features=10, bias=True)
    (1): ReLU()
    (2): Linear(in_features=10, out_features=20, bias=True)
    (3): ReLU()
    (4): Linear(in_features=20, out_features=40, bias=True)
  )
)><bound method Module.state_dict of Decoder(
  (decoder): Sequential(
    (0): Linear(in_features=5, out_features=10, bias=True)
    (1): ReLU()
    (2): Linear(in_features=10, out_features=20, bias=True)
    (3): ReLU()
    (4): Linear(in_features=20, out_features=40, bias=True)
  )
)><bound method Module.state_dict of Decoder(
  (decoder): Sequential(
    (0): Linear(in_features=5, out_features=10, bias=True)
    (1): ReLU()
    (2): Linear(in_features=10, out_features=20, bias=True)
    (3): ReLU()
    (4): Linear(in_features=20, out_features=40, bias=True)
  )
)><bound method Module.state_dict of Decoder(
  (decoder): Sequential(
    (0): Linear(in_features=5, out_features=10, bias=True)
    (1): ReLU()
    (2): Linear(in_features=10, out_features=20, bias=True)
    (3): ReLU()
    (4): Linear(in_features=20, out_features=40, bias=True)
  )
)><bound method Module.state_dict of Decoder(
  (decoder): Sequential(
    (0): Linear(in_features=5, out_features=10, bias=True)
    (1): ReLU()
    (2): Linear(in_features=10, out_features=20, bias=True)
    (3): ReLU()
    (4): Linear(in_features=20, out_features=40, bias=True)
  )
)><bound method Module.state_dict of Decoder(
  (decoder): Sequential(
    (0): Linear(in_features=5, out_features=10, bias=True)
    (1): ReLU()
    (2): Linear(in_features=10, out_features=20, bias=True)
    (3): ReLU()
    (4): Linear(in_features=20, out_features=40, bias=True)
  )
)><bound method Module.state_dict of Decoder(
  (decoder): Sequential(
    (0): Linear(in_features=5, out_features=10, bias=True)
    (1): ReLU()
    (2): Linear(in_features=10, out_features=20, bias=True)
    (3): ReLU()
    (4): Linear(in_features=20, out_features=40, bias=True)
  )
)><bound method Module.state_dict of Decoder(
  (decoder): Sequential(
    (0): Linear(in_features=5, out_features=10, bias=True)
    (1): ReLU()
    (2): Linear(in_features=10, out_features=20, bias=True)
    (3): ReLU()
    (4): Linear(in_features=20, out_features=40, bias=True)
  )
)><bound method Module.state_dict of Decoder(
  (decoder): Sequential(
    (0): Linear(in_features=5, out_features=10, bias=True)
    (1): ReLU()
    (2): Linear(in_features=10, out_features=20, bias=True)
    (3): ReLU()
    (4): Linear(in_features=20, out_features=40, bias=True)
  )
)><bound method Module.state_dict of Decoder(
  (decoder): Sequential(
    (0): Linear(in_features=5, out_features=10, bias=True)
    (1): ReLU()
    (2): Linear(in_features=10, out_features=20, bias=True)
    (3): ReLU()
    (4): Linear(in_features=20, out_features=40, bias=True)
  )
)><bound method Module.state_dict of Decoder(
  (decoder): Sequential(
    (0): Linear(in_features=5, out_features=10, bias=True)
    (1): ReLU()
    (2): Linear(in_features=10, out_features=20, bias=True)
    (3): ReLU()
    (4): Linear(in_features=20, out_features=40, bias=True)
  )
)><bound method Module.state_dict of Decoder(
  (decoder): Sequential(
    (0): Linear(in_features=5, out_features=10, bias=True)
    (1): ReLU()
    (2): Linear(in_features=10, out_features=20, bias=True)
    (3): ReLU()
    (4): Linear(in_features=20, out_features=40, bias=True)
  )
)><bound method Module.state_dict of Decoder(
  (decoder): Sequential(
    (0): Linear(in_features=5, out_features=10, bias=True)
    (1): ReLU()
    (2): Linear(in_features=10, out_features=20, bias=True)
    (3): ReLU()
    (4): Linear(in_features=20, out_features=40, bias=True)
  )
)><bound method Module.state_dict of Decoder(
  (decoder): Sequential(
    (0): Linear(in_features=5, out_features=10, bias=True)
    (1): ReLU()
    (2): Linear(in_features=10, out_features=20, bias=True)
    (3): ReLU()
    (4): Linear(in_features=20, out_features=40, bias=True)
  )
)><bound method Module.state_dict of Decoder(
  (decoder): Sequential(
    (0): Linear(in_features=5, out_features=10, bias=True)
    (1): ReLU()
    (2): Linear(in_features=10, out_features=20, bias=True)
    (3): ReLU()
    (4): Linear(in_features=20, out_features=40, bias=True)
  )
)><bound method Module.state_dict of Decoder(
  (decoder): Sequential(
    (0): Linear(in_features=5, out_features=10, bias=True)
    (1): ReLU()
    (2): Linear(in_features=10, out_features=20, bias=True)
    (3): ReLU()
    (4): Linear(in_features=20, out_features=40, bias=True)
  )
)><bound method Module.state_dict of Decoder(
  (decoder): Sequential(
    (0): Linear(in_features=5, out_features=10, bias=True)
    (1): ReLU()
    (2): Linear(in_features=10, out_features=20, bias=True)
    (3): ReLU()
    (4): Linear(in_features=20, out_features=40, bias=True)
  )
)><bound method Module.state_dict of Decoder(
  (decoder): Sequential(
    (0): Linear(in_features=5, out_features=10, bias=True)
    (1): ReLU()
    (2): Linear(in_features=10, out_features=20, bias=True)
    (3): ReLU()
    (4): Linear(in_features=20, out_features=40, bias=True)
  )
)><bound method Module.state_dict of Decoder(
  (decoder): Sequential(
    (0): Linear(in_features=5, out_features=10, bias=True)
    (1): ReLU()
    (2): Linear(in_features=10, out_features=20, bias=True)
    (3): ReLU()
    (4): Linear(in_features=20, out_features=40, bias=True)
  )
)><bound method Module.state_dict of Decoder(
  (decoder): Sequential(
    (0): Linear(in_features=5, out_features=10, bias=True)
    (1): ReLU()
    (2): Linear(in_features=10, out_features=20, bias=True)
    (3): ReLU()
    (4): Linear(in_features=20, out_features=40, bias=True)
  )
)><bound method Module.state_dict of Decoder(
  (decoder): Sequential(
    (0): Linear(in_features=5, out_features=10, bias=True)
    (1): ReLU()
    (2): Linear(in_features=10, out_features=20, bias=True)
    (3): ReLU()
    (4): Linear(in_features=20, out_features=40, bias=True)
  )
)><bound method Module.state_dict of Decoder(
  (decoder): Sequential(
    (0): Linear(in_features=5, out_features=10, bias=True)
    (1): ReLU()
    (2): Linear(in_features=10, out_features=20, bias=True)
    (3): ReLU()
    (4): Linear(in_features=20, out_features=40, bias=True)
  )
)><bound method Module.state_dict of Decoder(
  (decoder): Sequential(
    (0): Linear(in_features=5, out_features=10, bias=True)
    (1): ReLU()
    (2): Linear(in_features=10, out_features=20, bias=True)
    (3): ReLU()
    (4): Linear(in_features=20, out_features=40, bias=True)
  )
)><bound method Module.state_dict of Decoder(
  (decoder): Sequential(
    (0): Linear(in_features=5, out_features=10, bias=True)
    (1): ReLU()
    (2): Linear(in_features=10, out_features=20, bias=True)
    (3): ReLU()
    (4): Linear(in_features=20, out_features=40, bias=True)
  )
)><bound method Module.state_dict of Decoder(
  (decoder): Sequential(
    (0): Linear(in_features=5, out_features=10, bias=True)
    (1): ReLU()
    (2): Linear(in_features=10, out_features=20, bias=True)
    (3): ReLU()
    (4): Linear(in_features=20, out_features=40, bias=True)
  )
)><bound method Module.state_dict of Decoder(
  (decoder): Sequential(
    (0): Linear(in_features=5, out_features=10, bias=True)
    (1): ReLU()
    (2): Linear(in_features=10, out_features=20, bias=True)
    (3): ReLU()
    (4): Linear(in_features=20, out_features=40, bias=True)
  )
)><bound method Module.state_dict of Decoder(
  (decoder): Sequential(
    (0): Linear(in_features=5, out_features=10, bias=True)
    (1): ReLU()
    (2): Linear(in_features=10, out_features=20, bias=True)
    (3): ReLU()
    (4): Linear(in_features=20, out_features=40, bias=True)
  )
)><bound method Module.state_dict of Decoder(
  (decoder): Sequential(
    (0): Linear(in_features=5, out_features=10, bias=True)
    (1): ReLU()
    (2): Linear(in_features=10, out_features=20, bias=True)
    (3): ReLU()
    (4): Linear(in_features=20, out_features=40, bias=True)
  )
)><bound method Module.state_dict of Decoder(
  (decoder): Sequential(
    (0): Linear(in_features=5, out_features=10, bias=True)
    (1): ReLU()
    (2): Linear(in_features=10, out_features=20, bias=True)
    (3): ReLU()
    (4): Linear(in_features=20, out_features=40, bias=True)
  )
)><bound method Module.state_dict of Decoder(
  (decoder): Sequential(
    (0): Linear(in_features=5, out_features=10, bias=True)
    (1): ReLU()
    (2): Linear(in_features=10, out_features=20, bias=True)
    (3): ReLU()
    (4): Linear(in_features=20, out_features=40, bias=True)
  )
)><bound method Module.state_dict of Decoder(
  (decoder): Sequential(
    (0): Linear(in_features=5, out_features=10, bias=True)
    (1): ReLU()
    (2): Linear(in_features=10, out_features=20, bias=True)
    (3): ReLU()
    (4): Linear(in_features=20, out_features=40, bias=True)
  )
)><bound method Module.state_dict of Decoder(
  (decoder): Sequential(
    (0): Linear(in_features=5, out_features=10, bias=True)
    (1): ReLU()
    (2): Linear(in_features=10, out_features=20, bias=True)
    (3): ReLU()
    (4): Linear(in_features=20, out_features=40, bias=True)
  )
)><bound method Module.state_dict of Decoder(
  (decoder): Sequential(
    (0): Linear(in_features=5, out_features=10, bias=True)
    (1): ReLU()
    (2): Linear(in_features=10, out_features=20, bias=True)
    (3): ReLU()
    (4): Linear(in_features=20, out_features=40, bias=True)
  )
)><bound method Module.state_dict of Decoder(
  (decoder): Sequential(
    (0): Linear(in_features=5, out_features=10, bias=True)
    (1): ReLU()
    (2): Linear(in_features=10, out_features=20, bias=True)
    (3): ReLU()
    (4): Linear(in_features=20, out_features=40, bias=True)
  )
)><bound method Module.state_dict of Decoder(
  (decoder): Sequential(
    (0): Linear(in_features=5, out_features=10, bias=True)
    (1): ReLU()
    (2): Linear(in_features=10, out_features=20, bias=True)
    (3): ReLU()
    (4): Linear(in_features=20, out_features=40, bias=True)
  )
)><bound method Module.state_dict of Decoder(
  (decoder): Sequential(
    (0): Linear(in_features=5, out_features=10, bias=True)
    (1): ReLU()
    (2): Linear(in_features=10, out_features=20, bias=True)
    (3): ReLU()
    (4): Linear(in_features=20, out_features=40, bias=True)
  )
)><bound method Module.state_dict of Decoder(
  (decoder): Sequential(
    (0): Linear(in_features=5, out_features=10, bias=True)
    (1): ReLU()
    (2): Linear(in_features=10, out_features=20, bias=True)
    (3): ReLU()
    (4): Linear(in_features=20, out_features=40, bias=True)
  )
)><bound method Module.state_dict of Decoder(
  (decoder): Sequential(
    (0): Linear(in_features=5, out_features=10, bias=True)
    (1): ReLU()
    (2): Linear(in_features=10, out_features=20, bias=True)
    (3): ReLU()
    (4): Linear(in_features=20, out_features=40, bias=True)
  )
)><bound method Module.state_dict of Decoder(
  (decoder): Sequential(
    (0): Linear(in_features=5, out_features=10, bias=True)
    (1): ReLU()
    (2): Linear(in_features=10, out_features=20, bias=True)
    (3): ReLU()
    (4): Linear(in_features=20, out_features=40, bias=True)
  )
)><bound method Module.state_dict of Decoder(
  (decoder): Sequential(
    (0): Linear(in_features=5, out_features=10, bias=True)
    (1): ReLU()
    (2): Linear(in_features=10, out_features=20, bias=True)
    (3): ReLU()
    (4): Linear(in_features=20, out_features=40, bias=True)
  )
)><bound method Module.state_dict of Decoder(
  (decoder): Sequential(
    (0): Linear(in_features=5, out_features=10, bias=True)
    (1): ReLU()
    (2): Linear(in_features=10, out_features=20, bias=True)
    (3): ReLU()
    (4): Linear(in_features=20, out_features=40, bias=True)
  )
)><bound method Module.state_dict of Decoder(
  (decoder): Sequential(
    (0): Linear(in_features=5, out_features=10, bias=True)
    (1): ReLU()
    (2): Linear(in_features=10, out_features=20, bias=True)
    (3): ReLU()
    (4): Linear(in_features=20, out_features=40, bias=True)
  )
)><bound method Module.state_dict of Decoder(
  (decoder): Sequential(
    (0): Linear(in_features=5, out_features=10, bias=True)
    (1): ReLU()
    (2): Linear(in_features=10, out_features=20, bias=True)
    (3): ReLU()
    (4): Linear(in_features=20, out_features=40, bias=True)
  )
)><bound method Module.state_dict of Decoder(
  (decoder): Sequential(
    (0): Linear(in_features=5, out_features=10, bias=True)
    (1): ReLU()
    (2): Linear(in_features=10, out_features=20, bias=True)
    (3): ReLU()
    (4): Linear(in_features=20, out_features=40, bias=True)
  )
)><bound method Module.state_dict of Decoder(
  (decoder): Sequential(
    (0): Linear(in_features=5, out_features=10, bias=True)
    (1): ReLU()
    (2): Linear(in_features=10, out_features=20, bias=True)
    (3): ReLU()
    (4): Linear(in_features=20, out_features=40, bias=True)
  )
)><bound method Module.state_dict of Decoder(
  (decoder): Sequential(
    (0): Linear(in_features=5, out_features=10, bias=True)
    (1): ReLU()
    (2): Linear(in_features=10, out_features=20, bias=True)
    (3): ReLU()
    (4): Linear(in_features=20, out_features=40, bias=True)
  )
)><bound method Module.state_dict of Decoder(
  (decoder): Sequential(
    (0): Linear(in_features=5, out_features=10, bias=True)
    (1): ReLU()
    (2): Linear(in_features=10, out_features=20, bias=True)
    (3): ReLU()
    (4): Linear(in_features=20, out_features=40, bias=True)
  )
)><bound method Module.state_dict of Decoder(
  (decoder): Sequential(
    (0): Linear(in_features=5, out_features=10, bias=True)
    (1): ReLU()
    (2): Linear(in_features=10, out_features=20, bias=True)
    (3): ReLU()
    (4): Linear(in_features=20, out_features=40, bias=True)
  )
)><bound method Module.state_dict of Decoder(
  (decoder): Sequential(
    (0): Linear(in_features=5, out_features=10, bias=True)
    (1): ReLU()
    (2): Linear(in_features=10, out_features=20, bias=True)
    (3): ReLU()
    (4): Linear(in_features=20, out_features=40, bias=True)
  )
)><bound method Module.state_dict of Decoder(
  (decoder): Sequential(
    (0): Linear(in_features=5, out_features=10, bias=True)
    (1): ReLU()
    (2): Linear(in_features=10, out_features=20, bias=True)
    (3): ReLU()
    (4): Linear(in_features=20, out_features=40, bias=True)
  )
)><bound method Module.state_dict of Decoder(
  (decoder): Sequential(
    (0): Linear(in_features=5, out_features=10, bias=True)
    (1): ReLU()
    (2): Linear(in_features=10, out_features=20, bias=True)
    (3): ReLU()
    (4): Linear(in_features=20, out_features=40, bias=True)
  )
)><bound method Module.state_dict of Decoder(
  (decoder): Sequential(
    (0): Linear(in_features=5, out_features=10, bias=True)
    (1): ReLU()
    (2): Linear(in_features=10, out_features=20, bias=True)
    (3): ReLU()
    (4): Linear(in_features=20, out_features=40, bias=True)
  )
)><bound method Module.state_dict of Decoder(
  (decoder): Sequential(
    (0): Linear(in_features=5, out_features=10, bias=True)
    (1): ReLU()
    (2): Linear(in_features=10, out_features=20, bias=True)
    (3): ReLU()
    (4): Linear(in_features=20, out_features=40, bias=True)
  )
)><bound method Module.state_dict of Decoder(
  (decoder): Sequential(
    (0): Linear(in_features=5, out_features=10, bias=True)
    (1): ReLU()
    (2): Linear(in_features=10, out_features=20, bias=True)
    (3): ReLU()
    (4): Linear(in_features=20, out_features=40, bias=True)
  )
)><bound method Module.state_dict of Decoder(
  (decoder): Sequential(
    (0): Linear(in_features=5, out_features=10, bias=True)
    (1): ReLU()
    (2): Linear(in_features=10, out_features=20, bias=True)
    (3): ReLU()
    (4): Linear(in_features=20, out_features=40, bias=True)
  )
)><bound method Module.state_dict of Decoder(
  (decoder): Sequential(
    (0): Linear(in_features=5, out_features=10, bias=True)
    (1): ReLU()
    (2): Linear(in_features=10, out_features=20, bias=True)
    (3): ReLU()
    (4): Linear(in_features=20, out_features=40, bias=True)
  )
)><bound method Module.state_dict of Decoder(
  (decoder): Sequential(
    (0): Linear(in_features=5, out_features=10, bias=True)
    (1): ReLU()
    (2): Linear(in_features=10, out_features=20, bias=True)
    (3): ReLU()
    (4): Linear(in_features=20, out_features=40, bias=True)
  )
)><bound method Module.state_dict of Decoder(
  (decoder): Sequential(
    (0): Linear(in_features=5, out_features=10, bias=True)
    (1): ReLU()
    (2): Linear(in_features=10, out_features=20, bias=True)
    (3): ReLU()
    (4): Linear(in_features=20, out_features=40, bias=True)
  )
)><bound method Module.state_dict of Decoder(
  (decoder): Sequential(
    (0): Linear(in_features=5, out_features=10, bias=True)
    (1): ReLU()
    (2): Linear(in_features=10, out_features=20, bias=True)
    (3): ReLU()
    (4): Linear(in_features=20, out_features=40, bias=True)
  )
)><bound method Module.state_dict of Decoder(
  (decoder): Sequential(
    (0): Linear(in_features=5, out_features=10, bias=True)
    (1): ReLU()
    (2): Linear(in_features=10, out_features=20, bias=True)
    (3): ReLU()
    (4): Linear(in_features=20, out_features=40, bias=True)
  )
)><bound method Module.state_dict of Decoder(
  (decoder): Sequential(
    (0): Linear(in_features=5, out_features=10, bias=True)
    (1): ReLU()
    (2): Linear(in_features=10, out_features=20, bias=True)
    (3): ReLU()
    (4): Linear(in_features=20, out_features=40, bias=True)
  )
)><bound method Module.state_dict of Decoder(
  (decoder): Sequential(
    (0): Linear(in_features=5, out_features=10, bias=True)
    (1): ReLU()
    (2): Linear(in_features=10, out_features=20, bias=True)
    (3): ReLU()
    (4): Linear(in_features=20, out_features=40, bias=True)
  )
)><bound method Module.state_dict of Decoder(
  (decoder): Sequential(
    (0): Linear(in_features=5, out_features=10, bias=True)
    (1): ReLU()
    (2): Linear(in_features=10, out_features=20, bias=True)
    (3): ReLU()
    (4): Linear(in_features=20, out_features=40, bias=True)
  )
)><bound method Module.state_dict of Decoder(
  (decoder): Sequential(
    (0): Linear(in_features=5, out_features=10, bias=True)
    (1): ReLU()
    (2): Linear(in_features=10, out_features=20, bias=True)
    (3): ReLU()
    (4): Linear(in_features=20, out_features=40, bias=True)
  )
)><bound method Module.state_dict of Decoder(
  (decoder): Sequential(
    (0): Linear(in_features=5, out_features=10, bias=True)
    (1): ReLU()
    (2): Linear(in_features=10, out_features=20, bias=True)
    (3): ReLU()
    (4): Linear(in_features=20, out_features=40, bias=True)
  )
)><bound method Module.state_dict of Decoder(
  (decoder): Sequential(
    (0): Linear(in_features=5, out_features=10, bias=True)
    (1): ReLU()
    (2): Linear(in_features=10, out_features=20, bias=True)
    (3): ReLU()
    (4): Linear(in_features=20, out_features=40, bias=True)
  )
)><bound method Module.state_dict of Decoder(
  (decoder): Sequential(
    (0): Linear(in_features=5, out_features=10, bias=True)
    (1): ReLU()
    (2): Linear(in_features=10, out_features=20, bias=True)
    (3): ReLU()
    (4): Linear(in_features=20, out_features=40, bias=True)
  )
)><bound method Module.state_dict of Decoder(
  (decoder): Sequential(
    (0): Linear(in_features=5, out_features=10, bias=True)
    (1): ReLU()
    (2): Linear(in_features=10, out_features=20, bias=True)
    (3): ReLU()
    (4): Linear(in_features=20, out_features=40, bias=True)
  )
)><bound method Module.state_dict of Decoder(
  (decoder): Sequential(
    (0): Linear(in_features=5, out_features=10, bias=True)
    (1): ReLU()
    (2): Linear(in_features=10, out_features=20, bias=True)
    (3): ReLU()
    (4): Linear(in_features=20, out_features=40, bias=True)
  )
)><bound method Module.state_dict of Decoder(
  (decoder): Sequential(
    (0): Linear(in_features=5, out_features=10, bias=True)
    (1): ReLU()
    (2): Linear(in_features=10, out_features=20, bias=True)
    (3): ReLU()
    (4): Linear(in_features=20, out_features=40, bias=True)
  )
)><bound method Module.state_dict of Decoder(
  (decoder): Sequential(
    (0): Linear(in_features=5, out_features=10, bias=True)
    (1): ReLU()
    (2): Linear(in_features=10, out_features=20, bias=True)
    (3): ReLU()
    (4): Linear(in_features=20, out_features=40, bias=True)
  )
)><bound method Module.state_dict of Decoder(
  (decoder): Sequential(
    (0): Linear(in_features=5, out_features=10, bias=True)
    (1): ReLU()
    (2): Linear(in_features=10, out_features=20, bias=True)
    (3): ReLU()
    (4): Linear(in_features=20, out_features=40, bias=True)
  )
)><bound method Module.state_dict of Decoder(
  (decoder): Sequential(
    (0): Linear(in_features=5, out_features=10, bias=True)
    (1): ReLU()
    (2): Linear(in_features=10, out_features=20, bias=True)
    (3): ReLU()
    (4): Linear(in_features=20, out_features=40, bias=True)
  )
)><bound method Module.state_dict of Decoder(
  (decoder): Sequential(
    (0): Linear(in_features=5, out_features=10, bias=True)
    (1): ReLU()
    (2): Linear(in_features=10, out_features=20, bias=True)
    (3): ReLU()
    (4): Linear(in_features=20, out_features=40, bias=True)
  )
)><bound method Module.state_dict of Decoder(
  (decoder): Sequential(
    (0): Linear(in_features=5, out_features=10, bias=True)
    (1): ReLU()
    (2): Linear(in_features=10, out_features=20, bias=True)
    (3): ReLU()
    (4): Linear(in_features=20, out_features=40, bias=True)
  )
)><bound method Module.state_dict of Decoder(
  (decoder): Sequential(
    (0): Linear(in_features=5, out_features=10, bias=True)
    (1): ReLU()
    (2): Linear(in_features=10, out_features=20, bias=True)
    (3): ReLU()
    (4): Linear(in_features=20, out_features=40, bias=True)
  )
)><bound method Module.state_dict of Decoder(
  (decoder): Sequential(
    (0): Linear(in_features=5, out_features=10, bias=True)
    (1): ReLU()
    (2): Linear(in_features=10, out_features=20, bias=True)
    (3): ReLU()
    (4): Linear(in_features=20, out_features=40, bias=True)
  )
)><bound method Module.state_dict of Decoder(
  (decoder): Sequential(
    (0): Linear(in_features=5, out_features=10, bias=True)
    (1): ReLU()
    (2): Linear(in_features=10, out_features=20, bias=True)
    (3): ReLU()
    (4): Linear(in_features=20, out_features=40, bias=True)
  )
)><bound method Module.state_dict of Decoder(
  (decoder): Sequential(
    (0): Linear(in_features=5, out_features=10, bias=True)
    (1): ReLU()
    (2): Linear(in_features=10, out_features=20, bias=True)
    (3): ReLU()
    (4): Linear(in_features=20, out_features=40, bias=True)
  )
)><bound method Module.state_dict of Decoder(
  (decoder): Sequential(
    (0): Linear(in_features=5, out_features=10, bias=True)
    (1): ReLU()
    (2): Linear(in_features=10, out_features=20, bias=True)
    (3): ReLU()
    (4): Linear(in_features=20, out_features=40, bias=True)
  )
)><bound method Module.state_dict of Decoder(
  (decoder): Sequential(
    (0): Linear(in_features=5, out_features=10, bias=True)
    (1): ReLU()
    (2): Linear(in_features=10, out_features=20, bias=True)
    (3): ReLU()
    (4): Linear(in_features=20, out_features=40, bias=True)
  )
)><bound method Module.state_dict of Decoder(
  (decoder): Sequential(
    (0): Linear(in_features=5, out_features=10, bias=True)
    (1): ReLU()
    (2): Linear(in_features=10, out_features=20, bias=True)
    (3): ReLU()
    (4): Linear(in_features=20, out_features=40, bias=True)
  )
)><bound method Module.state_dict of Decoder(
  (decoder): Sequential(
    (0): Linear(in_features=5, out_features=10, bias=True)
    (1): ReLU()
    (2): Linear(in_features=10, out_features=20, bias=True)
    (3): ReLU()
    (4): Linear(in_features=20, out_features=40, bias=True)
  )
)><bound method Module.state_dict of Decoder(
  (decoder): Sequential(
    (0): Linear(in_features=5, out_features=10, bias=True)
    (1): ReLU()
    (2): Linear(in_features=10, out_features=20, bias=True)
    (3): ReLU()
    (4): Linear(in_features=20, out_features=40, bias=True)
  )
)><bound method Module.state_dict of Decoder(
  (decoder): Sequential(
    (0): Linear(in_features=5, out_features=10, bias=True)
    (1): ReLU()
    (2): Linear(in_features=10, out_features=20, bias=True)
    (3): ReLU()
    (4): Linear(in_features=20, out_features=40, bias=True)
  )
)><bound method Module.state_dict of Decoder(
  (decoder): Sequential(
    (0): Linear(in_features=5, out_features=10, bias=True)
    (1): ReLU()
    (2): Linear(in_features=10, out_features=20, bias=True)
    (3): ReLU()
    (4): Linear(in_features=20, out_features=40, bias=True)
  )
)><bound method Module.state_dict of Decoder(
  (decoder): Sequential(
    (0): Linear(in_features=5, out_features=10, bias=True)
    (1): ReLU()
    (2): Linear(in_features=10, out_features=20, bias=True)
    (3): ReLU()
    (4): Linear(in_features=20, out_features=40, bias=True)
  )
)><bound method Module.state_dict of Decoder(
  (decoder): Sequential(
    (0): Linear(in_features=5, out_features=10, bias=True)
    (1): ReLU()
    (2): Linear(in_features=10, out_features=20, bias=True)
    (3): ReLU()
    (4): Linear(in_features=20, out_features=40, bias=True)
  )
)><bound method Module.state_dict of Decoder(
  (decoder): Sequential(
    (0): Linear(in_features=5, out_features=10, bias=True)
    (1): ReLU()
    (2): Linear(in_features=10, out_features=20, bias=True)
    (3): ReLU()
    (4): Linear(in_features=20, out_features=40, bias=True)
  )
)><bound method Module.state_dict of Decoder(
  (decoder): Sequential(
    (0): Linear(in_features=5, out_features=10, bias=True)
    (1): ReLU()
    (2): Linear(in_features=10, out_features=20, bias=True)
    (3): ReLU()
    (4): Linear(in_features=20, out_features=40, bias=True)
  )
)><bound method Module.state_dict of Decoder(
  (decoder): Sequential(
    (0): Linear(in_features=5, out_features=10, bias=True)
    (1): ReLU()
    (2): Linear(in_features=10, out_features=20, bias=True)
    (3): ReLU()
    (4): Linear(in_features=20, out_features=40, bias=True)
  )
)><bound method Module.state_dict of Decoder(
  (decoder): Sequential(
    (0): Linear(in_features=5, out_features=10, bias=True)
    (1): ReLU()
    (2): Linear(in_features=10, out_features=20, bias=True)
    (3): ReLU()
    (4): Linear(in_features=20, out_features=40, bias=True)
  )
)><bound method Module.state_dict of Decoder(
  (decoder): Sequential(
    (0): Linear(in_features=5, out_features=10, bias=True)
    (1): ReLU()
    (2): Linear(in_features=10, out_features=20, bias=True)
    (3): ReLU()
    (4): Linear(in_features=20, out_features=40, bias=True)
  )
)><bound method Module.state_dict of Decoder(
  (decoder): Sequential(
    (0): Linear(in_features=5, out_features=10, bias=True)
    (1): ReLU()
    (2): Linear(in_features=10, out_features=20, bias=True)
    (3): ReLU()
    (4): Linear(in_features=20, out_features=40, bias=True)
  )
)><bound method Module.state_dict of Decoder(
  (decoder): Sequential(
    (0): Linear(in_features=5, out_features=10, bias=True)
    (1): ReLU()
    (2): Linear(in_features=10, out_features=20, bias=True)
    (3): ReLU()
    (4): Linear(in_features=20, out_features=40, bias=True)
  )
)><bound method Module.state_dict of Decoder(
  (decoder): Sequential(
    (0): Linear(in_features=5, out_features=10, bias=True)
    (1): ReLU()
    (2): Linear(in_features=10, out_features=20, bias=True)
    (3): ReLU()
    (4): Linear(in_features=20, out_features=40, bias=True)
  )
)><bound method Module.state_dict of Decoder(
  (decoder): Sequential(
    (0): Linear(in_features=5, out_features=10, bias=True)
    (1): ReLU()
    (2): Linear(in_features=10, out_features=20, bias=True)
    (3): ReLU()
    (4): Linear(in_features=20, out_features=40, bias=True)
  )
)><bound method Module.state_dict of Decoder(
  (decoder): Sequential(
    (0): Linear(in_features=5, out_features=10, bias=True)
    (1): ReLU()
    (2): Linear(in_features=10, out_features=20, bias=True)
    (3): ReLU()
    (4): Linear(in_features=20, out_features=40, bias=True)
  )
)><bound method Module.state_dict of Decoder(
  (decoder): Sequential(
    (0): Linear(in_features=5, out_features=10, bias=True)
    (1): ReLU()
    (2): Linear(in_features=10, out_features=20, bias=True)
    (3): ReLU()
    (4): Linear(in_features=20, out_features=40, bias=True)
  )
)><bound method Module.state_dict of Decoder(
  (decoder): Sequential(
    (0): Linear(in_features=5, out_features=10, bias=True)
…
    (0): Linear(in_features=5, out_features=10, bias=True)
    (1): ReLU()
    (2): Linear(in_features=10, out_features=20, bias=True)
    (3): ReLU()
    (4): Linear(in_features=20, out_features=40, bias=True)
  )
)><bound method Module.state_dict of Decoder(
  (decoder): Sequential(
    (0): Linear(in_features=5, out_features=10, bias=True)
    (1): ReLU()
    (2): Linear(in_features=10, out_features=20, bias=True)
    (3): ReLU()
    (4): Linear(in_features=20, out_features=40, bias=True)
  )
)><bound method Module.state_dict of Decoder(
  (decoder): Sequential(
    (0): Linear(in_features=5, out_features=10, bias=True)
    (1): ReLU()
    (2): Linear(in_features=10, out_features=20, bias=True)
    (3): ReLU()
    (4): Linear(in_features=20, out_features=40, bias=True)
  )
)><bound method Module.state_dict of Decoder(
  (decoder): Sequential(
    (0): Linear(in_features=5, out_features=10, bias=True)
    (1): ReLU()
    (2): Linear(in_features=10, out_features=20, bias=True)
    (3): ReLU()
    (4): Linear(in_features=20, out_features=40, bias=True)
  )
)><bound method Module.state_dict of Decoder(
  (decoder): Sequential(
    (0): Linear(in_features=5, out_features=10, bias=True)
    (1): ReLU()
    (2): Linear(in_features=10, out_features=20, bias=True)
    (3): ReLU()
    (4): Linear(in_features=20, out_features=40, bias=True)
  )
)><bound method Module.state_dict of Decoder(
  (decoder): Sequential(
    (0): Linear(in_features=5, out_features=10, bias=True)
    (1): ReLU()
    (2): Linear(in_features=10, out_features=20, bias=True)
    (3): ReLU()
    (4): Linear(in_features=20, out_features=40, bias=True)
  )
)><bound method Module.state_dict of Decoder(
  (decoder): Sequential(
    (0): Linear(in_features=5, out_features=10, bias=True)
    (1): ReLU()
    (2): Linear(in_features=10, out_features=20, bias=True)
    (3): ReLU()
    (4): Linear(in_features=20, out_features=40, bias=True)
  )
)><bound method Module.state_dict of Decoder(
  (decoder): Sequential(
    (0): Linear(in_features=5, out_features=10, bias=True)
    (1): ReLU()
    (2): Linear(in_features=10, out_features=20, bias=True)
    (3): ReLU()
    (4): Linear(in_features=20, out_features=40, bias=True)
  )
)><bound method Module.state_dict of Decoder(
  (decoder): Sequential(
    (0): Linear(in_features=5, out_features=10, bias=True)
    (1): ReLU()
    (2): Linear(in_features=10, out_features=20, bias=True)
    (3): ReLU()
    (4): Linear(in_features=20, out_features=40, bias=True)
  )
)><bound method Module.state_dict of Decoder(
  (decoder): Sequential(
    (0): Linear(in_features=5, out_features=10, bias=True)
    (1): ReLU()
    (2): Linear(in_features=10, out_features=20, bias=True)
    (3): ReLU()
    (4): Linear(in_features=20, out_features=40, bias=True)
  )
)><bound method Module.state_dict of Decoder(
  (decoder): Sequential(
    (0): Linear(in_features=5, out_features=10, bias=True)
    (1): ReLU()
    (2): Linear(in_features=10, out_features=20, bias=True)
    (3): ReLU()
    (4): Linear(in_features=20, out_features=40, bias=True)
  )
)><bound method Module.state_dict of Decoder(
  (decoder): Sequential(
    (0): Linear(in_features=5, out_features=10, bias=True)
    (1): ReLU()
    (2): Linear(in_features=10, out_features=20, bias=True)
    (3): ReLU()
    (4): Linear(in_features=20, out_features=40, bias=True)
  )
)><bound method Module.state_dict of Decoder(
  (decoder): Sequential(
    (0): Linear(in_features=5, out_features=10, bias=True)
    (1): ReLU()
    (2): Linear(in_features=10, out_features=20, bias=True)
    (3): ReLU()
    (4): Linear(in_features=20, out_features=40, bias=True)
  )
)><bound method Module.state_dict of Decoder(
  (decoder): Sequential(
    (0): Linear(in_features=5, out_features=10, bias=True)
    (1): ReLU()
    (2): Linear(in_features=10, out_features=20, bias=True)
    (3): ReLU()
    (4): Linear(in_features=20, out_features=40, bias=True)
  )
)><bound method Module.state_dict of Decoder(
  (decoder): Sequential(
    (0): Linear(in_features=5, out_features=10, bias=True)
    (1): ReLU()
    (2): Linear(in_features=10, out_features=20, bias=True)
    (3): ReLU()
    (4): Linear(in_features=20, out_features=40, bias=True)
  )
)><bound method Module.state_dict of Decoder(
  (decoder): Sequential(
    (0): Linear(in_features=5, out_features=10, bias=True)
    (1): ReLU()
    (2): Linear(in_features=10, out_features=20, bias=True)
    (3): ReLU()
    (4): Linear(in_features=20, out_features=40, bias=True)
  )
)><bound method Module.state_dict of Decoder(
  (decoder): Sequential(
    (0): Linear(in_features=5, out_features=10, bias=True)
    (1): ReLU()
    (2): Linear(in_features=10, out_features=20, bias=True)
    (3): ReLU()
    (4): Linear(in_features=20, out_features=40, bias=True)
  )
)><bound method Module.state_dict of Decoder(
  (decoder): Sequential(
    (0): Linear(in_features=5, out_features=10, bias=True)
    (1): ReLU()
    (2): Linear(in_features=10, out_features=20, bias=True)
    (3): ReLU()
    (4): Linear(in_features=20, out_features=40, bias=True)
  )
)><bound method Module.state_dict of Decoder(
  (decoder): Sequential(
    (0): Linear(in_features=5, out_features=10, bias=True)
    (1): ReLU()
    (2): Linear(in_features=10, out_features=20, bias=True)
    (3): ReLU()
    (4): Linear(in_features=20, out_features=40, bias=True)
  )
)><bound method Module.state_dict of Decoder(
  (decoder): Sequential(
    (0): Linear(in_features=5, out_features=10, bias=True)
    (1): ReLU()
    (2): Linear(in_features=10, out_features=20, bias=True)
    (3): ReLU()
    (4): Linear(in_features=20, out_features=40, bias=True)
  )
)><bound method Module.state_dict of Decoder(
  (decoder): Sequential(
    (0): Linear(in_features=5, out_features=10, bias=True)
    (1): ReLU()
    (2): Linear(in_features=10, out_features=20, bias=True)
    (3): ReLU()
    (4): Linear(in_features=20, out_features=40, bias=True)
  )
)><bound method Module.state_dict of Decoder(
  (decoder): Sequential(
    (0): Linear(in_features=5, out_features=10, bias=True)
    (1): ReLU()
    (2): Linear(in_features=10, out_features=20, bias=True)
    (3): ReLU()
    (4): Linear(in_features=20, out_features=40, bias=True)
  )
)><bound method Module.state_dict of Decoder(
  (decoder): Sequential(
    (0): Linear(in_features=5, out_features=10, bias=True)
    (1): ReLU()
    (2): Linear(in_features=10, out_features=20, bias=True)
    (3): ReLU()
    (4): Linear(in_features=20, out_features=40, bias=True)
  )
)><bound method Module.state_dict of Decoder(
  (decoder): Sequential(
    (0): Linear(in_features=5, out_features=10, bias=True)
    (1): ReLU()
    (2): Linear(in_features=10, out_features=20, bias=True)
    (3): ReLU()
    (4): Linear(in_features=20, out_features=40, bias=True)
  )
)><bound method Module.state_dict of Decoder(
  (decoder): Sequential(
    (0): Linear(in_features=5, out_features=10, bias=True)
    (1): ReLU()
    (2): Linear(in_features=10, out_features=20, bias=True)
    (3): ReLU()
    (4): Linear(in_features=20, out_features=40, bias=True)
  )
)><bound method Module.state_dict of Decoder(
  (decoder): Sequential(
    (0): Linear(in_features=5, out_features=10, bias=True)
    (1): ReLU()
    (2): Linear(in_features=10, out_features=20, bias=True)
    (3): ReLU()
    (4): Linear(in_features=20, out_features=40, bias=True)
  )
)><bound method Module.state_dict of Decoder(
  (decoder): Sequential(
    (0): Linear(in_features=5, out_features=10, bias=True)
    (1): ReLU()
    (2): Linear(in_features=10, out_features=20, bias=True)
    (3): ReLU()
    (4): Linear(in_features=20, out_features=40, bias=True)
  )
)><bound method Module.state_dict of Decoder(
  (decoder): Sequential(
    (0): Linear(in_features=5, out_features=10, bias=True)
    (1): ReLU()
    (2): Linear(in_features=10, out_features=20, bias=True)
    (3): ReLU()
    (4): Linear(in_features=20, out_features=40, bias=True)
  )
)><bound method Module.state_dict of Decoder(
  (decoder): Sequential(
    (0): Linear(in_features=5, out_features=10, bias=True)
    (1): ReLU()
    (2): Linear(in_features=10, out_features=20, bias=True)
    (3): ReLU()
    (4): Linear(in_features=20, out_features=40, bias=True)
  )
)><bound method Module.state_dict of Decoder(
  (decoder): Sequential(
    (0): Linear(in_features=5, out_features=10, bias=True)
    (1): ReLU()
    (2): Linear(in_features=10, out_features=20, bias=True)
    (3): ReLU()
    (4): Linear(in_features=20, out_features=40, bias=True)
  )
)><bound method Module.state_dict of Decoder(
  (decoder): Sequential(
    (0): Linear(in_features=5, out_features=10, bias=True)
    (1): ReLU()
    (2): Linear(in_features=10, out_features=20, bias=True)
    (3): ReLU()
    (4): Linear(in_features=20, out_features=40, bias=True)
  )
)><bound method Module.state_dict of Decoder(
  (decoder): Sequential(
    (0): Linear(in_features=5, out_features=10, bias=True)
    (1): ReLU()
    (2): Linear(in_features=10, out_features=20, bias=True)
    (3): ReLU()
    (4): Linear(in_features=20, out_features=40, bias=True)
  )
)><bound method Module.state_dict of Decoder(
  (decoder): Sequential(
    (0): Linear(in_features=5, out_features=10, bias=True)
    (1): ReLU()
    (2): Linear(in_features=10, out_features=20, bias=True)
    (3): ReLU()
    (4): Linear(in_features=20, out_features=40, bias=True)
  )
)><bound method Module.state_dict of Decoder(
  (decoder): Sequential(
    (0): Linear(in_features=5, out_features=10, bias=True)
    (1): ReLU()
    (2): Linear(in_features=10, out_features=20, bias=True)
    (3): ReLU()
    (4): Linear(in_features=20, out_features=40, bias=True)
  )
)><bound method Module.state_dict of Decoder(
  (decoder): Sequential(
    (0): Linear(in_features=5, out_features=10, bias=True)
    (1): ReLU()
    (2): Linear(in_features=10, out_features=20, bias=True)
    (3): ReLU()
    (4): Linear(in_features=20, out_features=40, bias=True)
  )
)><bound method Module.state_dict of Decoder(
  (decoder): Sequential(
    (0): Linear(in_features=5, out_features=10, bias=True)
    (1): ReLU()
    (2): Linear(in_features=10, out_features=20, bias=True)
    (3): ReLU()
    (4): Linear(in_features=20, out_features=40, bias=True)
  )
)><bound method Module.state_dict of Decoder(
  (decoder): Sequential(
    (0): Linear(in_features=5, out_features=10, bias=True)
    (1): ReLU()
    (2): Linear(in_features=10, out_features=20, bias=True)
    (3): ReLU()
    (4): Linear(in_features=20, out_features=40, bias=True)
  )
)><bound method Module.state_dict of Decoder(
  (decoder): Sequential(
    (0): Linear(in_features=5, out_features=10, bias=True)
    (1): ReLU()
    (2): Linear(in_features=10, out_features=20, bias=True)
    (3): ReLU()
    (4): Linear(in_features=20, out_features=40, bias=True)
  )
)><bound method Module.state_dict of Decoder(
  (decoder): Sequential(
    (0): Linear(in_features=5, out_features=10, bias=True)
    (1): ReLU()
    (2): Linear(in_features=10, out_features=20, bias=True)
    (3): ReLU()
    (4): Linear(in_features=20, out_features=40, bias=True)
  )
)><bound method Module.state_dict of Decoder(
  (decoder): Sequential(
    (0): Linear(in_features=5, out_features=10, bias=True)
    (1): ReLU()
    (2): Linear(in_features=10, out_features=20, bias=True)
    (3): ReLU()
    (4): Linear(in_features=20, out_features=40, bias=True)
  )
)><bound method Module.state_dict of Decoder(
  (decoder): Sequential(
    (0): Linear(in_features=5, out_features=10, bias=True)
    (1): ReLU()
    (2): Linear(in_features=10, out_features=20, bias=True)
    (3): ReLU()
    (4): Linear(in_features=20, out_features=40, bias=True)
  )
)><bound method Module.state_dict of Decoder(
  (decoder): Sequential(
    (0): Linear(in_features=5, out_features=10, bias=True)
    (1): ReLU()
    (2): Linear(in_features=10, out_features=20, bias=True)
    (3): ReLU()
    (4): Linear(in_features=20, out_features=40, bias=True)
  )
)><bound method Module.state_dict of Decoder(
  (decoder): Sequential(
    (0): Linear(in_features=5, out_features=10, bias=True)
    (1): ReLU()
    (2): Linear(in_features=10, out_features=20, bias=True)
    (3): ReLU()
    (4): Linear(in_features=20, out_features=40, bias=True)
  )
)><bound method Module.state_dict of Decoder(
  (decoder): Sequential(
    (0): Linear(in_features=5, out_features=10, bias=True)
    (1): ReLU()
    (2): Linear(in_features=10, out_features=20, bias=True)
    (3): ReLU()
    (4): Linear(in_features=20, out_features=40, bias=True)
  )
)><bound method Module.state_dict of Decoder(
  (decoder): Sequential(
    (0): Linear(in_features=5, out_features=10, bias=True)
    (1): ReLU()
    (2): Linear(in_features=10, out_features=20, bias=True)
    (3): ReLU()
    (4): Linear(in_features=20, out_features=40, bias=True)
  )
)><bound method Module.state_dict of Decoder(
  (decoder): Sequential(
    (0): Linear(in_features=5, out_features=10, bias=True)
    (1): ReLU()
    (2): Linear(in_features=10, out_features=20, bias=True)
    (3): ReLU()
    (4): Linear(in_features=20, out_features=40, bias=True)
  )
)><bound method Module.state_dict of Decoder(
  (decoder): Sequential(
    (0): Linear(in_features=5, out_features=10, bias=True)
    (1): ReLU()
    (2): Linear(in_features=10, out_features=20, bias=True)
    (3): ReLU()
    (4): Linear(in_features=20, out_features=40, bias=True)
  )
)><bound method Module.state_dict of Decoder(
  (decoder): Sequential(
    (0): Linear(in_features=5, out_features=10, bias=True)
    (1): ReLU()
    (2): Linear(in_features=10, out_features=20, bias=True)
    (3): ReLU()
    (4): Linear(in_features=20, out_features=40, bias=True)
  )
)><bound method Module.state_dict of Decoder(
  (decoder): Sequential(
    (0): Linear(in_features=5, out_features=10, bias=True)
    (1): ReLU()
    (2): Linear(in_features=10, out_features=20, bias=True)
    (3): ReLU()
    (4): Linear(in_features=20, out_features=40, bias=True)
  )
)><bound method Module.state_dict of Decoder(
  (decoder): Sequential(
    (0): Linear(in_features=5, out_features=10, bias=True)
    (1): ReLU()
    (2): Linear(in_features=10, out_features=20, bias=True)
    (3): ReLU()
    (4): Linear(in_features=20, out_features=40, bias=True)
  )
)><bound method Module.state_dict of Decoder(
  (decoder): Sequential(
    (0): Linear(in_features=5, out_features=10, bias=True)
    (1): ReLU()
    (2): Linear(in_features=10, out_features=20, bias=True)
    (3): ReLU()
    (4): Linear(in_features=20, out_features=40, bias=True)
  )
)><bound method Module.state_dict of Decoder(
  (decoder): Sequential(
    (0): Linear(in_features=5, out_features=10, bias=True)
    (1): ReLU()
    (2): Linear(in_features=10, out_features=20, bias=True)
    (3): ReLU()
    (4): Linear(in_features=20, out_features=40, bias=True)
  )
)><bound method Module.state_dict of Decoder(
  (decoder): Sequential(
    (0): Linear(in_features=5, out_features=10, bias=True)
    (1): ReLU()
    (2): Linear(in_features=10, out_features=20, bias=True)
    (3): ReLU()
    (4): Linear(in_features=20, out_features=40, bias=True)
  )
)><bound method Module.state_dict of Decoder(
  (decoder): Sequential(
    (0): Linear(in_features=5, out_features=10, bias=True)
    (1): ReLU()
    (2): Linear(in_features=10, out_features=20, bias=True)
    (3): ReLU()
    (4): Linear(in_features=20, out_features=40, bias=True)
  )
)><bound method Module.state_dict of Decoder(
  (decoder): Sequential(
    (0): Linear(in_features=5, out_features=10, bias=True)
    (1): ReLU()
    (2): Linear(in_features=10, out_features=20, bias=True)
    (3): ReLU()
    (4): Linear(in_features=20, out_features=40, bias=True)
  )
)><bound method Module.state_dict of Decoder(
  (decoder): Sequential(
    (0): Linear(in_features=5, out_features=10, bias=True)
    (1): ReLU()
    (2): Linear(in_features=10, out_features=20, bias=True)
    (3): ReLU()
    (4): Linear(in_features=20, out_features=40, bias=True)
  )
)><bound method Module.state_dict of Decoder(
  (decoder): Sequential(
    (0): Linear(in_features=5, out_features=10, bias=True)
    (1): ReLU()
    (2): Linear(in_features=10, out_features=20, bias=True)
    (3): ReLU()
    (4): Linear(in_features=20, out_features=40, bias=True)
  )
)><bound method Module.state_dict of Decoder(
  (decoder): Sequential(
    (0): Linear(in_features=5, out_features=10, bias=True)
    (1): ReLU()
    (2): Linear(in_features=10, out_features=20, bias=True)
    (3): ReLU()
    (4): Linear(in_features=20, out_features=40, bias=True)
  )
)><bound method Module.state_dict of Decoder(
  (decoder): Sequential(
    (0): Linear(in_features=5, out_features=10, bias=True)
    (1): ReLU()
    (2): Linear(in_features=10, out_features=20, bias=True)
    (3): ReLU()
    (4): Linear(in_features=20, out_features=40, bias=True)
  )
)><bound method Module.state_dict of Decoder(
  (decoder): Sequential(
    (0): Linear(in_features=5, out_features=10, bias=True)
    (1): ReLU()
    (2): Linear(in_features=10, out_features=20, bias=True)
    (3): ReLU()
    (4): Linear(in_features=20, out_features=40, bias=True)
  )
)><bound method Module.state_dict of Decoder(
  (decoder): Sequential(
    (0): Linear(in_features=5, out_features=10, bias=True)
    (1): ReLU()
    (2): Linear(in_features=10, out_features=20, bias=True)
    (3): ReLU()
    (4): Linear(in_features=20, out_features=40, bias=True)
  )
)><bound method Module.state_dict of Decoder(
  (decoder): Sequential(
    (0): Linear(in_features=5, out_features=10, bias=True)
    (1): ReLU()
    (2): Linear(in_features=10, out_features=20, bias=True)
    (3): ReLU()
    (4): Linear(in_features=20, out_features=40, bias=True)
  )
)><bound method Module.state_dict of Decoder(
  (decoder): Sequential(
    (0): Linear(in_features=5, out_features=10, bias=True)
    (1): ReLU()
    (2): Linear(in_features=10, out_features=20, bias=True)
    (3): ReLU()
    (4): Linear(in_features=20, out_features=40, bias=True)
  )
)><bound method Module.state_dict of Decoder(
  (decoder): Sequential(
    (0): Linear(in_features=5, out_features=10, bias=True)
    (1): ReLU()
    (2): Linear(in_features=10, out_features=20, bias=True)
    (3): ReLU()
    (4): Linear(in_features=20, out_features=40, bias=True)
  )
)><bound method Module.state_dict of Decoder(
  (decoder): Sequential(
    (0): Linear(in_features=5, out_features=10, bias=True)
    (1): ReLU()
    (2): Linear(in_features=10, out_features=20, bias=True)
    (3): ReLU()
    (4): Linear(in_features=20, out_features=40, bias=True)
  )
)><bound method Module.state_dict of Decoder(
  (decoder): Sequential(
    (0): Linear(in_features=5, out_features=10, bias=True)
    (1): ReLU()
    (2): Linear(in_features=10, out_features=20, bias=True)
    (3): ReLU()
    (4): Linear(in_features=20, out_features=40, bias=True)
  )
)><bound method Module.state_dict of Decoder(
  (decoder): Sequential(
    (0): Linear(in_features=5, out_features=10, bias=True)
    (1): ReLU()
    (2): Linear(in_features=10, out_features=20, bias=True)
    (3): ReLU()
    (4): Linear(in_features=20, out_features=40, bias=True)
  )
)><bound method Module.state_dict of Decoder(
  (decoder): Sequential(
    (0): Linear(in_features=5, out_features=10, bias=True)
    (1): ReLU()
    (2): Linear(in_features=10, out_features=20, bias=True)
    (3): ReLU()
    (4): Linear(in_features=20, out_features=40, bias=True)
  )
)><bound method Module.state_dict of Decoder(
  (decoder): Sequential(
    (0): Linear(in_features=5, out_features=10, bias=True)
    (1): ReLU()
    (2): Linear(in_features=10, out_features=20, bias=True)
    (3): ReLU()
    (4): Linear(in_features=20, out_features=40, bias=True)
  )
)><bound method Module.state_dict of Decoder(
  (decoder): Sequential(
    (0): Linear(in_features=5, out_features=10, bias=True)
    (1): ReLU()
    (2): Linear(in_features=10, out_features=20, bias=True)
    (3): ReLU()
    (4): Linear(in_features=20, out_features=40, bias=True)
  )
)><bound method Module.state_dict of Decoder(
  (decoder): Sequential(
    (0): Linear(in_features=5, out_features=10, bias=True)
    (1): ReLU()
    (2): Linear(in_features=10, out_features=20, bias=True)
    (3): ReLU()
    (4): Linear(in_features=20, out_features=40, bias=True)
  )
)><bound method Module.state_dict of Decoder(
  (decoder): Sequential(
    (0): Linear(in_features=5, out_features=10, bias=True)
    (1): ReLU()
    (2): Linear(in_features=10, out_features=20, bias=True)
    (3): ReLU()
    (4): Linear(in_features=20, out_features=40, bias=True)
  )
)><bound method Module.state_dict of Decoder(
  (decoder): Sequential(
    (0): Linear(in_features=5, out_features=10, bias=True)
    (1): ReLU()
    (2): Linear(in_features=10, out_features=20, bias=True)
    (3): ReLU()
    (4): Linear(in_features=20, out_features=40, bias=True)
  )
)><bound method Module.state_dict of Decoder(
  (decoder): Sequential(
    (0): Linear(in_features=5, out_features=10, bias=True)
    (1): ReLU()
    (2): Linear(in_features=10, out_features=20, bias=True)
    (3): ReLU()
    (4): Linear(in_features=20, out_features=40, bias=True)
  )
)><bound method Module.state_dict of Decoder(
  (decoder): Sequential(
    (0): Linear(in_features=5, out_features=10, bias=True)
    (1): ReLU()
    (2): Linear(in_features=10, out_features=20, bias=True)
    (3): ReLU()
    (4): Linear(in_features=20, out_features=40, bias=True)
  )
)><bound method Module.state_dict of Decoder(
  (decoder): Sequential(
    (0): Linear(in_features=5, out_features=10, bias=True)
    (1): ReLU()
    (2): Linear(in_features=10, out_features=20, bias=True)
    (3): ReLU()
    (4): Linear(in_features=20, out_features=40, bias=True)
  )
)><bound method Module.state_dict of Decoder(
  (decoder): Sequential(
    (0): Linear(in_features=5, out_features=10, bias=True)
    (1): ReLU()
    (2): Linear(in_features=10, out_features=20, bias=True)
    (3): ReLU()
    (4): Linear(in_features=20, out_features=40, bias=True)
  )
)><bound method Module.state_dict of Decoder(
  (decoder): Sequential(
    (0): Linear(in_features=5, out_features=10, bias=True)
    (1): ReLU()
    (2): Linear(in_features=10, out_features=20, bias=True)
    (3): ReLU()
    (4): Linear(in_features=20, out_features=40, bias=True)
  )
)><bound method Module.state_dict of Decoder(
  (decoder): Sequential(
    (0): Linear(in_features=5, out_features=10, bias=True)
    (1): ReLU()
    (2): Linear(in_features=10, out_features=20, bias=True)
    (3): ReLU()
    (4): Linear(in_features=20, out_features=40, bias=True)
  )
)><bound method Module.state_dict of Decoder(
  (decoder): Sequential(
    (0): Linear(in_features=5, out_features=10, bias=True)
    (1): ReLU()
    (2): Linear(in_features=10, out_features=20, bias=True)
    (3): ReLU()
    (4): Linear(in_features=20, out_features=40, bias=True)
  )
)><bound method Module.state_dict of Decoder(
  (decoder): Sequential(
    (0): Linear(in_features=5, out_features=10, bias=True)
    (1): ReLU()
    (2): Linear(in_features=10, out_features=20, bias=True)
    (3): ReLU()
    (4): Linear(in_features=20, out_features=40, bias=True)
  )
)><bound method Module.state_dict of Decoder(
  (decoder): Sequential(
    (0): Linear(in_features=5, out_features=10, bias=True)
    (1): ReLU()
    (2): Linear(in_features=10, out_features=20, bias=True)
    (3): ReLU()
    (4): Linear(in_features=20, out_features=40, bias=True)
  )
)><bound method Module.state_dict of Decoder(
  (decoder): Sequential(
    (0): Linear(in_features=5, out_features=10, bias=True)
    (1): ReLU()
    (2): Linear(in_features=10, out_features=20, bias=True)
    (3): ReLU()
    (4): Linear(in_features=20, out_features=40, bias=True)
  )
)><bound method Module.state_dict of Decoder(
  (decoder): Sequential(
    (0): Linear(in_features=5, out_features=10, bias=True)
    (1): ReLU()
    (2): Linear(in_features=10, out_features=20, bias=True)
    (3): ReLU()
    (4): Linear(in_features=20, out_features=40, bias=True)
  )
)><bound method Module.state_dict of Decoder(
  (decoder): Sequential(
    (0): Linear(in_features=5, out_features=10, bias=True)
    (1): ReLU()
    (2): Linear(in_features=10, out_features=20, bias=True)
    (3): ReLU()
    (4): Linear(in_features=20, out_features=40, bias=True)
  )
)><bound method Module.state_dict of Decoder(
  (decoder): Sequential(
    (0): Linear(in_features=5, out_features=10, bias=True)
    (1): ReLU()
    (2): Linear(in_features=10, out_features=20, bias=True)
    (3): ReLU()
    (4): Linear(in_features=20, out_features=40, bias=True)
  )
)><bound method Module.state_dict of Decoder(
  (decoder): Sequential(
    (0): Linear(in_features=5, out_features=10, bias=True)
    (1): ReLU()
    (2): Linear(in_features=10, out_features=20, bias=True)
    (3): ReLU()
    (4): Linear(in_features=20, out_features=40, bias=True)
  )
)><bound method Module.state_dict of Decoder(
  (decoder): Sequential(
    (0): Linear(in_features=5, out_features=10, bias=True)
    (1): ReLU()
    (2): Linear(in_features=10, out_features=20, bias=True)
    (3): ReLU()
    (4): Linear(in_features=20, out_features=40, bias=True)
  )
)><bound method Module.state_dict of Decoder(
  (decoder): Sequential(
    (0): Linear(in_features=5, out_features=10, bias=True)
    (1): ReLU()
    (2): Linear(in_features=10, out_features=20, bias=True)
    (3): ReLU()
    (4): Linear(in_features=20, out_features=40, bias=True)
  )
)><bound method Module.state_dict of Decoder(
  (decoder): Sequential(
    (0): Linear(in_features=5, out_features=10, bias=True)
    (1): ReLU()
    (2): Linear(in_features=10, out_features=20, bias=True)
    (3): ReLU()
    (4): Linear(in_features=20, out_features=40, bias=True)
  )
)><bound method Module.state_dict of Decoder(
  (decoder): Sequential(
    (0): Linear(in_features=5, out_features=10, bias=True)
    (1): ReLU()
    (2): Linear(in_features=10, out_features=20, bias=True)
    (3): ReLU()
    (4): Linear(in_features=20, out_features=40, bias=True)
  )
)><bound method Module.state_dict of Decoder(
  (decoder): Sequential(
    (0): Linear(in_features=5, out_features=10, bias=True)
    (1): ReLU()
    (2): Linear(in_features=10, out_features=20, bias=True)
    (3): ReLU()
    (4): Linear(in_features=20, out_features=40, bias=True)
  )
)><bound method Module.state_dict of Decoder(
  (decoder): Sequential(
    (0): Linear(in_features=5, out_features=10, bias=True)
    (1): ReLU()
    (2): Linear(in_features=10, out_features=20, bias=True)
    (3): ReLU()
    (4): Linear(in_features=20, out_features=40, bias=True)
  )
)><bound method Module.state_dict of Decoder(
  (decoder): Sequential(
    (0): Linear(in_features=5, out_features=10, bias=True)
    (1): ReLU()
    (2): Linear(in_features=10, out_features=20, bias=True)
    (3): ReLU()
    (4): Linear(in_features=20, out_features=40, bias=True)
  )
)><bound method Module.state_dict of Decoder(
  (decoder): Sequential(
    (0): Linear(in_features=5, out_features=10, bias=True)
    (1): ReLU()
    (2): Linear(in_features=10, out_features=20, bias=True)
    (3): ReLU()
    (4): Linear(in_features=20, out_features=40, bias=True)
  )
)><bound method Module.state_dict of Decoder(
  (decoder): Sequential(
    (0): Linear(in_features=5, out_features=10, bias=True)
    (1): ReLU()
    (2): Linear(in_features=10, out_features=20, bias=True)
    (3): ReLU()
    (4): Linear(in_features=20, out_features=40, bias=True)
  )
)><bound method Module.state_dict of Decoder(
  (decoder): Sequential(
    (0): Linear(in_features=5, out_features=10, bias=True)
    (1): ReLU()
    (2): Linear(in_features=10, out_features=20, bias=True)
    (3): ReLU()
    (4): Linear(in_features=20, out_features=40, bias=True)
  )
)><bound method Module.state_dict of Decoder(
  (decoder): Sequential(
    (0): Linear(in_features=5, out_features=10, bias=True)
    (1): ReLU()
    (2): Linear(in_features=10, out_features=20, bias=True)
    (3): ReLU()
    (4): Linear(in_features=20, out_features=40, bias=True)
  )
)><bound method Module.state_dict of Decoder(
  (decoder): Sequential(
    (0): Linear(in_features=5, out_features=10, bias=True)
    (1): ReLU()
    (2): Linear(in_features=10, out_features=20, bias=True)
    (3): ReLU()
    (4): Linear(in_features=20, out_features=40, bias=True)
  )
)><bound method Module.state_dict of Decoder(
  (decoder): Sequential(
    (0): Linear(in_features=5, out_features=10, bias=True)
    (1): ReLU()
    (2): Linear(in_features=10, out_features=20, bias=True)
    (3): ReLU()
    (4): Linear(in_features=20, out_features=40, bias=True)
  )
)><bound method Module.state_dict of Decoder(
  (decoder): Sequential(
    (0): Linear(in_features=5, out_features=10, bias=True)
    (1): ReLU()
    (2): Linear(in_features=10, out_features=20, bias=True)
    (3): ReLU()
    (4): Linear(in_features=20, out_features=40, bias=True)
  )
)><bound method Module.state_dict of Decoder(
  (decoder): Sequential(
    (0): Linear(in_features=5, out_features=10, bias=True)
    (1): ReLU()
    (2): Linear(in_features=10, out_features=20, bias=True)
    (3): ReLU()
    (4): Linear(in_features=20, out_features=40, bias=True)
  )
)><bound method Module.state_dict of Decoder(
  (decoder): Sequential(
    (0): Linear(in_features=5, out_features=10, bias=True)
    (1): ReLU()
    (2): Linear(in_features=10, out_features=20, bias=True)
    (3): ReLU()
    (4): Linear(in_features=20, out_features=40, bias=True)
  )
)><bound method Module.state_dict of Decoder(
  (decoder): Sequential(
    (0): Linear(in_features=5, out_features=10, bias=True)
    (1): ReLU()
    (2): Linear(in_features=10, out_features=20, bias=True)
    (3): ReLU()
    (4): Linear(in_features=20, out_features=40, bias=True)
  )
)><bound method Module.state_dict of Decoder(
  (decoder): Sequential(
    (0): Linear(in_features=5, out_features=10, bias=True)
    (1): ReLU()
    (2): Linear(in_features=10, out_features=20, bias=True)
    (3): ReLU()
    (4): Linear(in_features=20, out_features=40, bias=True)
  )
)><bound method Module.state_dict of Decoder(
  (decoder): Sequential(
    (0): Linear(in_features=5, out_features=10, bias=True)
    (1): ReLU()
    (2): Linear(in_features=10, out_features=20, bias=True)
    (3): ReLU()
    (4): Linear(in_features=20, out_features=40, bias=True)
  )
)><bound method Module.state_dict of Decoder(
  (decoder): Sequential(
    (0): Linear(in_features=5, out_features=10, bias=True)
    (1): ReLU()
    (2): Linear(in_features=10, out_features=20, bias=True)
    (3): ReLU()
    (4): Linear(in_features=20, out_features=40, bias=True)
  )
)><bound method Module.state_dict of Decoder(
  (decoder): Sequential(
    (0): Linear(in_features=5, out_features=10, bias=True)
    (1): ReLU()
    (2): Linear(in_features=10, out_features=20, bias=True)
    (3): ReLU()
    (4): Linear(in_features=20, out_features=40, bias=True)
  )
)><bound method Module.state_dict of Decoder(
  (decoder): Sequential(
    (0): Linear(in_features=5, out_features=10, bias=True)
    (1): ReLU()
    (2): Linear(in_features=10, out_features=20, bias=True)
    (3): ReLU()
    (4): Linear(in_features=20, out_features=40, bias=True)
  )
)><bound method Module.state_dict of Decoder(
  (decoder): Sequential(
    (0): Linear(in_features=5, out_features=10, bias=True)
    (1): ReLU()
    (2): Linear(in_features=10, out_features=20, bias=True)
    (3): ReLU()
    (4): Linear(in_features=20, out_features=40, bias=True)
  )
)><bound method Module.state_dict of Decoder(
  (decoder): Sequential(
    (0): Linear(in_features=5, out_features=10, bias=True)
    (1): ReLU()
    (2): Linear(in_features=10, out_features=20, bias=True)
    (3): ReLU()
    (4): Linear(in_features=20, out_features=40, bias=True)
  )
)><bound method Module.state_dict of Decoder(
  (decoder): Sequential(
    (0): Linear(in_features=5, out_features=10, bias=True)
    (1): ReLU()
    (2): Linear(in_features=10, out_features=20, bias=True)
    (3): ReLU()
    (4): Linear(in_features=20, out_features=40, bias=True)
  )
)><bound method Module.state_dict of Decoder(
  (decoder): Sequential(
    (0): Linear(in_features=5, out_features=10, bias=True)
    (1): ReLU()
    (2): Linear(in_features=10, out_features=20, bias=True)
    (3): ReLU()
    (4): Linear(in_features=20, out_features=40, bias=True)
  )
)><bound method Module.state_dict of Decoder(
  (decoder): Sequential(
    (0): Linear(in_features=5, out_features=10, bias=True)
    (1): ReLU()
    (2): Linear(in_features=10, out_features=20, bias=True)
    (3): ReLU()
    (4): Linear(in_features=20, out_features=40, bias=True)
  )
)><bound method Module.state_dict of Decoder(
  (decoder): Sequential(
    (0): Linear(in_features=5, out_features=10, bias=True)
    (1): ReLU()
    (2): Linear(in_features=10, out_features=20, bias=True)
    (3): ReLU()
    (4): Linear(in_features=20, out_features=40, bias=True)
  )
)><bound method Module.state_dict of Decoder(
  (decoder): Sequential(
    (0): Linear(in_features=5, out_features=10, bias=True)
    (1): ReLU()
    (2): Linear(in_features=10, out_features=20, bias=True)
    (3): ReLU()
    (4): Linear(in_features=20, out_features=40, bias=True)
  )
)><bound method Module.state_dict of Decoder(
  (decoder): Sequential(
    (0): Linear(in_features=5, out_features=10, bias=True)
    (1): ReLU()
    (2): Linear(in_features=10, out_features=20, bias=True)
    (3): ReLU()
    (4): Linear(in_features=20, out_features=40, bias=True)
  )
)><bound method Module.state_dict of Decoder(
  (decoder): Sequential(
    (0): Linear(in_features=5, out_features=10, bias=True)
    (1): ReLU()
    (2): Linear(in_features=10, out_features=20, bias=True)
    (3): ReLU()
    (4): Linear(in_features=20, out_features=40, bias=True)
  )
)><bound method Module.state_dict of Decoder(
  (decoder): Sequential(
    (0): Linear(in_features=5, out_features=10, bias=True)
    (1): ReLU()
    (2): Linear(in_features=10, out_features=20, bias=True)
    (3): ReLU()
    (4): Linear(in_features=20, out_features=40, bias=True)
  )
)><bound method Module.state_dict of Decoder(
  (decoder): Sequential(
    (0): Linear(in_features=5, out_features=10, bias=True)
    (1): ReLU()
    (2): Linear(in_features=10, out_features=20, bias=True)
    (3): ReLU()
    (4): Linear(in_features=20, out_features=40, bias=True)
  )
)><bound method Module.state_dict of Decoder(
  (decoder): Sequential(
    (0): Linear(in_features=5, out_features=10, bias=True)
    (1): ReLU()
    (2): Linear(in_features=10, out_features=20, bias=True)
    (3): ReLU()
    (4): Linear(in_features=20, out_features=40, bias=True)
  )
)><bound method Module.state_dict of Decoder(
  (decoder): Sequential(
    (0): Linear(in_features=5, out_features=10, bias=True)
    (1): ReLU()
    (2): Linear(in_features=10, out_features=20, bias=True)
    (3): ReLU()
    (4): Linear(in_features=20, out_features=40, bias=True)
  )
)><bound method Module.state_dict of Decoder(
  (decoder): Sequential(
    (0): Linear(in_features=5, out_features=10, bias=True)
    (1): ReLU()
    (2): Linear(in_features=10, out_features=20, bias=True)
    (3): ReLU()
    (4): Linear(in_features=20, out_features=40, bias=True)
  )
)><bound method Module.state_dict of Decoder(
  (decoder): Sequential(
    (0): Linear(in_features=5, out_features=10, bias=True)
    (1): ReLU()
    (2): Linear(in_features=10, out_features=20, bias=True)
    (3): ReLU()
    (4): Linear(in_features=20, out_features=40, bias=True)
  )
)><bound method Module.state_dict of Decoder(
  (decoder): Sequential(
    (0): Linear(in_features=5, out_features=10, bias=True)
    (1): ReLU()
    (2): Linear(in_features=10, out_features=20, bias=True)
    (3): ReLU()
    (4): Linear(in_features=20, out_features=40, bias=True)
  )
)><bound method Module.state_dict of Decoder(
  (decoder): Sequential(
    (0): Linear(in_features=5, out_features=10, bias=True)
    (1): ReLU()
    (2): Linear(in_features=10, out_features=20, bias=True)
    (3): ReLU()
    (4): Linear(in_features=20, out_features=40, bias=True)
  )
)><bound method Module.state_dict of Decoder(
  (decoder): Sequential(
    (0): Linear(in_features=5, out_features=10, bias=True)
    (1): ReLU()
    (2): Linear(in_features=10, out_features=20, bias=True)
    (3): ReLU()
    (4): Linear(in_features=20, out_features=40, bias=True)
  )
)><bound method Module.state_dict of Decoder(
  (decoder): Sequential(
    (0): Linear(in_features=5, out_features=10, bias=True)
    (1): ReLU()
    (2): Linear(in_features=10, out_features=20, bias=True)
    (3): ReLU()
    (4): Linear(in_features=20, out_features=40, bias=True)
  )
)><bound method Module.state_dict of Decoder(
  (decoder): Sequential(
    (0): Linear(in_features=5, out_features=10, bias=True)
    (1): ReLU()
    (2): Linear(in_features=10, out_features=20, bias=True)
    (3): ReLU()
    (4): Linear(in_features=20, out_features=40, bias=True)
  )
)><bound method Module.state_dict of Decoder(
  (decoder): Sequential(
    (0): Linear(in_features=5, out_features=10, bias=True)
    (1): ReLU()
    (2): Linear(in_features=10, out_features=20, bias=True)
    (3): ReLU()
    (4): Linear(in_features=20, out_features=40, bias=True)
  )
)><bound method Module.state_dict of Decoder(
  (decoder): Sequential(
    (0): Linear(in_features=5, out_features=10, bias=True)
    (1): ReLU()
    (2): Linear(in_features=10, out_features=20, bias=True)
    (3): ReLU()
    (4): Linear(in_features=20, out_features=40, bias=True)
  )
)><bound method Module.state_dict of Decoder(
  (decoder): Sequential(
    (0): Linear(in_features=5, out_features=10, bias=True)
    (1): ReLU()
    (2): Linear(in_features=10, out_features=20, bias=True)
    (3): ReLU()
    (4): Linear(in_features=20, out_features=40, bias=True)
  )
)><bound method Module.state_dict of Decoder(
  (decoder): Sequential(
    (0): Linear(in_features=5, out_features=10, bias=True)
    (1): ReLU()
    (2): Linear(in_features=10, out_features=20, bias=True)
    (3): ReLU()
    (4): Linear(in_features=20, out_features=40, bias=True)
  )
)><bound method Module.state_dict of Decoder(
  (decoder): Sequential(
    (0): Linear(in_features=5, out_features=10, bias=True)
    (1): ReLU()
    (2): Linear(in_features=10, out_features=20, bias=True)
    (3): ReLU()
    (4): Linear(in_features=20, out_features=40, bias=True)
  )
)><bound method Module.state_dict of Decoder(
  (decoder): Sequential(
    (0): Linear(in_features=5, out_features=10, bias=True)
    (1): ReLU()
    (2): Linear(in_features=10, out_features=20, bias=True)
    (3): ReLU()
    (4): Linear(in_features=20, out_features=40, bias=True)
  )
)><bound method Module.state_dict of Decoder(
  (decoder): Sequential(
    (0): Linear(in_features=5, out_features=10, bias=True)
    (1): ReLU()
    (2): Linear(in_features=10, out_features=20, bias=True)
    (3): ReLU()
    (4): Linear(in_features=20, out_features=40, bias=True)
  )
)><bound method Module.state_dict of Decoder(
  (decoder): Sequential(
    (0): Linear(in_features=5, out_features=10, bias=True)
    (1): ReLU()
    (2): Linear(in_features=10, out_features=20, bias=True)
    (3): ReLU()
    (4): Linear(in_features=20, out_features=40, bias=True)
  )
)><bound method Module.state_dict of Decoder(
  (decoder): Sequential(
    (0): Linear(in_features=5, out_features=10, bias=True)
    (1): ReLU()
    (2): Linear(in_features=10, out_features=20, bias=True)
    (3): ReLU()
    (4): Linear(in_features=20, out_features=40, bias=True)
  )
)><bound method Module.state_dict of Decoder(
  (decoder): Sequential(
    (0): Linear(in_features=5, out_features=10, bias=True)
    (1): ReLU()
    (2): Linear(in_features=10, out_features=20, bias=True)
    (3): ReLU()
    (4): Linear(in_features=20, out_features=40, bias=True)
  )
)><bound method Module.state_dict of Decoder(
  (decoder): Sequential(
    (0): Linear(in_features=5, out_features=10, bias=True)
    (1): ReLU()
    (2): Linear(in_features=10, out_features=20, bias=True)
    (3): ReLU()
    (4): Linear(in_features=20, out_features=40, bias=True)
  )
)><bound method Module.state_dict of Decoder(
  (decoder): Sequential(
    (0): Linear(in_features=5, out_features=10, bias=True)
    (1): ReLU()
    (2): Linear(in_features=10, out_features=20, bias=True)
    (3): ReLU()
    (4): Linear(in_features=20, out_features=40, bias=True)
  )
)><bound method Module.state_dict of Decoder(
  (decoder): Sequential(
    (0): Linear(in_features=5, out_features=10, bias=True)
    (1): ReLU()
    (2): Linear(in_features=10, out_features=20, bias=True)
    (3): ReLU()
    (4): Linear(in_features=20, out_features=40, bias=True)
  )
)><bound method Module.state_dict of Decoder(
  (decoder): Sequential(
    (0): Linear(in_features=5, out_features=10, bias=True)
    (1): ReLU()
    (2): Linear(in_features=10, out_features=20, bias=True)
    (3): ReLU()
    (4): Linear(in_features=20, out_features=40, bias=True)
  )
)><bound method Module.state_dict of Decoder(
  (decoder): Sequential(
    (0): Linear(in_features=5, out_features=10, bias=True)
    (1): ReLU()
    (2): Linear(in_features=10, out_features=20, bias=True)
    (3): ReLU()
    (4): Linear(in_features=20, out_features=40, bias=True)
  )
)><bound method Module.state_dict of Decoder(
  (decoder): Sequential(
    (0): Linear(in_features=5, out_features=10, bias=True)
    (1): ReLU()
    (2): Linear(in_features=10, out_features=20, bias=True)
    (3): ReLU()
    (4): Linear(in_features=20, out_features=40, bias=True)
  )
)><bound method Module.state_dict of Decoder(
  (decoder): Sequential(
    (0): Linear(in_features=5, out_features=10, bias=True)
    (1): ReLU()
    (2): Linear(in_features=10, out_features=20, bias=True)
    (3): ReLU()
    (4): Linear(in_features=20, out_features=40, bias=True)
  )
)><bound method Module.state_dict of Decoder(
  (decoder): Sequential(
    (0): Linear(in_features=5, out_features=10, bias=True)
    (1): ReLU()
    (2): Linear(in_features=10, out_features=20, bias=True)
    (3): ReLU()
    (4): Linear(in_features=20, out_features=40, bias=True)
  )
)><bound method Module.state_dict of Decoder(
  (decoder): Sequential(
    (0): Linear(in_features=5, out_features=10, bias=True)
    (1): ReLU()
    (2): Linear(in_features=10, out_features=20, bias=True)
    (3): ReLU()
    (4): Linear(in_features=20, out_features=40, bias=True)
  )
)><bound method Module.state_dict of Decoder(
  (decoder): Sequential(
    (0): Linear(in_features=5, out_features=10, bias=True)
    (1): ReLU()
    (2): Linear(in_features=10, out_features=20, bias=True)
    (3): ReLU()
    (4): Linear(in_features=20, out_features=40, bias=True)
  )
)><bound method Module.state_dict of Decoder(
  (decoder): Sequential(
    (0): Linear(in_features=5, out_features=10, bias=True)
    (1): ReLU()
    (2): Linear(in_features=10, out_features=20, bias=True)
    (3): ReLU()
    (4): Linear(in_features=20, out_features=40, bias=True)
  )
)><bound method Module.state_dict of Decoder(
  (decoder): Sequential(
    (0): Linear(in_features=5, out_features=10, bias=True)
    (1): ReLU()
    (2): Linear(in_features=10, out_features=20, bias=True)
    (3): ReLU()
    (4): Linear(in_features=20, out_features=40, bias=True)
  )
)><bound method Module.state_dict of Decoder(
  (decoder): Sequential(
    (0): Linear(in_features=5, out_features=10, bias=True)
    (1): ReLU()
    (2): Linear(in_features=10, out_features=20, bias=True)
    (3): ReLU()
    (4): Linear(in_features=20, out_features=40, bias=True)
  )
)><bound method Module.state_dict of Decoder(
  (decoder): Sequential(
    (0): Linear(in_features=5, out_features=10, bias=True)
    (1): ReLU()
    (2): Linear(in_features=10, out_features=20, bias=True)
    (3): ReLU()
    (4): Linear(in_features=20, out_features=40, bias=True)
  )
)><bound method Module.state_dict of Decoder(
  (decoder): Sequential(
    (0): Linear(in_features=5, out_features=10, bias=True)
    (1): ReLU()
    (2): Linear(in_features=10, out_features=20, bias=True)
    (3): ReLU()
    (4): Linear(in_features=20, out_features=40, bias=True)
  )
)><bound method Module.state_dict of Decoder(
  (decoder): Sequential(
    (0): Linear(in_features=5, out_features=10, bias=True)
    (1): ReLU()
    (2): Linear(in_features=10, out_features=20, bias=True)
    (3): ReLU()
    (4): Linear(in_features=20, out_features=40, bias=True)
  )
)><bound method Module.state_dict of Decoder(
  (decoder): Sequential(
    (0): Linear(in_features=5, out_features=10, bias=True)
    (1): ReLU()
    (2): Linear(in_features=10, out_features=20, bias=True)
    (3): ReLU()
    (4): Linear(in_features=20, out_features=40, bias=True)
  )
)><bound method Module.state_dict of Decoder(
  (decoder): Sequential(
    (0): Linear(in_features=5, out_features=10, bias=True)
    (1): ReLU()
    (2): Linear(in_features=10, out_features=20, bias=True)
    (3): ReLU()
    (4): Linear(in_features=20, out_features=40, bias=True)
  )
)><bound method Module.state_dict of Decoder(
  (decoder): Sequential(
    (0): Linear(in_features=5, out_features=10, bias=True)
    (1): ReLU()
    (2): Linear(in_features=10, out_features=20, bias=True)
    (3): ReLU()
    (4): Linear(in_features=20, out_features=40, bias=True)
  )
)><bound method Module.state_dict of Decoder(
  (decoder): Sequential(
    (0): Linear(in_features=5, out_features=10, bias=True)
    (1): ReLU()
    (2): Linear(in_features=10, out_features=20, bias=True)
    (3): ReLU()
    (4): Linear(in_features=20, out_features=40, bias=True)
  )
)><bound method Module.state_dict of Decoder(
  (decoder): Sequential(
    (0): Linear(in_features=5, out_features=10, bias=True)
    (1): ReLU()
    (2): Linear(in_features=10, out_features=20, bias=True)
    (3): ReLU()
    (4): Linear(in_features=20, out_features=40, bias=True)
  )
)><bound method Module.state_dict of Decoder(
  (decoder): Sequential(
    (0): Linear(in_features=5, out_features=10, bias=True)
    (1): ReLU()
    (2): Linear(in_features=10, out_features=20, bias=True)
    (3): ReLU()
    (4): Linear(in_features=20, out_features=40, bias=True)
  )
)><bound method Module.state_dict of Decoder(
  (decoder): Sequential(
    (0): Linear(in_features=5, out_features=10, bias=True)
    (1): ReLU()
    (2): Linear(in_features=10, out_features=20, bias=True)
    (3): ReLU()
    (4): Linear(in_features=20, out_features=40, bias=True)
  )
)><bound method Module.state_dict of Decoder(
  (decoder): Sequential(
    (0): Linear(in_features=5, out_features=10, bias=True)
    (1): ReLU()
    (2): Linear(in_features=10, out_features=20, bias=True)
    (3): ReLU()
    (4): Linear(in_features=20, out_features=40, bias=True)
  )
)><bound method Module.state_dict of Decoder(
  (decoder): Sequential(
    (0): Linear(in_features=5, out_features=10, bias=True)
    (1): ReLU()
    (2): Linear(in_features=10, out_features=20, bias=True)
    (3): ReLU()
    (4): Linear(in_features=20, out_features=40, bias=True)
  )
)><bound method Module.state_dict of Decoder(
  (decoder): Sequential(
    (0): Linear(in_features=5, out_features=10, bias=True)
    (1): ReLU()
    (2): Linear(in_features=10, out_features=20, bias=True)
    (3): ReLU()
    (4): Linear(in_features=20, out_features=40, bias=True)
  )
)><bound method Module.state_dict of Decoder(
  (decoder): Sequential(
    (0): Linear(in_features=5, out_features=10, bias=True)
    (1): ReLU()
    (2): Linear(in_features=10, out_features=20, bias=True)
    (3): ReLU()
    (4): Linear(in_features=20, out_features=40, bias=True)
  )
)><bound method Module.state_dict of Decoder(
  (decoder): Sequential(
    (0): Linear(in_features=5, out_features=10, bias=True)
    (1): ReLU()
    (2): Linear(in_features=10, out_features=20, bias=True)
    (3): ReLU()
    (4): Linear(in_features=20, out_features=40, bias=True)
  )
)><bound method Module.state_dict of Decoder(
  (decoder): Sequential(
    (0): Linear(in_features=5, out_features=10, bias=True)
    (1): ReLU()
    (2): Linear(in_features=10, out_features=20, bias=True)
    (3): ReLU()
    (4): Linear(in_features=20, out_features=40, bias=True)
  )
)><bound method Module.state_dict of Decoder(
  (decoder): Sequential(
    (0): Linear(in_features=5, out_features=10, bias=True)
    (1): ReLU()
    (2): Linear(in_features=10, out_features=20, bias=True)
    (3): ReLU()
    (4): Linear(in_features=20, out_features=40, bias=True)
  )
)><bound method Module.state_dict of Decoder(
  (decoder): Sequential(
    (0): Linear(in_features=5, out_features=10, bias=True)
    (1): ReLU()
    (2): Linear(in_features=10, out_features=20, bias=True)
    (3): ReLU()
    (4): Linear(in_features=20, out_features=40, bias=True)
  )
)><bound method Module.state_dict of Decoder(
  (decoder): Sequential(
    (0): Linear(in_features=5, out_features=10, bias=True)
    (1): ReLU()
    (2): Linear(in_features=10, out_features=20, bias=True)
    (3): ReLU()
    (4): Linear(in_features=20, out_features=40, bias=True)
  )
)><bound method Module.state_dict of Decoder(
  (decoder): Sequential(
    (0): Linear(in_features=5, out_features=10, bias=True)
    (1): ReLU()
    (2): Linear(in_features=10, out_features=20, bias=True)
    (3): ReLU()
    (4): Linear(in_features=20, out_features=40, bias=True)
  )
)><bound method Module.state_dict of Decoder(
  (decoder): Sequential(
    (0): Linear(in_features=5, out_features=10, bias=True)
    (1): ReLU()
    (2): Linear(in_features=10, out_features=20, bias=True)
    (3): ReLU()
    (4): Linear(in_features=20, out_features=40, bias=True)
  )
)><bound method Module.state_dict of Decoder(
  (decoder): Sequential(
    (0): Linear(in_features=5, out_features=10, bias=True)
    (1): ReLU()
    (2): Linear(in_features=10, out_features=20, bias=True)
    (3): ReLU()
    (4): Linear(in_features=20, out_features=40, bias=True)
  )
)><bound method Module.state_dict of Decoder(
  (decoder): Sequential(
    (0): Linear(in_features=5, out_features=10, bias=True)
    (1): ReLU()
    (2): Linear(in_features=10, out_features=20, bias=True)
    (3): ReLU()
    (4): Linear(in_features=20, out_features=40, bias=True)
  )
)><bound method Module.state_dict of Decoder(
  (dec