<bound method Module.state_dict of Encoder(
  (encoder): Sequential(
    (0): Linear(in_features=40, out_features=20, bias=True)
    (1): ReLU()
    (2): Linear(in_features=20, out_features=10, bias=True)
    (3): ReLU()
    (4): Linear(in_features=10, out_features=5, bias=True)
    (5): ReLU()
  )
)>AE1<bound method Module.state_dict of Encoder(
  (encoder): Sequential(
    (0): Linear(in_features=40, out_features=20, bias=True)
    (1): ReLU()
    (2): Linear(in_features=20, out_features=10, bias=True)
    (3): ReLU()
    (4): Linear(in_features=10, out_features=5, bias=True)
    (5): ReLU()
  )
)>AE2<bound method Module.state_dict of Encoder(
  (encoder): Sequential(
    (0): Linear(in_features=40, out_features=20, bias=True)
    (1): ReLU()
    (2): Linear(in_features=20, out_features=10, bias=True)
    (3): ReLU()
    (4): Linear(in_features=10, out_features=5, bias=True)
    (5): ReLU()
  )
)>AE1<bound method Module.state_dict of Encoder(
  (encoder): Sequential(
    (0): Linear(in_features=40, out_features=20, bias=True)
    (1): ReLU()
    (2): Linear(in_features=20, out_features=10, bias=True)
    (3): ReLU()
    (4): Linear(in_features=10, out_features=5, bias=True)
    (5): ReLU()
  )
)>AE2<bound method Module.state_dict of Encoder(
  (encoder): Sequential(
    (0): Linear(in_features=40, out_features=20, bias=True)
    (1): ReLU()
    (2): Linear(in_features=20, out_features=10, bias=True)
    (3): ReLU()
    (4): Linear(in_features=10, out_features=5, bias=True)
    (5): ReLU()
  )
)>AE1<bound method Module.state_dict of Encoder(
  (encoder): Sequential(
    (0): Linear(in_features=40, out_features=20, bias=True)
    (1): ReLU()
    (2): Linear(in_features=20, out_features=10, bias=True)
    (3): ReLU()
    (4): Linear(in_features=10, out_features=5, bias=True)
    (5): ReLU()
  )
)>AE2<bound method Module.state_dict of Encoder(
  (encoder): Sequential(
    (0): Linear(in_features=40, out_features=20, bias=True)
    (1): ReLU()
    (2): Linear(in_features=20, out_features=10, bias=True)
    (3): ReLU()
    (4): Linear(in_features=10, out_features=5, bias=True)
    (5): ReLU()
  )
)>AE1<bound method Module.state_dict of Encoder(
  (encoder): Sequential(
    (0): Linear(in_features=40, out_features=20, bias=True)
    (1): ReLU()
    (2): Linear(in_features=20, out_features=10, bias=True)
    (3): ReLU()
    (4): Linear(in_features=10, out_features=5, bias=True)
    (5): ReLU()
  )
)>AE2<bound method Module.state_dict of Encoder(
  (encoder): Sequential(
    (0): Linear(in_features=40, out_features=20, bias=True)
    (1): ReLU()
    (2): Linear(in_features=20, out_features=10, bias=True)
    (3): ReLU()
    (4): Linear(in_features=10, out_features=5, bias=True)
    (5): ReLU()
  )
)>AE1<bound method Module.state_dict of Encoder(
  (encoder): Sequential(
    (0): Linear(in_features=40, out_features=20, bias=True)
    (1): ReLU()
    (2): Linear(in_features=20, out_features=10, bias=True)
    (3): ReLU()
    (4): Linear(in_features=10, out_features=5, bias=True)
    (5): ReLU()
  )
)>AE2<bound method Module.state_dict of Encoder(
  (encoder): Sequential(
    (0): Linear(in_features=40, out_features=20, bias=True)
    (1): ReLU()
    (2): Linear(in_features=20, out_features=10, bias=True)
    (3): ReLU()
    (4): Linear(in_features=10, out_features=5, bias=True)
    (5): ReLU()
  )
)>AE1<bound method Module.state_dict of Encoder(
  (encoder): Sequential(
    (0): Linear(in_features=40, out_features=20, bias=True)
    (1): ReLU()
    (2): Linear(in_features=20, out_features=10, bias=True)
    (3): ReLU()
    (4): Linear(in_features=10, out_features=5, bias=True)
    (5): ReLU()
  )
)>AE2<bound method Module.state_dict of Encoder(
  (encoder): Sequential(
    (0): Linear(in_features=40, out_features=20, bias=True)
    (1): ReLU()
    (2): Linear(in_features=20, out_features=10, bias=True)
    (3): ReLU()
    (4): Linear(in_features=10, out_features=5, bias=True)
    (5): ReLU()
  )
)>AE1<bound method Module.state_dict of Encoder(
  (encoder): Sequential(
    (0): Linear(in_features=40, out_features=20, bias=True)
    (1): ReLU()
    (2): Linear(in_features=20, out_features=10, bias=True)
    (3): ReLU()
    (4): Linear(in_features=10, out_features=5, bias=True)
    (5): ReLU()
  )
)>AE2<bound method Module.state_dict of Encoder(
  (encoder): Sequential(
    (0): Linear(in_features=40, out_features=20, bias=True)
    (1): ReLU()
    (2): Linear(in_features=20, out_features=10, bias=True)
    (3): ReLU()
    (4): Linear(in_features=10, out_features=5, bias=True)
    (5): ReLU()
  )
)>AE1<bound method Module.state_dict of Encoder(
  (encoder): Sequential(
    (0): Linear(in_features=40, out_features=20, bias=True)
    (1): ReLU()
    (2): Linear(in_features=20, out_features=10, bias=True)
    (3): ReLU()
    (4): Linear(in_features=10, out_features=5, bias=True)
    (5): ReLU()
  )
)>AE2<bound method Module.state_dict of Encoder(
  (encoder): Sequential(
    (0): Linear(in_features=40, out_features=20, bias=True)
    (1): ReLU()
    (2): Linear(in_features=20, out_features=10, bias=True)
    (3): ReLU()
    (4): Linear(in_features=10, out_features=5, bias=True)
    (5): ReLU()
  )
)>AE1<bound method Module.state_dict of Encoder(
  (encoder): Sequential(
    (0): Linear(in_features=40, out_features=20, bias=True)
    (1): ReLU()
    (2): Linear(in_features=20, out_features=10, bias=True)
    (3): ReLU()
    (4): Linear(in_features=10, out_features=5, bias=True)
    (5): ReLU()
  )
)>AE2<bound method Module.state_dict of Encoder(
  (encoder): Sequential(
    (0): Linear(in_features=40, out_features=20, bias=True)
    (1): ReLU()
    (2): Linear(in_features=20, out_features=10, bias=True)
    (3): ReLU()
    (4): Linear(in_features=10, out_features=5, bias=True)
    (5): ReLU()
  )
)>AE1<bound method Module.state_dict of Encoder(
  (encoder): Sequential(
    (0): Linear(in_features=40, out_features=20, bias=True)
    (1): ReLU()
    (2): Linear(in_features=20, out_features=10, bias=True)
    (3): ReLU()
    (4): Linear(in_features=10, out_features=5, bias=True)
    (5): ReLU()
  )
)>AE2<bound method Module.state_dict of Encoder(
  (encoder): Sequential(
    (0): Linear(in_features=40, out_features=20, bias=True)
    (1): ReLU()
    (2): Linear(in_features=20, out_features=10, bias=True)
    (3): ReLU()
    (4): Linear(in_features=10, out_features=5, bias=True)
    (5): ReLU()
  )
)>AE1<bound method Module.state_dict of Encoder(
  (encoder): Sequential(
    (0): Linear(in_features=40, out_features=20, bias=True)
    (1): ReLU()
    (2): Linear(in_features=20, out_features=10, bias=True)
    (3): ReLU()
    (4): Linear(in_features=10, out_features=5, bias=True)
    (5): ReLU()
  )
)>AE2<bound method Module.state_dict of Encoder(
  (encoder): Sequential(
    (0): Linear(in_features=40, out_features=20, bias=True)
    (1): ReLU()
    (2): Linear(in_features=20, out_features=10, bias=True)
    (3): ReLU()
    (4): Linear(in_features=10, out_features=5, bias=True)
    (5): ReLU()
  )
)>AE1<bound method Module.state_dict of Encoder(
  (encoder): Sequential(
    (0): Linear(in_features=40, out_features=20, bias=True)
    (1): ReLU()
    (2): Linear(in_features=20, out_features=10, bias=True)
    (3): ReLU()
    (4): Linear(in_features=10, out_features=5, bias=True)
    (5): ReLU()
  )
)>AE2<bound method Module.state_dict of Encoder(
  (encoder): Sequential(
    (0): Linear(in_features=40, out_features=20, bias=True)
    (1): ReLU()
    (2): Linear(in_features=20, out_features=10, bias=True)
    (3): ReLU()
    (4): Linear(in_features=10, out_features=5, bias=True)
    (5): ReLU()
  )
)>AE1<bound method Module.state_dict of Encoder(
  (encoder): Sequential(
    (0): Linear(in_features=40, out_features=20, bias=True)
    (1): ReLU()
    (2): Linear(in_features=20, out_features=10, bias=True)
    (3): ReLU()
    (4): Linear(in_features=10, out_features=5, bias=True)
    (5): ReLU()
  )
)>AE2<bound method Module.state_dict of Encoder(
  (encoder): Sequential(
    (0): Linear(in_features=40, out_features=20, bias=True)
    (1): ReLU()
    (2): Linear(in_features=20, out_features=10, bias=True)
    (3): ReLU()
    (4): Linear(in_features=10, out_features=5, bias=True)
    (5): ReLU()
  )
)>AE1<bound method Module.state_dict of Encoder(
  (encoder): Sequential(
    (0): Linear(in_features=40, out_features=20, bias=True)
    (1): ReLU()
    (2): Linear(in_features=20, out_features=10, bias=True)
    (3): ReLU()
    (4): Linear(in_features=10, out_features=5, bias=True)
    (5): ReLU()
  )
)>AE2<bound method Module.state_dict of Encoder(
  (encoder): Sequential(
    (0): Linear(in_features=40, out_features=20, bias=True)
    (1): ReLU()
    (2): Linear(in_features=20, out_features=10, bias=True)
    (3): ReLU()
    (4): Linear(in_features=10, out_features=5, bias=True)
    (5): ReLU()
  )
)>AE1<bound method Module.state_dict of Encoder(
  (encoder): Sequential(
    (0): Linear(in_features=40, out_features=20, bias=True)
    (1): ReLU()
    (2): Linear(in_features=20, out_features=10, bias=True)
    (3): ReLU()
    (4): Linear(in_features=10, out_features=5, bias=True)
    (5): ReLU()
  )
)>AE2<bound method Module.state_dict of Encoder(
  (encoder): Sequential(
    (0): Linear(in_features=40, out_features=20, bias=True)
    (1): ReLU()
    (2): Linear(in_features=20, out_features=10, bias=True)
    (3): ReLU()
    (4): Linear(in_features=10, out_features=5, bias=True)
    (5): ReLU()
  )
)>AE1<bound method Module.state_dict of Encoder(
  (encoder): Sequential(
    (0): Linear(in_features=40, out_features=20, bias=True)
    (1): ReLU()
    (2): Linear(in_features=20, out_features=10, bias=True)
    (3): ReLU()
    (4): Linear(in_features=10, out_features=5, bias=True)
    (5): ReLU()
  )
)>AE2<bound method Module.state_dict of Encoder(
  (encoder): Sequential(
    (0): Linear(in_features=40, out_features=20, bias=True)
    (1): ReLU()
    (2): Linear(in_features=20, out_features=10, bias=True)
    (3): ReLU()
    (4): Linear(in_features=10, out_features=5, bias=True)
    (5): ReLU()
  )
)>AE1<bound method Module.state_dict of Encoder(
  (encoder): Sequential(
    (0): Linear(in_features=40, out_features=20, bias=True)
    (1): ReLU()
    (2): Linear(in_features=20, out_features=10, bias=True)
    (3): ReLU()
    (4): Linear(in_features=10, out_features=5, bias=True)
    (5): ReLU()
  )
)>AE2<bound method Module.state_dict of Encoder(
  (encoder): Sequential(
    (0): Linear(in_features=40, out_features=20, bias=True)
    (1): ReLU()
    (2): Linear(in_features=20, out_features=10, bias=True)
    (3): ReLU()
    (4): Linear(in_features=10, out_features=5, bias=True)
    (5): ReLU()
  )
)>AE1<bound method Module.state_dict of Encoder(
  (encoder): Sequential(
    (0): Linear(in_features=40, out_features=20, bias=True)
    (1): ReLU()
    (2): Linear(in_features=20, out_features=10, bias=True)
    (3): ReLU()
    (4): Linear(in_features=10, out_features=5, bias=True)
    (5): ReLU()
  )
)>AE2<bound method Module.state_dict of Encoder(
  (encoder): Sequential(
    (0): Linear(in_features=40, out_features=20, bias=True)
    (1): ReLU()
    (2): Linear(in_features=20, out_features=10, bias=True)
    (3): ReLU()
    (4): Linear(in_features=10, out_features=5, bias=True)
    (5): ReLU()
  )
)>AE1<bound method Module.state_dict of Encoder(
  (encoder): Sequential(
    (0): Linear(in_features=40, out_features=20, bias=True)
    (1): ReLU()
    (2): Linear(in_features=20, out_features=10, bias=True)
    (3): ReLU()
    (4): Linear(in_features=10, out_features=5, bias=True)
    (5): ReLU()
  )
)>AE2<bound method Module.state_dict of Encoder(
  (encoder): Sequential(
    (0): Linear(in_features=40, out_features=20, bias=True)
    (1): ReLU()
    (2): Linear(in_features=20, out_features=10, bias=True)
    (3): ReLU()
    (4): Linear(in_features=10, out_features=5, bias=True)
    (5): ReLU()
  )
)>AE1<bound method Module.state_dict of Encoder(
  (encoder): Sequential(
    (0): Linear(in_features=40, out_features=20, bias=True)
    (1): ReLU()
    (2): Linear(in_features=20, out_features=10, bias=True)
    (3): ReLU()
    (4): Linear(in_features=10, out_features=5, bias=True)
    (5): ReLU()
  )
)>AE2<bound method Module.state_dict of Encoder(
  (encoder): Sequential(
    (0): Linear(in_features=40, out_features=20, bias=True)
    (1): ReLU()
    (2): Linear(in_features=20, out_features=10, bias=True)
    (3): ReLU()
    (4): Linear(in_features=10, out_features=5, bias=True)
    (5): ReLU()
  )
)>AE1<bound method Module.state_dict of Encoder(
  (encoder): Sequential(
    (0): Linear(in_features=40, out_features=20, bias=True)
    (1): ReLU()
    (2): Linear(in_features=20, out_features=10, bias=True)
    (3): ReLU()
    (4): Linear(in_features=10, out_features=5, bias=True)
    (5): ReLU()
  )
)>AE2<bound method Module.state_dict of Encoder(
  (encoder): Sequential(
    (0): Linear(in_features=40, out_features=20, bias=True)
    (1): ReLU()
    (2): Linear(in_features=20, out_features=10, bias=True)
    (3): ReLU()
    (4): Linear(in_features=10, out_features=5, bias=True)
    (5): ReLU()
  )
)>AE1<bound method Module.state_dict of Encoder(
  (encoder): Sequential(
    (0): Linear(in_features=40, out_features=20, bias=True)
    (1): ReLU()
    (2): Linear(in_features=20, out_features=10, bias=True)
    (3): ReLU()
    (4): Linear(in_features=10, out_features=5, bias=True)
    (5): ReLU()
  )
)>AE2<bound method Module.state_dict of Encoder(
  (encoder): Sequential(
    (0): Linear(in_features=40, out_features=20, bias=True)
    (1): ReLU()
    (2): Linear(in_features=20, out_features=10, bias=True)
    (3): ReLU()
    (4): Linear(in_features=10, out_features=5, bias=True)
    (5): ReLU()
  )
)>AE1<bound method Module.state_dict of Encoder(
  (encoder): Sequential(
    (0): Linear(in_features=40, out_features=20, bias=True)
    (1): ReLU()
    (2): Linear(in_features=20, out_features=10, bias=True)
    (3): ReLU()
    (4): Linear(in_features=10, out_features=5, bias=True)
    (5): ReLU()
  )
)>AE2<bound method Module.state_dict of Encoder(
  (encoder): Sequential(
    (0): Linear(in_features=40, out_features=20, bias=True)
    (1): ReLU()
    (2): Linear(in_features=20, out_features=10, bias=True)
    (3): ReLU()
    (4): Linear(in_features=10, out_features=5, bias=True)
    (5): ReLU()
  )
)>AE1<bound method Module.state_dict of Encoder(
  (encoder): Sequential(
    (0): Linear(in_features=40, out_features=20, bias=True)
    (1): ReLU()
    (2): Linear(in_features=20, out_features=10, bias=True)
    (3): ReLU()
    (4): Linear(in_features=10, out_features=5, bias=True)
    (5): ReLU()
  )
)>AE2<bound method Module.state_dict of Encoder(
  (encoder): Sequential(
    (0): Linear(in_features=40, out_features=20, bias=True)
    (1): ReLU()
    (2): Linear(in_features=20, out_features=10, bias=True)
    (3): ReLU()
    (4): Linear(in_features=10, out_features=5, bias=True)
    (5): ReLU()
  )
)>AE1<bound method Module.state_dict of Encoder(
  (encoder): Sequential(
    (0): Linear(in_features=40, out_features=20, bias=True)
    (1): ReLU()
    (2): Linear(in_features=20, out_features=10, bias=True)
    (3): ReLU()
    (4): Linear(in_features=10, out_features=5, bias=True)
    (5): ReLU()
  )
)>AE2<bound method Module.state_dict of Encoder(
  (encoder): Sequential(
    (0): Linear(in_features=40, out_features=20, bias=True)
    (1): ReLU()
    (2): Linear(in_features=20, out_features=10, bias=True)
    (3): ReLU()
    (4): Linear(in_features=10, out_features=5, bias=True)
    (5): ReLU()
  )
)>AE1<bound method Module.state_dict of Encoder(
  (encoder): Sequential(
    (0): Linear(in_features=40, out_features=20, bias=True)
    (1): ReLU()
    (2): Linear(in_features=20, out_features=10, bias=True)
    (3): ReLU()
    (4): Linear(in_features=10, out_features=5, bias=True)
    (5): ReLU()
  )
)>AE2<bound method Module.state_dict of Encoder(
  (encoder): Sequential(
    (0): Linear(in_features=40, out_features=20, bias=True)
    (1): ReLU()
    (2): Linear(in_features=20, out_features=10, bias=True)
    (3): ReLU()
    (4): Linear(in_features=10, out_features=5, bias=True)
    (5): ReLU()
  )
)>AE1<bound method Module.state_dict of Encoder(
  (encoder): Sequential(
    (0): Linear(in_features=40, out_features=20, bias=True)
    (1): ReLU()
    (2): Linear(in_features=20, out_features=10, bias=True)
    (3): ReLU()
    (4): Linear(in_features=10, out_features=5, bias=True)
    (5): ReLU()
  )
)>AE2<bound method Module.state_dict of Encoder(
  (encoder): Sequential(
    (0): Linear(in_features=40, out_features=20, bias=True)
    (1): ReLU()
    (2): Linear(in_features=20, out_features=10, bias=True)
    (3): ReLU()
    (4): Linear(in_features=10, out_features=5, bias=True)
    (5): ReLU()
  )
)>AE1<bound method Module.state_dict of Encoder(
  (encoder): Sequential(
    (0): Linear(in_features=40, out_features=20, bias=True)
    (1): ReLU()
    (2): Linear(in_features=20, out_features=10, bias=True)
    (3): ReLU()
    (4): Linear(in_features=10, out_features=5, bias=True)
    (5): ReLU()
  )
)>AE2<bound method Module.state_dict of Encoder(
  (encoder): Sequential(
    (0): Linear(in_features=40, out_features=20, bias=True)
    (1): ReLU()
    (2): Linear(in_features=20, out_features=10, bias=True)
    (3): ReLU()
    (4): Linear(in_features=10, out_features=5, bias=True)
    (5): ReLU()
  )
)>AE1<bound method Module.state_dict of Encoder(
  (encoder): Sequential(
    (0): Linear(in_features=40, out_features=20, bias=True)
    (1): ReLU()
    (2): Linear(in_features=20, out_features=10, bias=True)
    (3): ReLU()
    (4): Linear(in_features=10, out_features=5, bias=True)
    (5): ReLU()
  )
)>AE2<bound method Module.state_dict of Encoder(
  (encoder): Sequential(
    (0): Linear(in_features=40, out_features=20, bias=True)
    (1): ReLU()
    (2): Linear(in_features=20, out_features=10, bias=True)
    (3): ReLU()
    (4): Linear(in_features=10, out_features=5, bias=True)
    (5): ReLU()
  )
)>AE1<bound method Module.state_dict of Encoder(
  (encoder): Sequential(
    (0): Linear(in_features=40, out_features=20, bias=True)
    (1): ReLU()
    (2): Linear(in_features=20, out_features=10, bias=True)
    (3): ReLU()
    (4): Linear(in_features=10, out_features=5, bias=True)
    (5): ReLU()
  )
)>AE2<bound method Module.state_dict of Encoder(
  (encoder): Sequential(
    (0): Linear(in_features=40, out_features=20, bias=True)
    (1): ReLU()
    (2): Linear(in_features=20, out_features=10, bias=True)
    (3): ReLU()
    (4): Linear(in_features=10, out_features=5, bias=True)
    (5): ReLU()
  )
)>AE1<bound method Module.state_dict of Encoder(
  (encoder): Sequential(
    (0): Linear(in_features=40, out_features=20, bias=True)
    (1): ReLU()
    (2): Linear(in_features=20, out_features=10, bias=True)
    (3): ReLU()
    (4): Linear(in_features=10, out_features=5, bias=True)
    (5): ReLU()
  )
)>AE2<bound method Module.state_dict of Encoder(
  (encoder): Sequential(
    (0): Linear(in_features=40, out_features=20, bias=True)
    (1): ReLU()
    (2): Linear(in_features=20, out_features=10, bias=True)
    (3): ReLU()
    (4): Linear(in_features=10, out_features=5, bias=True)
    (5): ReLU()
  )
)>AE1<bound method Module.state_dict of Encoder(
  (encoder): Sequential(
    (0): Linear(in_features=40, out_features=20, bias=True)
    (1): ReLU()
    (2): Linear(in_features=20, out_features=10, bias=True)
    (3): ReLU()
    (4): Linear(in_features=10, out_features=5, bias=True)
    (5): ReLU()
  )
)>AE2<bound method Module.state_dict of Encoder(
  (encoder): Sequential(
    (0): Linear(in_features=40, out_features=20, bias=True)
    (1): ReLU()
    (2): Linear(in_features=20, out_features=10, bias=True)
    (3): ReLU()
    (4): Linear(in_features=10, out_features=5, bias=True)
    (5): ReLU()
  )
)>AE1<bound method Module.state_dict of Encoder(
  (encoder): Sequential(
    (0): Linear(in_features=40, out_features=20, bias=True)
    (1): ReLU()
    (2): Linear(in_features=20, out_features=10, bias=True)
    (3): ReLU()
    (4): Linear(in_features=10, out_features=5, bias=True)
    (5): ReLU()
  )
)>AE2<bound method Module.state_dict of Encoder(
  (encoder): Sequential(
    (0): Linear(in_features=40, out_features=20, bias=True)
    (1): ReLU()
    (2): Linear(in_features=20, out_features=10, bias=True)
    (3): ReLU()
    (4): Linear(in_features=10, out_features=5, bias=True)
    (5): ReLU()
  )
)>AE1<bound method Module.state_dict of Encoder(
  (encoder): Sequential(
    (0): Linear(in_features=40, out_features=20, bias=True)
    (1): ReLU()
    (2): Linear(in_features=20, out_features=10, bias=True)
    (3): ReLU()
    (4): Linear(in_features=10, out_features=5, bias=True)
    (5): ReLU()
  )
)>AE2<bound method Module.state_dict of Encoder(
  (encoder): Sequential(
    (0): Linear(in_features=40, out_features=20, bias=True)
    (1): ReLU()
    (2): Linear(in_features=20, out_features=10, bias=True)
    (3): ReLU()
    (4): Linear(in_features=10, out_features=5, bias=True)
    (5): ReLU()
  )
)>AE1<bound method Module.state_dict of Encoder(
  (encoder): Sequential(
    (0): Linear(in_features=40, out_features=20, bias=True)
    (1): ReLU()
    (2): Linear(in_features=20, out_features=10, bias=True)
    (3): ReLU()
    (4): Linear(in_features=10, out_features=5, bias=True)
    (5): ReLU()
  )
)>AE2<bound method Module.state_dict of Encoder(
  (encoder): Sequential(
    (0): Linear(in_features=40, out_features=20, bias=True)
    (1): ReLU()
    (2): Linear(in_features=20, out_features=10, bias=True)
    (3): ReLU()
    (4): Linear(in_features=10, out_features=5, bias=True)
    (5): ReLU()
  )
)>AE1<bound method Module.state_dict of Encoder(
  (encoder): Sequential(
    (0): Linear(in_features=40, out_features=20, bias=True)
    (1): ReLU()
    (2): Linear(in_features=20, out_features=10, bias=True)
    (3): ReLU()
    (4): Linear(in_features=10, out_features=5, bias=True)
    (5): ReLU()
  )
)>AE2<bound method Module.state_dict of Encoder(
  (encoder): Sequential(
    (0): Linear(in_features=40, out_features=20, bias=True)
    (1): ReLU()
    (2): Linear(in_features=20, out_features=10, bias=True)
    (3): ReLU()
    (4): Linear(in_features=10, out_features=5, bias=True)
    (5): ReLU()
  )
)>AE1<bound method Module.state_dict of Encoder(
  (encoder): Sequential(
    (0): Linear(in_features=40, out_features=20, bias=True)
    (1): ReLU()
    (2): Linear(in_features=20, out_features=10, bias=True)
    (3): ReLU()
    (4): Linear(in_features=10, out_features=5, bias=True)
    (5): ReLU()
  )
)>AE2<bound method Module.state_dict of Encoder(
  (encoder): Sequential(
    (0): Linear(in_features=40, out_features=20, bias=True)
    (1): ReLU()
    (2): Linear(in_features=20, out_features=10, bias=True)
    (3): ReLU()
    (4): Linear(in_features=10, out_features=5, bias=True)
    (5): ReLU()
  )
)>AE1<bound method Module.state_dict of Encoder(
  (encoder): Sequential(
    (0): Linear(in_features=40, out_features=20, bias=True)
    (1): ReLU()
    (2): Linear(in_features=20, out_features=10, bias=True)
    (3): ReLU()
    (4): Linear(in_features=10, out_features=5, bias=True)
    (5): ReLU()
  )
)>AE2<bound method Module.state_dict of Encoder(
  (encoder): Sequential(
    (0): Linear(in_features=40, out_features=20, bias=True)
    (1): ReLU()
    (2): Linear(in_features=20, out_features=10, bias=True)
    (3): ReLU()
    (4): Linear(in_features=10, out_features=5, bias=True)
    (5): ReLU()
  )
)>AE1<bound method Module.state_dict of Encoder(
  (encoder): Sequential(
    (0): Linear(in_features=40, out_features=20, bias=True)
    (1): ReLU()
    (2): Linear(in_features=20, out_features=10, bias=True)
    (3): ReLU()
    (4): Linear(in_features=10, out_features=5, bias=True)
    (5): ReLU()
  )
)>AE2<bound method Module.state_dict of Encoder(
  (encoder): Sequential(
    (0): Linear(in_features=40, out_features=20, bias=True)
    (1): ReLU()
    (2): Linear(in_features=20, out_features=10, bias=True)
    (3): ReLU()
    (4): Linear(in_features=10, out_features=5, bias=True)
    (5): ReLU()
  )
)>AE1<bound method Module.state_dict of Encoder(
  (encoder): Sequential(
    (0): Linear(in_features=40, out_features=20, bias=True)
    (1): ReLU()
    (2): Linear(in_features=20, out_features=10, bias=True)
    (3): ReLU()
    (4): Linear(in_features=10, out_features=5, bias=True)
    (5): ReLU()
  )
)>AE2<bound method Module.state_dict of Encoder(
  (encoder): Sequential(
    (0): Linear(in_features=40, out_features=20, bias=True)
    (1): ReLU()
    (2): Linear(in_features=20, out_features=10, bias=True)
    (3): ReLU()
    (4): Linear(in_features=10, out_features=5, bias=True)
    (5): ReLU()
  )
)>AE1<bound method Module.state_dict of Encoder(
  (encoder): Sequential(
    (0): Linear(in_features=40, out_features=20, bias=True)
    (1): ReLU()
    (2): Linear(in_features=20, out_features=10, bias=True)
    (3): ReLU()
    (4): Linear(in_features=10, out_features=5, bias=True)
    (5): ReLU()
  )
)>AE2<bound method Module.state_dict of Encoder(
  (encoder): Sequential(
    (0): Linear(in_features=40, out_features=20, bias=True)
    (1): ReLU()
    (2): Linear(in_features=20, out_features=10, bias=True)
    (3): ReLU()
    (4): Linear(in_features=10, out_features=5, bias=True)
    (5): ReLU()
  )
)>AE1<bound method Module.state_dict of Encoder(
  (encoder): Sequential(
    (0): Linear(in_features=40, out_features=20, bias=True)
    (1): ReLU()
    (2): Linear(in_features=20, out_features=10, bias=True)
    (3): ReLU()
    (4): Linear(in_features=10, out_features=5, bias=True)
    (5): ReLU()
  )
)>AE2<bound method Module.state_dict of Encoder(
  (encoder): Sequential(
    (0): Linear(in_features=40, out_features=20, bias=True)
    (1): ReLU()
    (2): Linear(in_features=20, out_features=10, bias=True)
    (3): ReLU()
    (4): Linear(in_features=10, out_features=5, bias=True)
    (5): ReLU()
  )
)>AE1<bound method Module.state_dict of Encoder(
  (encoder): Sequential(
    (0): Linear(in_features=40, out_features=20, bias=True)
    (1): ReLU()
    (2): Linear(in_features=20, out_features=10, bias=True)
    (3): ReLU()
    (4): Linear(in_features=10, out_features=5, bias=True)
    (5): ReLU()
  )
)>AE2<bound method Module.state_dict of Encoder(
  (encoder): Sequential(
    (0): Linear(in_features=40, out_features=20, bias=True)
    (1): ReLU()
    (2): Linear(in_features=20, out_features=10, bias=True)
    (3): ReLU()
    (4): Linear(in_features=10, out_features=5, bias=True)
    (5): ReLU()
  )
)>AE1<bound method Module.state_dict of Encoder(
  (encoder): Sequential(
    (0): Linear(in_features=40, out_features=20, bias=True)
    (1): ReLU()
    (2): Linear(in_features=20, out_features=10, bias=True)
    (3): ReLU()
    (4): Linear(in_features=10, out_features=5, bias=True)
    (5): ReLU()
  )
)>AE2<bound method Module.state_dict of Encoder(
  (encoder): Sequential(
    (0): Linear(in_features=40, out_features=20, bias=True)
    (1): ReLU()
    (2): Linear(in_features=20, out_features=10, bias=True)
    (3): ReLU()
    (4): Linear(in_features=10, out_features=5, bias=True)
    (5): ReLU()
  )
)>AE1<bound method Module.state_dict of Encoder(
  (encoder): Sequential(
    (0): Linear(in_features=40, out_features=20, bias=True)
    (1): ReLU()
    (2): Linear(in_features=20, out_features=10, bias=True)
    (3): ReLU()
    (4): Linear(in_features=10, out_features=5, bias=True)
    (5): ReLU()
  )
)>AE2<bound method Module.state_dict of Encoder(
  (encoder): Sequential(
    (0): Linear(in_features=40, out_features=20, bias=True)
    (1): ReLU()
    (2): Linear(in_features=20, out_features=10, bias=True)
    (3): ReLU()
    (4): Linear(in_features=10, out_features=5, bias=True)
    (5): ReLU()
  )
)>AE1<bound method Module.state_dict of Encoder(
  (encoder): Sequential(
    (0): Linear(in_features=40, out_features=20, bias=True)
    (1): ReLU()
    (2): Linear(in_features=20, out_features=10, bias=True)
    (3): ReLU()
    (4): Linear(in_features=10, out_features=5, bias=True)
    (5): ReLU()
  )
)>AE2<bound method Module.state_dict of Encoder(
  (encoder): Sequential(
    (0): Linear(in_features=40, out_features=20, bias=True)
    (1): ReLU()
    (2): Linear(in_features=20, out_features=10, bias=True)
    (3): ReLU()
    (4): Linear(in_features=10, out_features=5, bias=True)
    (5): ReLU()
  )
)>AE1<bound method Module.state_dict of Encoder(
  (encoder): Sequential(
    (0): Linear(in_features=40, out_features=20, bias=True)
    (1): ReLU()
    (2): Linear(in_features=20, out_features=10, bias=True)
    (3): ReLU()
    (4): Linear(in_features=10, out_features=5, bias=True)
    (5): ReLU()
  )
)>AE2<bound method Module.state_dict of Encoder(
  (encoder): Sequential(
    (0): Linear(in_features=40, out_features=20, bias=True)
    (1): ReLU()
    (2): Linear(in_features=20, out_features=10, bias=True)
    (3): ReLU()
    (4): Linear(in_features=10, out_features=5, bias=True)
    (5): ReLU()
  )
)>AE1<bound method Module.state_dict of Encoder(
  (encoder): Sequential(
    (0): Linear(in_features=40, out_features=20, bias=True)
    (1): ReLU()
    (2): Linear(in_features=20, out_features=10, bias=True)
    (3): ReLU()
    (4): Linear(in_features=10, out_features=5, bias=True)
    (5): ReLU()
  )
)>AE2<bound method Module.state_dict of Encoder(
  (encoder): Sequential(
    (0): Linear(in_features=40, out_features=20, bias=True)
    (1): ReLU()
    (2): Linear(in_features=20, out_features=10, bias=True)
    (3): ReLU()
    (4): Linear(in_features=10, out_features=5, bias=True)
    (5): ReLU()
  )
)>AE1<bound method Module.state_dict of Encoder(
  (encoder): Sequential(
    (0): Linear(in_features=40, out_features=20, bias=True)
    (1): ReLU()
    (2): Linear(in_features=20, out_features=10, bias=True)
    (3): ReLU()
    (4): Linear(in_features=10, out_features=5, bias=True)
    (5): ReLU()
  )
)>AE2<bound method Module.state_dict of Encoder(
  (encoder): Sequential(
    (0): Linear(in_features=40, out_features=20, bias=True)
    (1): ReLU()
    (2): Linear(in_features=20, out_features=10, bias=True)
    (3): ReLU()
    (4): Linear(in_features=10, out_features=5, bias=True)
    (5): ReLU()
  )
)>AE1<bound method Module.state_dict of Encoder(
  (encoder): Sequential(
    (0): Linear(in_features=40, out_features=20, bias=True)
    (1): ReLU()
    (2): Linear(in_features=20, out_features=10, bias=True)
    (3): ReLU()
    (4): Linear(in_features=10, out_features=5, bias=True)
    (5): ReLU()
  )
)>AE2<bound method Module.state_dict of Encoder(
  (encoder): Sequential(
    (0): Linear(in_features=40, out_features=20, bias=True)
    (1): ReLU()
    (2): Linear(in_features=20, out_features=10, bias=True)
    (3): ReLU()
    (4): Linear(in_features=10, out_features=5, bias=True)
    (5): ReLU()
  )
)>AE1<bound method Module.state_dict of Encoder(
  (encoder): Sequential(
    (0): Linear(in_features=40, out_features=20, bias=True)
    (1): ReLU()
    (2): Linear(in_features=20, out_features=10, bias=True)
    (3): ReLU()
    (4): Linear(in_features=10, out_features=5, bias=True)
    (5): ReLU()
  )
)>AE2<bound method Module.state_dict of Encoder(
  (encoder): Sequential(
    (0): Linear(in_features=40, out_features=20, bias=True)
    (1): ReLU()
    (2): Linear(in_features=20, out_features=10, bias=True)
    (3): ReLU()
    (4): Linear(in_features=10, out_features=5, bias=True)
    (5): ReLU()
  )
)>AE1<bound method Module.state_dict of Encoder(
  (encoder): Sequential(
    (0): Linear(in_features=40, out_features=20, bias=True)
    (1): ReLU()
    (2): Linear(in_features=20, out_features=10, bias=True)
    (3): ReLU()
    (4): Linear(in_features=10, out_features=5, bias=True)
    (5): ReLU()
  )
)>AE2<bound method Module.state_dict of Encoder(
  (encoder): Sequential(
    (0): Linear(in_features=40, out_features=20, bias=True)
    (1): ReLU()
    (2): Linear(in_features=20, out_features=10, bias=True)
    (3): ReLU()
    (4): Linear(in_features=10, out_features=5, bias=True)
    (5): ReLU()
  )
)>AE1<bound method Module.state_dict of Encoder(
  (encoder): Sequential(
    (0): Linear(in_features=40, out_features=20, bias=True)
    (1): ReLU()
    (2): Linear(in_features=20, out_features=10, bias=True)
    (3): ReLU()
    (4): Linear(in_features=10, out_features=5, bias=True)
    (5): ReLU()
  )
)>AE2<bound method Module.state_dict of Encoder(
  (encoder): Sequential(
    (0): Linear(in_features=40, out_features=20, bias=True)
    (1): ReLU()
    (2): Linear(in_features=20, out_features=10, bias=True)
    (3): ReLU()
    (4): Linear(in_features=10, out_features=5, bias=True)
    (5): ReLU()
  )
)>AE1<bound method Module.state_dict of Encoder(
  (encoder): Sequential(
    (0): Linear(in_features=40, out_features=20, bias=True)
    (1): ReLU()
    (2): Linear(in_features=20, out_features=10, bias=True)
    (3): ReLU()
    (4): Linear(in_features=10, out_features=5, bias=True)
    (5): ReLU()
  )
)>AE2<bound method Module.state_dict of Encoder(
  (encoder): Sequential(
    (0): Linear(in_features=40, out_features=20, bias=True)
    (1): ReLU()
    (2): Linear(in_features=20, out_features=10, bias=True)
    (3): ReLU()
    (4): Linear(in_features=10, out_features=5, bias=True)
    (5): ReLU()
  )
)>AE1<bound method Module.state_dict of Encoder(
  (encoder): Sequential(
    (0): Linear(in_features=40, out_features=20, bias=True)
    (1): ReLU()
    (2): Linear(in_features=20, out_features=10, bias=True)
    (3): ReLU()
    (4): Linear(in_features=10, out_features=5, bias=True)
    (5): ReLU()
  )
)>AE2<bound method Module.state_dict of Encoder(
  (encoder): Sequential(
    (0): Linear(in_features=40, out_features=20, bias=True)
    (1): ReLU()
    (2): Linear(in_features=20, out_features=10, bias=True)
    (3): ReLU()
    (4): Linear(in_features=10, out_features=5, bias=True)
    (5): ReLU()
  )
)>AE1<bound method Module.state_dict of Encoder(
  (encoder): Sequential(
    (0): Linear(in_features=40, out_features=20, bias=True)
    (1): ReLU()
    (2): Linear(in_features=20, out_features=10, bias=True)
    (3): ReLU()
    (4): Linear(in_features=10, out_features=5, bias=True)
    (5): ReLU()
  )
)>AE2<bound method Module.state_dict of Encoder(
  (encoder): Sequential(
    (0): Linear(in_features=40, out_features=20, bias=True)
    (1): ReLU()
    (2): Linear(in_features=20, out_features=10, bias=True)
    (3): ReLU()
    (4): Linear(in_features=10, out_features=5, bias=True)
    (5): ReLU()
  )
)>AE1<bound method Module.state_dict of Encoder(
  (encoder): Sequential(
    (0): Linear(in_features=40, out_features=20, bias=True)
    (1): ReLU()
    (2): Linear(in_features=20, out_features=10, bias=True)
    (3): ReLU()
    (4): Linear(in_features=10, out_features=5, bias=True)
    (5): ReLU()
  )
)>AE2<bound method Module.state_dict of Encoder(
  (encoder): Sequential(
    (0): Linear(in_features=40, out_features=20, bias=True)
    (1): ReLU()
    (2): Linear(in_features=20, out_features=10, bias=True)
    (3): ReLU()
    (4): Linear(in_features=10, out_features=5, bias=True)
    (5): ReLU()
  )
)>AE1<bound method Module.state_dict of Encoder(
  (encoder): Sequential(
    (0): Linear(in_features=40, out_features=20, bias=True)
    (1): ReLU()
    (2): Linear(in_features=20, out_features=10, bias=True)
    (3): ReLU()
    (4): Linear(in_features=10, out_features=5, bias=True)
    (5): ReLU()
  )
)>AE2<bound method Module.state_dict of Encoder(
  (encoder): Sequential(
    (0): Linear(in_features=40, out_features=20, bias=True)
    (1): ReLU()
    (2): Linear(in_features=20, out_features=10, bias=True)
    (3): ReLU()
    (4): Linear(in_features=10, out_features=5, bias=True)
    (5): ReLU()
  )
)>AE1<bound method Module.state_dict of Encoder(
  (encoder): Sequential(
    (0): Linear(in_features=40, out_features=20, bias=True)
    (1): ReLU()
    (2): Linear(in_features=20, out_features=10, bias=True)
    (3): ReLU()
    (4): Linear(in_features=10, out_features=5, bias=True)
    (5): ReLU()
  )
)>AE2<bound method Module.state_dict of Encoder(
  (encoder): Sequential(
    (0): Linear(in_features=40, out_features=20, bias=True)
    (1): ReLU()
    (2): Linear(in_features=20, out_features=10, bias=True)
    (3): ReLU()
    (4): Linear(in_features=10, out_features=5, bias=True)
    (5): ReLU()
  )
)>AE1<bound method Module.state_dict of Encoder(
  (encoder): Sequential(
    (0): Linear(in_features=40, out_features=20, bias=True)
    (1): ReLU()
    (2): Linear(in_features=20, out_features=10, bias=True)
    (3): ReLU()
    (4): Linear(in_features=10, out_features=5, bias=True)
    (5): ReLU()
  )
)>AE2<bound method Module.state_dict of Encoder(
  (encoder): Sequential(
    (0): Linear(in_features=40, out_features=20, bias=True)
    (1): ReLU()
    (2): Linear(in_features=20, out_features=10, bias=True)
    (3): ReLU()
    (4): Linear(in_features=10, out_features=5, bias=True)
    (5): ReLU()
  )
)>AE1<bound method Module.state_dict of Encoder(
  (encoder): Sequential(
    (0): Linear(in_features=40, out_features=20, bias=True)
    (1): ReLU()
    (2): Linear(in_features=20, out_features=10, bias=True)
    (3): ReLU()
    (4): Linear(in_features=10, out_features=5, bias=True)
    (5): ReLU()
  )
)>AE2<bound method Module.state_dict of Encoder(
  (encoder): Sequential(
    (0): Linear(in_features=40, out_features=20, bias=True)
    (1): ReLU()
    (2): Linear(in_features=20, out_features=10, bias=True)
    (3): ReLU()
    (4): Linear(in_features=10, out_features=5, bias=True)
    (5): ReLU()
  )
)>AE1<bound method Module.state_dict of Encoder(
  (encoder): Sequential(
    (0): Linear(in_features=40, out_features=20, bias=True)
    (1): ReLU()
    (2): Linear(in_features=20, out_features=10, bias=True)
    (3): ReLU()
    (4): Linear(in_features=10, out_features=5, bias=True)
    (5): ReLU()
  )
)>AE2<bound method Module.state_dict of Encoder(
  (encoder): Sequential(
    (0): Linear(in_features=40, out_features=20, bias=True)
    (1): ReLU()
    (2): Linear(in_features=20, out_features=10, bias=True)
    (3): ReLU()
    (4): Linear(in_features=10, out_features=5, bias=True)
    (5): ReLU()
  )
)>AE1<bound method Module.state_dict of Encoder(
  (encoder): Sequential(
    (0): Linear(in_features=40, out_features=20, bias=True)
    (1): ReLU()
    (2): Linear(in_features=20, out_features=10, bias=True)
    (3): ReLU()
    (4): Linear(in_features=10, out_features=5, bias=True)
    (5): ReLU()
  )
)>AE2<bound method Module.state_dict of Encoder(
  (encoder): Sequential(
    (0): Linear(in_features=40, out_features=20, bias=True)
    (1): ReLU()
    (2): Linear(in_features=20, out_features=10, bias=True)
    (3): ReLU()
    (4): Linear(in_features=10, out_features=5, bias=True)
    (5): ReLU()
  )
)>AE1<bound method Module.state_dict of Encoder(
  (encoder): Sequential(
    (0): Linear(in_features=40, out_features=20, bias=True)
    (1): ReLU()
    (2): Linear(in_features=20, out_features=10, bias=True)
    (3): ReLU()
    (4): Linear(in_features=10, out_features=5, bias=True)
    (5): ReLU()
  )
)>AE2<bound method Module.state_dict of Encoder(
  (encoder): Sequential(
    (0): Linear(in_features=40, out_features=20, bias=True)
    (1): ReLU()
    (2): Linear(in_features=20, out_features=10, bias=True)
    (3): ReLU()
    (4): Linear(in_features=10, out_features=5, bias=True)
    (5): ReLU()
  )
)>AE1<bound method Module.state_dict of Encoder(
  (encoder): Sequential(
    (0): Linear(in_features=40, out_features=20, bias=True)
    (1): ReLU()
    (2): Linear(in_features=20, out_features=10, bias=True)
    (3): ReLU()
    (4): Linear(in_features=10, out_features=5, bias=True)
    (5): ReLU()
  )
)>AE2<bound method Module.state_dict of Encoder(
  (encoder): Sequential(
    (0): Linear(in_features=40, out_features=20, bias=True)
    (1): ReLU()
    (2): Linear(in_features=20, out_features=10, bias=True)
    (3): ReLU()
    (4): Linear(in_features=10, out_features=5, bias=True)
    (5): ReLU()
  )
)>AE1<bound method Module.state_dict of Encoder(
  (encoder): Sequential(
    (0): Linear(in_features=40, out_features=20, bias=True)
    (1): ReLU()
    (2): Linear(in_features=20, out_features=10, bias=True)
    (3): ReLU()
    (4): Linear(in_features=10, out_features=5, bias=True)
    (5): ReLU()
  )
)>AE2<bound method Module.state_dict of Encoder(
  (encoder): Sequential(
    (0): Linear(in_features=40, out_features=20, bias=True)
    (1): ReLU()
    (2): Linear(in_features=20, out_features=10, bias=True)
    (3): ReLU()
    (4): Linear(in_features=10, out_features=5, bias=True)
    (5): ReLU()
  )
)>AE1<bound method Module.state_dict of Encoder(
  (encoder): Sequential(
    (0): Linear(in_features=40, out_features=20, bias=True)
    (1): ReLU()
    (2): Linear(in_features=20, out_features=10, bias=True)
    (3): ReLU()
    (4): Linear(in_features=10, out_features=5, bias=True)
    (5): ReLU()
  )
)>AE2<bound method Module.state_dict of Encoder(
  (encoder): Sequential(
    (0): Linear(in_features=40, out_features=20, bias=True)
    (1): ReLU()
    (2): Linear(in_features=20, out_features=10, bias=True)
    (3): ReLU()
    (4): Linear(in_features=10, out_features=5, bias=True)
    (5): ReLU()
  )
)>AE1<bound method Module.state_dict of Encoder(
  (encoder): Sequential(
    (0): Linear(in_features=40, out_features=20, bias=True)
    (1): ReLU()
    (2): Linear(in_features=20, out_features=10, bias=True)
    (3): ReLU()
    (4): Linear(in_features=10, out_features=5, bias=True)
    (5): ReLU()
  )
)>AE2<bound method Module.state_dict of Encoder(
  (encoder): Sequential(
    (0): Linear(in_features=40, out_features=20, bias=True)
    (1): ReLU()
    (2): Linear(in_features=20, out_features=10, bias=True)
    (3): ReLU()
    (4): Linear(in_features=10, out_features=5, bias=True)
    (5): ReLU()
  )
)>AE1<bound method Module.state_dict of Encoder(
  (encoder): Sequential(
    (0): Linear(in_features=40, out_features=20, bias=True)
    (1): ReLU()
    (2): Linear(in_features=20, out_features=10, bias=True)
    (3): ReLU()
    (4): Linear(in_features=10, out_features=5, bias=True)
    (5): ReLU()
  )
)>AE2<bound method Module.state_dict of Encoder(
  (encoder): Sequential(
    (0): Linear(in_features=40, out_features=20, bias=True)
    (1): ReLU()
    (2): Linear(in_features=20, out_features=10, bias=True)
    (3): ReLU()
    (4): Linear(in_features=10, out_features=5, bias=True)
    (5): ReLU()
  )
)>AE1<bound method Module.state_dict of Encoder(
  (encoder): Sequential(
    (0): Linear(in_features=40, out_features=20, bias=True)
    (1): ReLU()
    (2): Linear(in_features=20, out_features=10, bias=True)
    (3): ReLU()
    (4): Linear(in_features=10, out_features=5, bias=True)
    (5): ReLU()
  )
)>AE2<bound method Module.state_dict of Encoder(
  (encoder): Sequential(
    (0): Linear(in_features=40, out_features=20, bias=True)
    (1): ReLU()
    (2): Linear(in_features=20, out_features=10, bias=True)
    (3): ReLU()
    (4): Linear(in_features=10, out_features=5, bias=True)
    (5): ReLU()
  )
)>AE1<bound method Module.state_dict of Encoder(
  (encoder): Sequential(
    (0): Linear(in_features=40, out_features=20, bias=True)
    (1): ReLU()
    (2): Linear(in_features=20, out_features=10, bias=True)
    (3): ReLU()
    (4): Linear(in_features=10, out_features=5, bias=True)
    (5): ReLU()
  )
)>AE2<bound method Module.state_dict of Encoder(
  (encoder): Sequential(
    (0): Linear(in_features=40, out_features=20, bias=True)
    (1): ReLU()
    (2): Linear(in_features=20, out_features=10, bias=True)
    (3): ReLU()
    (4): Linear(in_features=10, out_features=5, bias=True)
    (5): ReLU()
  )
)>AE1<bound method Module.state_dict of Encoder(
  (encoder): Sequential(
    (0): Linear(in_features=40, out_features=20, bias=True)
    (1): ReLU()
    (2): Linear(in_features=20, out_features=10, bias=True)
    (3): ReLU()
    (4): Linear(in_features=10, out_features=5, bias=True)
    (5): ReLU()
  )
)>AE2<bound method Module.state_dict of Encoder(
  (encoder): Sequential(
    (0): Linear(in_features=40, out_features=20, bias=True)
    (1): ReLU()
    (2): Linear(in_features=20, out_features=10, bias=True)
    (3): ReLU()
    (4): Linear(in_features=10, out_features=5, bias=True)
    (5): ReLU()
  )
)>AE1<bound method Module.state_dict of Encoder(
  (encoder): Sequential(
    (0): Linear(in_features=40, out_features=20, bias=True)
    (1): ReLU()
    (2): Linear(in_features=20, out_features=10, bias=True)
    (3): ReLU()
    (4): Linear(in_features=10, out_features=5, bias=True)
    (5): ReLU()
  )
)>AE2<bound method Module.state_dict of Encoder(
  (encoder): Sequential(
    (0): Linear(in_features=40, out_features=20, bias=True)
    (1): ReLU()
    (2): Linear(in_features=20, out_features=10, bias=True)
    (3): ReLU()
    (4): Linear(in_features=10, out_features=5, bias=True)
    (5): ReLU()
  )
)>AE1<bound method Module.state_dict of Encoder(
  (encoder): Sequential(
    (0): Linear(in_features=40, out_features=20, bias=True)
    (1): ReLU()
    (2): Linear(in_features=20, out_features=10, bias=True)
    (3): ReLU()
    (4): Linear(in_features=10, out_features=5, bias=True)
    (5): ReLU()
  )
)>AE2<bound method Module.state_dict of Encoder(
  (encoder): Sequential(
    (0): Linear(in_features=40, out_features=20, bias=True)
    (1): ReLU()
    (2): Linear(in_features=20, out_features=10, bias=True)
    (3): ReLU()
    (4): Linear(in_features=10, out_features=5, bias=True)
    (5): ReLU()
  )
)>AE1<bound method Module.state_dict of Encoder(
  (encoder): Sequential(
    (0): Linear(in_features=40, out_features=20, bias=True)
    (1): ReLU()
    (2): Linear(in_features=20, out_features=10, bias=True)
    (3): ReLU()
    (4): Linear(in_features=10, out_features=5, bias=True)
    (5): ReLU()
  )
)>AE2<bound method Module.state_dict of Encoder(
  (encoder): Sequential(
    (0): Linear(in_features=40, out_features=20, bias=True)
    (1): ReLU()
    (2): Linear(in_features=20, out_features=10, bias=True)
    (3): ReLU()
    (4): Linear(in_features=10, out_features=5, bias=True)
    (5): ReLU()
  )
)>AE1<bound method Module.state_dict of Encoder(
  (encoder): Sequential(
    (0): Linear(in_features=40, out_features=20, bias=True)
    (1): ReLU()
    (2): Linear(in_features=20, out_features=10, bias=True)
    (3): ReLU()
    (4): Linear(in_features=10, out_features=5, bias=True)
    (5): ReLU()
  )
)>AE2<bound method Module.state_dict of Encoder(
  (encoder): Sequential(
    (0): Linear(in_features=40, out_features=20, bias=True)
    (1): ReLU()
    (2): Linear(in_features=20, out_features=10, bias=True)
    (3): ReLU()
    (4): Linear(in_features=10, out_features=5, bias=True)
    (5): ReLU()
  )
)>AE1<bound method Module.state_dict of Encoder(
  (encoder): Sequential(
    (0): Linear(in_features=40, out_features=20, bias=True)
    (1): ReLU()
    (2): Linear(in_features=20, out_features=10, bias=True)
    (3): ReLU()
    (4): Linear(in_features=10, out_features=5, bias=True)
    (5): ReLU()
  )
)>AE2<bound method Module.state_dict of Encoder(
  (encoder): Sequential(
    (0): Linear(in_features=40, out_features=20, bias=True)
    (1): ReLU()
    (2): Linear(in_features=20, out_features=10, bias=True)
    (3): ReLU()
    (4): Linear(in_features=10, out_features=5, bias=True)
    (5): ReLU()
  )
)>AE1<bound method Module.state_dict of Encoder(
  (encoder): Sequential(
    (0): Linear(in_features=40, out_features=20, bias=True)
    (1): ReLU()
    (2): Linear(in_features=20, out_features=10, bias=True)
    (3): ReLU()
    (4): Linear(in_features=10, out_features=5, bias=True)
    (5): ReLU()
  )
)>AE2<bound method Module.state_dict of Encoder(
  (encoder): Sequential(
    (0): Linear(in_features=40, out_features=20, bias=True)
    (1): ReLU()
    (2): Linear(in_features=20, out_features=10, bias=True)
    (3): ReLU()
    (4): Linear(in_features=10, out_features=5, bias=True)
    (5): ReLU()
  )
)>AE1<bound method Module.state_dict of Encoder(
  (encoder): Sequential(
    (0): Linear(in_features=40, out_features=20, bias=True)
    (1): ReLU()
    (2): Linear(in_features=20, out_features=10, bias=True)
    (3): ReLU()
    (4): Linear(in_features=10, out_features=5, bias=True)
    (5): ReLU()
  )
)>AE2<bound method Module.state_dict of Encoder(
  (encoder): Sequential(
    (0): Linear(in_features=40, out_features=20, bias=True)
    (1): ReLU()
    (2): Linear(in_features=20, out_features=10, bias=True)
    (3): ReLU()
    (4): Linear(in_features=10, out_features=5, bias=True)
    (5): ReLU()
  )
)>AE1<bound method Module.state_dict of Encoder(
  (encoder): Sequential(
    (0): Linear(in_features=40, out_features=20, bias=True)
    (1): ReLU()
    (2): Linear(in_features=20, out_features=10, bias=True)
    (3): ReLU()
    (4): Linear(in_features=10, out_features=5, bias=True)
    (5): ReLU()
  )
)>AE2<bound method Module.state_dict of Encoder(
  (encoder): Sequential(
    (0): Linear(in_features=40, out_features=20, bias=True)
    (1): ReLU()
    (2): Linear(in_features=20, out_features=10, bias=True)
    (3): ReLU()
    (4): Linear(in_features=10, out_features=5, bias=True)
    (5): ReLU()
  )
)>AE1<bound method Module.state_dict of Encoder(
  (encoder): Sequential(
    (0): Linear(in_features=40, out_features=20, bias=True)
    (1): ReLU()
    (2): Linear(in_features=20, out_features=10, bias=True)
    (3): ReLU()
    (4): Linear(in_features=10, out_features=5, bias=True)
    (5): ReLU()
  )
)>AE2<bound method Module.state_dict of Encoder(
  (encoder): Sequential(
    (0): Linear(in_features=40, out_features=20, bias=True)
    (1): ReLU()
    (2): Linear(in_features=20, out_features=10, bias=True)
    (3): ReLU()
    (4): Linear(in_features=10, out_features=5, bias=True)
    (5): ReLU()
  )
)>AE1<bound method Module.state_dict of Encoder(
  (encoder): Sequential(
    (0): Linear(in_features=40, out_features=20, bias=True)
    (1): ReLU()
    (2): Linear(in_features=20, out_features=10, bias=True)
    (3): ReLU()
    (4): Linear(in_features=10, out_features=5, bias=True)
    (5): ReLU()
  )
)>AE2<bound method Module.state_dict of Encoder(
  (encoder): Sequential(
    (0): Linear(in_features=40, out_features=20, bias=True)
    (1): ReLU()
    (2): Linear(in_features=20, out_features=10, bias=True)
    (3): ReLU()
    (4): Linear(in_features=10, out_features=5, bias=True)
    (5): ReLU()
  )
)>AE1<bound method Module.state_dict of Encoder(
  (encoder): Sequential(
    (0): Linear(in_features=40, out_features=20, bias=True)
    (1): ReLU()
    (2): Linear(in_features=20, out_features=10, bias=True)
    (3): ReLU()
    (4): Linear(in_features=10, out_features=5, bias=True)
    (5): ReLU()
  )
)>AE2<bound method Module.state_dict of Encoder(
  (encoder): Sequential(
    (0): Linear(in_features=40, out_features=20, bias=True)
    (1): ReLU()
    (2): Linear(in_features=20, out_features=10, bias=True)
    (3): ReLU()
    (4): Linear(in_features=10, out_features=5, bias=True)
    (5): ReLU()
  )
)>AE1<bound method Module.state_dict of Encoder(
  (encoder): Sequential(
    (0): Linear(in_features=40, out_features=20, bias=True)
    (1): ReLU()
    (2): Linear(in_features=20, out_features=10, bias=True)
    (3): ReLU()
    (4): Linear(in_features=10, out_features=5, bias=True)
    (5): ReLU()
  )
)>AE2<bound method Module.state_dict of Encoder(
  (encoder): Sequential(
    (0): Linear(in_features=40, out_features=20, bias=True)
    (1): ReLU()
    (2): Linear(in_features=20, out_features=10, bias=True)
    (3): ReLU()
    (4): Linear(in_features=10, out_features=5, bias=True)
    (5): ReLU()
  )
)>AE1<bound method Module.state_dict of Encoder(
  (encoder): Sequential(
    (0): Linear(in_features=40, out_features=20, bias=True)
    (1): ReLU()
    (2): Linear(in_features=20, out_features=10, bias=True)
    (3): ReLU()
    (4): Linear(in_features=10, out_features=5, bias=True)
    (5): ReLU()
  )
)>AE2<bound method Module.state_dict of Encoder(
  (encoder): Sequential(
    (0): Linear(in_features=40, out_features=20, bias=True)
    (1): ReLU()
    (2): Linear(in_features=20, out_features=10, bias=True)
    (3): ReLU()
    (4): Linear(in_features=10, out_features=5, bias=True)
    (5): ReLU()
  )
)>AE1<bound method Module.state_dict of Encoder(
  (encoder): Sequential(
    (0): Linear(in_features=40, out_features=20, bias=True)
    (1): ReLU()
    (2): Linear(in_features=20, out_features=10, bias=True)
    (3): ReLU()
    (4): Linear(in_features=10, out_features=5, bias=True)
    (5): ReLU()
  )
)>AE2<bound method Module.state_dict of Encoder(
  (encoder): Sequential(
    (0): Linear(in_features=40, out_features=20, bias=True)
    (1): ReLU()
    (2): Linear(in_features=20, out_features=10, bias=True)
    (3): ReLU()
    (4): Linear(in_features=10, out_features=5, bias=True)
    (5): ReLU()
  )
)>AE1<bound method Module.state_dict of Encoder(
  (encoder): Sequential(
    (0): Linear(in_features=40, out_features=20, bias=True)
    (1): ReLU()
    (2): Linear(in_features=20, out_features=10, bias=True)
    (3): ReLU()
    (4): Linear(in_features=10, out_features=5, bias=True)
    (5): ReLU()
  )
)>AE2<bound method Module.state_dict of Encoder(
  (encoder): Sequential(
    (0): Linear(in_features=40, out_features=20, bias=True)
    (1): ReLU()
    (2): Linear(in_features=20, out_features=10, bias=True)
    (3): ReLU()
    (4): Linear(in_features=10, out_features=5, bias=True)
    (5): ReLU()
  )
)>AE1<bound method Module.state_dict of Encoder(
  (encoder): Sequential(
    (0): Linear(in_features=40, out_features=20, bias=True)
    (1): ReLU()
    (2): Linear(in_features=20, out_features=10, bias=True)
    (3): ReLU()
    (4): Linear(in_features=10, out_features=5, bias=True)
    (5): ReLU()
  )
)>AE2<bound method Module.state_dict of Encoder(
  (encoder): Sequential(
    (0): Linear(in_features=40, out_features=20, bias=True)
    (1): ReLU()
    (2): Linear(in_features=20, out_features=10, bias=True)
    (3): ReLU()
    (4): Linear(in_features=10, out_features=5, bias=True)
    (5): ReLU()
  )
)>AE1<bound method Module.state_dict of Encoder(
  (encoder): Sequential(
    (0): Linear(in_features=40, out_features=20, bias=True)
    (1): ReLU()
    (2): Linear(in_features=20, out_features=10, bias=True)
    (3): ReLU()
    (4): Linear(in_features=10, out_features=5, bias=True)
    (5): ReLU()
  )
)>AE2<bound method Module.state_dict of Encoder(
  (encoder): Sequential(
    (0): Linear(in_features=40, out_features=20, bias=True)
    (1): ReLU()
    (2): Linear(in_features=20, out_features=10, bias=True)
    (3): ReLU()
    (4): Linear(in_features=10, out_features=5, bias=True)
    (5): ReLU()
  )
)>AE1<bound method Module.state_dict of Encoder(
  (encoder): Sequential(
    (0): Linear(in_features=40, out_features=20, bias=True)
    (1): ReLU()
    (2): Linear(in_features=20, out_features=10, bias=True)
    (3): ReLU()
    (4): Linear(in_features=10, out_features=5, bias=True)
    (5): ReLU()
  )
)>AE2<bound method Module.state_dict of Encoder(
  (encoder): Sequential(
    (0): Linear(in_features=40, out_features=20, bias=True)
    (1): ReLU()
    (2): Linear(in_features=20, out_features=10, bias=True)
    (3): ReLU()
    (4): Linear(in_features=10, out_features=5, bias=True)
    (5): ReLU()
  )
)>AE1<bound method Module.state_dict of Encoder(
  (encoder): Sequential(
    (0): Linear(in_features=40, out_features=20, bias=True)
    (1): ReLU()
    (2): Linear(in_features=20, out_features=10, bias=True)
    (3): ReLU()
    (4): Linear(in_features=10, out_features=5, bias=True)
    (5): ReLU()
  )
)>AE2<bound method Module.state_dict of Encoder(
  (encoder): Sequential(
    (0): Linear(in_features=40, out_features=20, bias=True)
    (1): ReLU()
    (2): Linear(in_features=20, out_features=10, bias=True)
    (3): ReLU()
    (4): Linear(in_features=10, out_features=5, bias=True)
    (5): ReLU()
  )
)>AE1<bound method Module.state_dict of Encoder(
  (encoder): Sequential(
    (0): Linear(in_features=40, out_features=20, bias=True)
    (1): ReLU()
    (2): Linear(in_features=20, out_features=10, bias=True)
    (3): ReLU()
    (4): Linear(in_features=10, out_features=5, bias=True)
    (5): ReLU()
  )
)>AE2<bound method Module.state_dict of Encoder(
  (encoder): Sequential(
    (0): Linear(in_features=40, out_features=20, bias=True)
    (1): ReLU()
    (2): Linear(in_features=20, out_features=10, bias=True)
    (3): ReLU()
    (4): Linear(in_features=10, out_features=5, bias=True)
    (5): ReLU()
  )
)>AE1<bound method Module.state_dict of Encoder(
  (encoder): Sequential(
    (0): Linear(in_features=40, out_features=20, bias=True)
    (1): ReLU()
    (2): Linear(in_features=20, out_features=10, bias=True)
    (3): ReLU()
    (4): Linear(in_features=10, out_features=5, bias=True)
    (5): ReLU()
  )
)>AE2<bound method Module.state_dict of Encoder(
  (encoder): Sequential(
    (0): Linear(in_features=40, out_features=20, bias=True)
    (1): ReLU()
    (2): Linear(in_features=20, out_features=10, bias=True)
    (3): ReLU()
    (4): Linear(in_features=10, out_features=5, bias=True)
    (5): ReLU()
  )
)>AE1<bound method Module.state_dict of Encoder(
  (encoder): Sequential(
    (0): Linear(in_features=40, out_features=20, bias=True)
    (1): ReLU()
    (2): Linear(in_features=20, out_features=10, bias=True)
    (3): ReLU()
    (4): Linear(in_features=10, out_features=5, bias=True)
    (5): ReLU()
  )
)>AE2<bound method Module.state_dict of Encoder(
  (encoder): Sequential(
    (0): Linear(in_features=40, out_features=20, bias=True)
    (1): ReLU()
    (2): Linear(in_features=20, out_features=10, bias=True)
    (3): ReLU()
    (4): Linear(in_features=10, out_features=5, bias=True)
    (5): ReLU()
  )
)>AE1<bound method Module.state_dict of Encoder(
  (encoder): Sequential(
    (0): Linear(in_features=40, out_features=20, bias=True)
    (1): ReLU()
    (2): Linear(in_features=20, out_features=10, bias=True)
    (3): ReLU()
    (4): Linear(in_features=10, out_features=5, bias=True)
    (5): ReLU()
  )
)>AE2<bound method Module.state_dict of Encoder(
  (encoder): Sequential(
    (0): Linear(in_features=40, out_features=20, bias=True)
    (1): ReLU()
    (2): Linear(in_features=20, out_features=10, bias=True)
    (3): ReLU()
    (4): Linear(in_features=10, out_features=5, bias=True)
    (5): ReLU()
  )
)>AE1<bound method Module.state_dict of Encoder(
  (encoder): Sequential(
    (0): Linear(in_features=40, out_features=20, bias=True)
    (1): ReLU()
    (2): Linear(in_features=20, out_features=10, bias=True)
    (3): ReLU()
    (4): Linear(in_features=10, out_features=5, bias=True)
    (5): ReLU()
  )
)>AE2<bound method Module.state_dict of Encoder(
  (encoder): Sequential(
    (0): Linear(in_features=40, out_features=20, bias=True)
    (1): ReLU()
    (2): Linear(in_features=20, out_features=10, bias=True)
    (3): ReLU()
    (4): Linear(in_features=10, out_features=5, bias=True)
    (5): ReLU()
  )
)>AE1<bound method Module.state_dict of Encoder(
  (encoder): Sequential(
    (0): Linear(in_features=40, out_features=20, bias=True)
    (1): ReLU()
    (2): Linear(in_features=20, out_features=10, bias=True)
    (3): ReLU()
    (4): Linear(in_features=10, out_features=5, bias=True)
    (5): ReLU()
  )
)>AE2<bound method Module.state_dict of Encoder(
  (encoder): Sequential(
    (0): Linear(in_features=40, out_features=20, bias=True)
    (1): ReLU()
    (2): Linear(in_features=20, out_features=10, bias=True)
    (3): ReLU()
    (4): Linear(in_features=10, out_features=5, bias=True)
    (5): ReLU()
  )
)>AE1<bound method Module.state_dict of Encoder(
  (encoder): Sequential(
    (0): Linear(in_features=40, out_features=20, bias=True)
    (1): ReLU()
    (2): Linear(in_features=20, out_features=10, bias=True)
    (3): ReLU()
    (4): Linear(in_features=10, out_features=5, bias=True)
    (5): ReLU()
  )
)>AE2<bound method Module.state_dict of Encoder(
  (encoder): Sequential(
    (0): Linear(in_features=40, out_features=20, bias=True)
    (1): ReLU()
    (2): Linear(in_features=20, out_features=10, bias=True)
    (3): ReLU()
    (4): Linear(in_features=10, out_features=5, bias=True)
    (5): ReLU()
  )
)>AE1<bound method Module.state_dict of Encoder(
  (encoder): Sequential(
    (0): Linear(in_features=40, out_features=20, bias=True)
    (1): ReLU()
    (2): Linear(in_features=20, out_features=10, bias=True)
    (3): ReLU()
    (4): Linear(in_features=10, out_features=5, bias=True)
    (5): ReLU()
  )
)>AE2<bound method Module.state_dict of Encoder(
  (encoder): Sequential(
    (0): Linear(in_features=40, out_features=20, bias=True)
    (1): ReLU()
    (2): Linear(in_features=20, out_features=10, bias=True)
    (3): ReLU()
    (4): Linear(in_features=10, out_features=5, bias=True)
    (5): ReLU()
  )
)>AE1<bound method Module.state_dict of Encoder(
  (encoder): Sequential(
    (0): Linear(in_features=40, out_features=20, bias=True)
    (1): ReLU()
    (2): Linear(in_features=20, out_features=10, bias=True)
    (3): ReLU()
    (4): Linear(in_features=10, out_features=5, bias=True)
    (5): ReLU()
  )
)>AE2<bound method Module.state_dict of Encoder(
  (encoder): Sequential(
    (0): Linear(in_features=40, out_features=20, bias=True)
    (1): ReLU()
    (2): Linear(in_features=20, out_features=10, bias=True)
    (3): ReLU()
    (4): Linear(in_features=10, out_features=5, bias=True)
    (5): ReLU()
  )
)>AE1<bound method Module.state_dict of Encoder(
  (encoder): Sequential(
    (0): Linear(in_features=40, out_features=20, bias=True)
    (1): ReLU()
    (2): Linear(in_features=20, out_features=10, bias=True)
    (3): ReLU()
    (4): Linear(in_features=10, out_features=5, bias=True)
    (5): ReLU()
  )
)>AE2<bound method Module.state_dict of Encoder(
  (encoder): Sequential(
    (0): Linear(in_features=40, out_features=20, bias=True)
    (1): ReLU()
    (2): Linear(in_features=20, out_features=10, bias=True)
    (3): ReLU()
    (4): Linear(in_features=10, out_features=5, bias=True)
    (5): ReLU()
  )
)>AE1<bound method Module.state_dict of Encoder(
  (encoder): Sequential(
    (0): Linear(in_features=40, out_features=20, bias=True)
    (1): ReLU()
    (2): Linear(in_features=20, out_features=10, bias=True)
    (3): ReLU()
    (4): Linear(in_features=10, out_features=5, bias=True)
    (5): ReLU()
  )
)>AE2<bound method Module.state_dict of Encoder(
  (encoder): Sequential(
    (0): Linear(in_features=40, out_features=20, bias=True)
    (1): ReLU()
    (2): Linear(in_features=20, out_features=10, bias=True)
    (3): ReLU()
    (4): Linear(in_features=10, out_features=5, bias=True)
    (5): ReLU()
  )
)>AE1<bound method Module.state_dict of Encoder(
  (encoder): Sequential(
    (0): Linear(in_features=40, out_features=20, bias=True)
    (1): ReLU()
    (2): Linear(in_features=20, out_features=10, bias=True)
    (3): ReLU()
    (4): Linear(in_features=10, out_features=5, bias=True)
    (5): ReLU()
  )
)>AE2<bound method Module.state_dict of Encoder(
  (encoder): Sequential(
    (0): Linear(in_features=40, out_features=20, bias=True)
    (1): ReLU()
    (2): Linear(in_features=20, out_features=10, bias=True)
    (3): ReLU()
    (4): Linear(in_features=10, out_features=5, bias=True)
    (5): ReLU()
  )
)>AE1<bound method Module.state_dict of Encoder(
  (encoder): Sequential(
    (0): Linear(in_features=40, out_features=20, bias=True)
    (1): ReLU()
    (2): Linear(in_features=20, out_features=10, bias=True)
    (3): ReLU()
    (4): Linear(in_features=10, out_features=5, bias=True)
    (5): ReLU()
  )
)>AE2<bound method Module.state_dict of Encoder(
  (encoder): Sequential(
    (0): Linear(in_features=40, out_features=20, bias=True)
    (1): ReLU()
    (2): Linear(in_features=20, out_features=10, bias=True)
    (3): ReLU()
    (4): Linear(in_features=10, out_features=5, bias=True)
    (5): ReLU()
  )
)>AE1<bound method Module.state_dict of Encoder(
  (encoder): Sequential(
    (0): Linear(in_features=40, out_features=20, bias=True)
    (1): ReLU()
    (2): Linear(in_features=20, out_features=10, bias=True)
    (3): ReLU()
    (4): Linear(in_features=10, out_features=5, bias=True)
    (5): ReLU()
  )
)>AE2<bound method Module.state_dict of Encoder(
  (encoder): Sequential(
    (0): Linear(in_features=40, out_features=20, bias=True)
    (1): ReLU()
    (2): Linear(in_features=20, out_features=10, bias=True)
    (3): ReLU()
    (4): Linear(in_features=10, out_features=5, bias=True)
    (5): ReLU()
  )
)>AE1<bound method Module.state_dict of Encoder(
  (encoder): Sequential(
    (0): Linear(in_features=40, out_features=20, bias=True)
    (1): ReLU()
    (2): Linear(in_features=20, out_features=10, bias=True)
    (3): ReLU()
    (4): Linear(in_features=10, out_features=5, bias=True)
    (5): ReLU()
  )
)>AE2<bound method Module.state_dict of Encoder(
  (encoder): Sequential(
    (0): Linear(in_features=40, out_features=20, bias=True)
    (1): ReLU()
    (2): Linear(in_features=20, out_features=10, bias=True)
    (3): ReLU()
    (4): Linear(in_features=10, out_features=5, bias=True)
    (5): ReLU()
  )
)>AE1<bound method Module.state_dict of Encoder(
  (encoder): Sequential(
    (0): Linear(in_features=40, out_features=20, bias=True)
    (1): ReLU()
    (2): Linear(in_features=20, out_features=10, bias=True)
    (3): ReLU()
    (4): Linear(in_features=10, out_features=5, bias=True)
    (5): ReLU()
  )
)>AE2<bound method Module.state_dict of Encoder(
  (encoder): Sequential(
    (0): Linear(in_features=40, out_features=20, bias=True)
    (1): ReLU()
    (2): Linear(in_features=20, out_features=10, bias=True)
    (3): ReLU()
    (4): Linear(in_features=10, out_features=5, bias=True)
    (5): ReLU()
  )
)>AE1<bound method Module.state_dict of Encoder(
  (encoder): Sequential(
    (0): Linear(in_features=40, out_features=20, bias=True)
    (1): ReLU()
    (2): Linear(in_features=20, out_features=10, bias=True)
    (3): ReLU()
    (4): Linear(in_features=10, out_features=5, bias=True)
    (5): ReLU()
  )
)>AE2<bound method Module.state_dict of Encoder(
  (encoder): Sequential(
    (0): Linear(in_features=40, out_features=20, bias=True)
    (1): ReLU()
    (2): Linear(in_features=20, out_features=10, bias=True)
    (3): ReLU()
    (4): Linear(in_features=10, out_features=5, bias=True)
    (5): ReLU()
  )
)>AE1<bound method Module.state_dict of Encoder(
  (encoder): Sequential(
    (0): Linear(in_features=40, out_features=20, bias=True)
    (1): ReLU()
    (2): Linear(in_features=20, out_features=10, bias=True)
    (3): ReLU()
    (4): Linear(in_features=10, out_features=5, bias=True)
    (5): ReLU()
  )
)>AE2<bound method Module.state_dict of Encoder(
  (encoder): Sequential(
    (0): Linear(in_features=40, out_features=20, bias=True)
    (1): ReLU()
    (2): Linear(in_features=20, out_features=10, bias=True)
    (3): ReLU()
    (4): Linear(in_features=10, out_features=5, bias=True)
    (5): ReLU()
  )
)>AE1<bound method Module.state_dict of Encoder(
  (encoder): Sequential(
    (0): Linear(in_features=40, out_features=20, bias=True)
    (1): ReLU()
    (2): Linear(in_features=20, out_features=10, bias=True)
    (3): ReLU()
    (4): Linear(in_features=10, out_features=5, bias=True)
    (5): ReLU()
  )
)>AE2<bound method Module.state_dict of Encoder(
  (encoder): Sequential(
    (0): Linear(in_features=40, out_features=20, bias=True)
    (1): ReLU()
    (2): Linear(in_features=20, out_features=10, bias=True)
    (3): ReLU()
    (4): Linear(in_features=10, out_features=5, bias=True)
    (5): ReLU()
  )
)>AE1<bound method Module.state_dict of Encoder(
  (encoder): Sequential(
    (0): Linear(in_features=40, out_features=20, bias=True)
    (1): ReLU()
    (2): Linear(in_features=20, out_features=10, bias=True)
    (3): ReLU()
    (4): Linear(in_features=10, out_features=5, bias=True)
    (5): ReLU()
  )
)>AE2<bound method Module.state_dict of Encoder(
  (encoder): Sequential(
    (0): Linear(in_features=40, out_features=20, bias=True)
    (1): ReLU()
    (2): Linear(in_features=20, out_features=10, bias=True)
    (3): ReLU()
    (4): Linear(in_features=10, out_features=5, bias=True)
    (5): ReLU()
  )
)>AE1<bound method Module.state_dict of Encoder(
  (encoder): Sequential(
    (0): Linear(in_features=40, out_features=20, bias=True)
    (1): ReLU()
    (2): Linear(in_features=20, out_features=10, bias=True)
    (3): ReLU()
    (4): Linear(in_features=10, out_features=5, bias=True)
    (5): ReLU()
  )
)>AE2<bound method Module.state_dict of Encoder(
  (encoder): Sequential(
    (0): Linear(in_features=40, out_features=20, bias=True)
    (1): ReLU()
    (2): Linear(in_features=20, out_features=10, bias=True)
    (3): ReLU()
    (4): Linear(in_features=10, out_features=5, bias=True)
    (5): ReLU()
  )
)>AE1<bound method Module.state_dict of Encoder(
  (encoder): Sequential(
    (0): Linear(in_features=40, out_features=20, bias=True)
    (1): ReLU()
    (2): Linear(in_features=20, out_features=10, bias=True)
    (3): ReLU()
    (4): Linear(in_features=10, out_features=5, bias=True)
    (5): ReLU()
  )
)>AE2<bound method Module.state_dict of Encoder(
  (encoder): Sequential(
    (0): Linear(in_features=40, out_features=20, bias=True)
    (1): ReLU()
    (2): Linear(in_features=20, out_features=10, bias=True)
    (3): ReLU()
    (4): Linear(in_features=10, out_features=5, bias=True)
    (5): ReLU()
  )
)>AE1<bound method Module.state_dict of Encoder(
  (encoder): Sequential(
    (0): Linear(in_features=40, out_features=20, bias=True)
    (1): ReLU()
    (2): Linear(in_features=20, out_features=10, bias=True)
    (3): ReLU()
    (4): Linear(in_features=10, out_features=5, bias=True)
    (5): ReLU()
  )
)>AE2<bound method Module.state_dict of Encoder(
  (encoder): Sequential(
    (0): Linear(in_features=40, out_features=20, bias=True)
    (1): ReLU()
    (2): Linear(in_features=20, out_features=10, bias=True)
    (3): ReLU()
    (4): Linear(in_features=10, out_features=5, bias=True)
    (5): ReLU()
  )
)>AE1<bound method Module.state_dict of Encoder(
  (encoder): Sequential(
    (0): Linear(in_features=40, out_features=20, bias=True)
    (1): ReLU()
    (2): Linear(in_features=20, out_features=10, bias=True)
    (3): ReLU()
    (4): Linear(in_features=10, out_features=5, bias=True)
    (5): ReLU()
  )
)>AE2<bound method Module.state_dict of Encoder(
  (encoder): Sequential(
    (0): Linear(in_features=40, out_features=20, bias=True)
    (1): ReLU()
    (2): Linear(in_features=20, out_features=10, bias=True)
    (3): ReLU()
    (4): Linear(in_features=10, out_features=5, bias=True)
    (5): ReLU()
  )
)>AE1<bound method Module.state_dict of Encoder(
  (encoder): Sequential(
    (0): Linear(in_features=40, out_features=20, bias=True)
    (1): ReLU()
    (2): Linear(in_features=20, out_features=10, bias=True)
    (3): ReLU()
    (4): Linear(in_features=10, out_features=5, bias=True)
    (5): ReLU()
  )
)>AE2<bound method Module.state_dict of Encoder(
  (encoder): Sequential(
    (0): Linear(in_features=40, out_features=20, bias=True)
    (1): ReLU()
    (2): Linear(in_features=20, out_features=10, bias=True)
    (3): ReLU()
    (4): Linear(in_features=10, out_features=5, bias=True)
    (5): ReLU()
  )
)>AE1<bound method Module.state_dict of Encoder(
  (encoder): Sequential(
    (0): Linear(in_features=40, out_features=20, bias=True)
    (1): ReLU()
    (2): Linear(in_features=20, out_features=10, bias=True)
    (3): ReLU()
    (4): Linear(in_features=10, out_features=5, bias=True)
    (5): ReLU()
  )
)>AE2<bound method Module.state_dict of Encoder(
  (encoder): Sequential(
    (0): Linear(in_features=40, out_features=20, bias=True)
    (1): ReLU()
    (2): Linear(in_features=20, out_features=10, bias=True)
    (3): ReLU()
    (4): Linear(in_features=10, out_features=5, bias=True)
    (5): ReLU()
  )
)>AE1<bound method Module.state_dict of Encoder(
  (encoder): Sequential(
    (0): Linear(in_features=40, out_features=20, bias=True)
    (1): ReLU()
    (2): Linear(in_features=20, out_features=10, bias=True)
    (3): ReLU()
    (4): Linear(in_features=10, out_features=5, bias=True)
    (5): ReLU()
  )
)>AE2<bound method Module.state_dict of Encoder(
  (encoder): Sequential(
    (0): Linear(in_features=40, out_features=20, bias=True)
    (1): ReLU()
    (2): Linear(in_features=20, out_features=10, bias=True)
    (3): ReLU()
    (4): Linear(in_features=10, out_features=5, bias=True)
    (5): ReLU()
  )
)>AE1<bound method Module.state_dict of Encoder(
  (encoder): Sequential(
    (0): Linear(in_features=40, out_features=20, bias=True)
    (1): ReLU()
    (2): Linear(in_features=20, out_features=10, bias=True)
    (3): ReLU()
    (4): Linear(in_features=10, out_features=5, bias=True)
    (5): ReLU()
  )
)>AE2<bound method Module.state_dict of Encoder(
  (encoder): Sequential(
    (0): Linear(in_features=40, out_features=20, bias=True)
    (1): ReLU()
    (2): Linear(in_features=20, out_features=10, bias=True)
    (3): ReLU()
    (4): Linear(in_features=10, out_features=5, bias=True)
    (5): ReLU()
  )
)>AE1<bound method Module.state_dict of Encoder(
  (encoder): Sequential(
    (0): Linear(in_features=40, out_features=20, bias=True)
    (1): ReLU()
    (2): Linear(in_features=20, out_features=10, bias=True)
    (3): ReLU()
    (4): Linear(in_features=10, out_features=5, bias=True)
    (5): ReLU()
  )
)>AE2<bound method Module.state_dict of Encoder(
  (encoder): Sequential(
    (0): Linear(in_features=40, out_features=20, bias=True)
    (1): ReLU()
    (2): Linear(in_features=20, out_features=10, bias=True)
    (3): ReLU()
    (4): Linear(in_features=10, out_features=5, bias=True)
    (5): ReLU()
  )
)>AE1<bound method Module.state_dict of Encoder(
  (encoder): Sequential(
    (0): Linear(in_features=40, out_features=20, bias=True)
    (1): ReLU()
    (2): Linear(in_features=20, out_features=10, bias=True)
    (3): ReLU()
    (4): Linear(in_features=10, out_features=5, bias=True)
    (5): ReLU()
  )
)>AE2<bound method Module.state_dict of Encoder(
  (encoder): Sequential(
    (0): Linear(in_features=40, out_features=20, bias=True)
    (1): ReLU()
    (2): Linear(in_features=20, out_features=10, bias=True)
    (3): ReLU()
    (4): Linear(in_features=10, out_features=5, bias=True)
    (5): ReLU()
  )
)>AE1<bound method Module.state_dict of Encoder(
  (encoder): Sequential(
    (0): Linear(in_features=40, out_features=20, bias=True)
    (1): ReLU()
    (2): Linear(in_features=20, out_features=10, bias=True)
    (3): ReLU()
    (4): Linear(in_features=10, out_features=5, bias=True)
    (5): ReLU()
  )
)>AE2<bound method Module.state_dict of Encoder(
  (encoder): Sequential(
    (0): Linear(in_features=40, out_features=20, bias=True)
    (1): ReLU()
    (2): Linear(in_features=20, out_features=10, bias=True)
    (3): ReLU()
    (4): Linear(in_features=10, out_features=5, bias=True)
    (5): ReLU()
  )
)>AE1<bound method Module.state_dict of Encoder(
  (encoder): Sequential(
    (0): Linear(in_features=40, out_features=20, bias=True)
    (1): ReLU()
    (2): Linear(in_features=20, out_features=10, bias=True)
    (3): ReLU()
    (4): Linear(in_features=10, out_features=5, bias=True)
    (5): ReLU()
  )
)>AE2<bound method Module.state_dict of Encoder(
  (encoder): Sequential(
    (0): Linear(in_features=40, out_features=20, bias=True)
    (1): ReLU()
    (2): Linear(in_features=20, out_features=10, bias=True)
    (3): ReLU()
    (4): Linear(in_features=10, out_features=5, bias=True)
    (5): ReLU()
  )
)>AE1<bound method Module.state_dict of Encoder(
  (encoder): Sequential(
    (0): Linear(in_features=40, out_features=20, bias=True)
    (1): ReLU()
    (2): Linear(in_features=20, out_features=10, bias=True)
    (3): ReLU()
    (4): Linear(in_features=10, out_features=5, bias=True)
    (5): ReLU()
  )
)>AE2<bound method Module.state_dict of Encoder(
  (encoder): Sequential(
    (0): Linear(in_features=40, out_features=20, bias=True)
    (1): ReLU()
    (2): Linear(in_features=20, out_features=10, bias=True)
    (3): ReLU()
    (4): Linear(in_features=10, out_features=5, bias=True)
    (5): ReLU()
  )
)>AE1<bound method Module.state_dict of Encoder(
  (encoder): Sequential(
    (0): Linear(in_features=40, out_features=20, bias=True)
    (1): ReLU()
    (2): Linear(in_features=20, out_features=10, bias=True)
    (3): ReLU()
    (4): Linear(in_features=10, out_features=5, bias=True)
    (5): ReLU()
  )
)>AE2<bound method Module.state_dict of Encoder(
  (encoder): Sequential(
    (0): Linear(in_features=40, out_features=20, bias=True)
    (1): ReLU()
    (2): Linear(in_features=20, out_features=10, bias=True)
    (3): ReLU()
    (4): Linear(in_features=10, out_features=5, bias=True)
    (5): ReLU()
  )
)>AE1<bound method Module.state_dict of Encoder(
  (encoder): Sequential(
    (0): Linear(in_features=40, out_features=20, bias=True)
    (1): ReLU()
    (2): Linear(in_features=20, out_features=10, bias=True)
    (3): ReLU()
    (4): Linear(in_features=10, out_features=5, bias=True)
    (5): ReLU()
  )
)>AE2<bound method Module.state_dict of Encoder(
  (encoder): Sequential(
    (0): Linear(in_features=40, out_features=20, bias=True)
    (1): ReLU()
    (2): Linear(in_features=20, out_features=10, bias=True)
    (3): ReLU()
    (4): Linear(in_features=10, out_features=5, bias=True)
    (5): ReLU()
  )
)>AE1<bound method Module.state_dict of Encoder(
  (encoder): Sequential(
    (0): Linear(in_features=40, out_features=20, bias=True)
    (1): ReLU()
    (2): Linear(in_features=20, out_features=10, bias=True)
    (3): ReLU()
    (4): Linear(in_features=10, out_features=5, bias=True)
    (5): ReLU()
  )
)>AE2<bound method Module.state_dict of Encoder(
  (encoder): Sequential(
    (0): Linear(in_features=40, out_features=20, bias=True)
    (1): ReLU()
    (2): Linear(in_features=20, out_features=10, bias=True)
    (3): ReLU()
    (4): Linear(in_features=10, out_features=5, bias=True)
    (5): ReLU()
  )
)>AE1<bound method Module.state_dict of Encoder(
  (encoder): Sequential(
    (0): Linear(in_features=40, out_features=20, bias=True)
    (1): ReLU()
    (2): Linear(in_features=20, out_features=10, bias=True)
    (3): ReLU()
    (4): Linear(in_features=10, out_features=5, bias=True)
    (5): ReLU()
  )
)>AE2<bound method Module.state_dict of Encoder(
  (encoder): Sequential(
    (0): Linear(in_features=40, out_features=20, bias=True)
    (1): ReLU()
    (2): Linear(in_features=20, out_features=10, bias=True)
    (3): ReLU()
    (4): Linear(in_features=10, out_features=5, bias=True)
    (5): ReLU()
  )
)>AE1<bound method Module.state_dict of Encoder(
  (encoder): Sequential(
    (0): Linear(in_features=40, out_features=20, bias=True)
    (1): ReLU()
    (2): Linear(in_features=20, out_features=10, bias=True)
    (3): ReLU()
    (4): Linear(in_features=10, out_features=5, bias=True)
    (5): ReLU()
  )
)>AE2<bound method Module.state_dict of Encoder(
  (encoder): Sequential(
    (0): Linear(in_features=40, out_features=20, bias=True)
    (1): ReLU()
    (2): Linear(in_features=20, out_features=10, bias=True)
    (3): ReLU()
    (4): Linear(in_features=10, out_features=5, bias=True)
    (5): ReLU()
  )
)>AE1<bound method Module.state_dict of Encoder(
  (encoder): Sequential(
    (0): Linear(in_features=40, out_features=20, bias=True)
    (1): ReLU()
    (2): Linear(in_features=20, out_features=10, bias=True)
    (3): ReLU()
    (4): Linear(in_features=10, out_features=5, bias=True)
    (5): ReLU()
  )
)>AE2<bound method Module.state_dict of Encoder(
  (encoder): Sequential(
    (0): Linear(in_features=40, out_features=20, bias=True)
    (1): ReLU()
    (2): Linear(in_features=20, out_features=10, bias=True)
    (3): ReLU()
    (4): Linear(in_features=10, out_features=5, bias=True)
    (5): ReLU()
  )
)>AE1<bound method Module.state_dict of Encoder(
  (encoder): Sequential(
    (0): Linear(in_features=40, out_features=20, bias=True)
    (1): ReLU()
    (2): Linear(in_features=20, out_features=10, bias=True)
    (3): ReLU()
    (4): Linear(in_features=10, out_features=5, bias=True)
    (5): ReLU()
  )
)>AE2<bound method Module.state_dict of Encoder(
  (encoder): Sequential(
    (0): Linear(in_features=40, out_features=20, bias=True)
    (1): ReLU()
    (2): Linear(in_features=20, out_features=10, bias=True)
    (3): ReLU()
    (4): Linear(in_features=10, out_features=5, bias=True)
    (5): ReLU()
  )
)>AE1<bound method Module.state_dict of Encoder(
  (encoder): Sequential(
    (0): Linear(in_features=40, out_features=20, bias=True)
    (1): ReLU()
    (2): Linear(in_features=20, out_features=10, bias=True)
    (3): ReLU()
    (4): Linear(in_features=10, out_features=5, bias=True)
    (5): ReLU()
  )
)>AE2<bound method Module.state_dict of Encoder(
  (encoder): Sequential(
    (0): Linear(in_features=40, out_features=20, bias=True)
    (1): ReLU()
    (2): Linear(in_features=20, out_features=10, bias=True)
    (3): ReLU()
    (4): Linear(in_features=10, out_features=5, bias=True)
    (5): ReLU()
  )
)>AE1<bound method Module.state_dict of Encoder(
  (encoder): Sequential(
    (0): Linear(in_features=40, out_features=20, bias=True)
    (1): ReLU()
    (2): Linear(in_features=20, out_features=10, bias=True)
    (3): ReLU()
    (4): Linear(in_features=10, out_features=5, bias=True)
    (5): ReLU()
  )
)>AE2<bound method Module.state_dict of Encoder(
  (encoder): Sequential(
    (0): Linear(in_features=40, out_features=20, bias=True)
    (1): ReLU()
    (2): Linear(in_features=20, out_features=10, bias=True)
    (3): ReLU()
    (4): Linear(in_features=10, out_features=5, bias=True)
    (5): ReLU()
  )
)>AE1<bound method Module.state_dict of Encoder(
  (encoder): Sequential(
    (0): Linear(in_features=40, out_features=20, bias=True)
    (1): ReLU()
    (2): Linear(in_features=20, out_features=10, bias=True)
    (3): ReLU()
    (4): Linear(in_features=10, out_features=5, bias=True)
    (5): ReLU()
  )
)>AE2<bound method Module.state_dict of Encoder(
  (encoder): Sequential(
    (0): Linear(in_features=40, out_features=20, bias=True)
    (1): ReLU()
    (2): Linear(in_features=20, out_features=10, bias=True)
    (3): ReLU()
    (4): Linear(in_features=10, out_features=5, bias=True)
    (5): ReLU()
  )
)>AE1<bound method Module.state_dict of Encoder(
  (encoder): Sequential(
    (0): Linear(in_features=40, out_features=20, bias=True)
    (1): ReLU()
    (2): Linear(in_features=20, out_features=10, bias=True)
    (3): ReLU()
    (4): Linear(in_features=10, out_features=5, bias=True)
    (5): ReLU()
  )
)>AE2<bound method Module.state_dict of Encoder(
  (encoder): Sequential(
    (0): Linear(in_features=40, out_features=20, bias=True)
    (1): ReLU()
    (2): Linear(in_features=20, out_features=10, bias=True)
    (3): ReLU()
    (4): Linear(in_features=10, out_features=5, bias=True)
    (5): ReLU()
  )
)>AE1<bound method Module.state_dict of Encoder(
  (encoder): Sequential(
    (0): Linear(in_features=40, out_features=20, bias=True)
    (1): ReLU()
    (2): Linear(in_features=20, out_features=10, bias=True)
    (3): ReLU()
    (4): Linear(in_features=10, out_features=5, bias=True)
    (5): ReLU()
  )
)>AE2<bound method Module.state_dict of Encoder(
  (encoder): Sequential(
    (0): Linear(in_features=40, out_features=20, bias=True)
    (1): ReLU()
    (2): Linear(in_features=20, out_features=10, bias=True)
    (3): ReLU()
    (4): Linear(in_features=10, out_features=5, bias=True)
    (5): ReLU()
  )
)>AE1<bound method Module.state_dict of Encoder(
  (encoder): Sequential(
    (0): Linear(in_features=40, out_features=20, bias=True)
    (1): ReLU()
    (2): Linear(in_features=20, out_features=10, bias=True)
    (3): ReLU()
    (4): Linear(in_features=10, out_features=5, bias=True)
    (5): ReLU()
  )
)>AE2<bound method Module.state_dict of Encoder(
  (encoder): Sequential(
    (0): Linear(in_features=40, out_features=20, bias=True)
    (1): ReLU()
    (2): Linear(in_features=20, out_features=10, bias=True)
    (3): ReLU()
    (4): Linear(in_features=10, out_features=5, bias=True)
    (5): ReLU()
  )
)>AE1<bound method Module.state_dict of Encoder(
  (encoder): Sequential(
    (0): Linear(in_features=40, out_features=20, bias=True)
    (1): ReLU()
    (2): Linear(in_features=20, out_features=10, bias=True)
    (3): ReLU()
    (4): Linear(in_features=10, out_features=5, bias=True)
    (5): ReLU()
  )
)>AE2<bound method Module.state_dict of Encoder(
  (encoder): Sequential(
    (0): Linear(in_features=40, out_features=20, bias=True)
    (1): ReLU()
    (2): Linear(in_features=20, out_features=10, bias=True)
    (3): ReLU()
    (4): Linear(in_features=10, out_features=5, bias=True)
    (5): ReLU()
  )
)>AE1<bound method Module.state_dict of Encoder(
  (encoder): Sequential(
    (0): Linear(in_features=40, out_features=20, bias=True)
    (1): ReLU()
    (2): Linear(in_features=20, out_features=10, bias=True)
    (3): ReLU()
    (4): Linear(in_features=10, out_features=5, bias=True)
    (5): ReLU()
  )
)>AE2<bound method Module.state_dict of Encoder(
  (encoder): Sequential(
    (0): Linear(in_features=40, out_features=20, bias=True)
    (1): ReLU()
    (2): Linear(in_features=20, out_features=10, bias=True)
    (3): ReLU()
    (4): Linear(in_features=10, out_features=5, bias=True)
    (5): ReLU()
  )
)>AE1<bound method Module.state_dict of Encoder(
  (encoder): Sequential(
    (0): Linear(in_features=40, out_features=20, bias=True)
    (1): ReLU()
    (2): Linear(in_features=20, out_features=10, bias=True)
    (3): ReLU()
    (4): Linear(in_features=10, out_features=5, bias=True)
    (5): ReLU()
  )
)>AE2<bound method Module.state_dict of Encoder(
  (encoder): Sequential(
    (0): Linear(in_features=40, out_features=20, bias=True)
    (1): ReLU()
    (2): Linear(in_features=20, out_features=10, bias=True)
    (3): ReLU()
    (4): Linear(in_features=10, out_features=5, bias=True)
    (5): ReLU()
  )
)>AE1<bound method Module.state_dict of Encoder(
  (encoder): Sequential(
    (0): Linear(in_features=40, out_features=20, bias=True)
    (1): ReLU()
    (2): Linear(in_features=20, out_features=10, bias=True)
    (3): ReLU()
    (4): Linear(in_features=10, out_features=5, bias=True)
    (5): ReLU()
  )
)>AE2<bound method Module.state_dict of Encoder(
  (encoder): Sequential(
    (0): Linear(in_features=40, out_features=20, bias=True)
    (1): ReLU()
    (2): Linear(in_features=20, out_features=10, bias=True)
    (3): ReLU()
    (4): Linear(in_features=10, out_features=5, bias=True)
    (5): ReLU()
  )
)>AE1<bound method Module.state_dict of Encoder(
  (encoder): Sequential(
    (0): Linear(in_features=40, out_features=20, bias=True)
    (1): ReLU()
    (2): Linear(in_features=20, out_features=10, bias=True)
    (3): ReLU()
    (4): Linear(in_features=10, out_features=5, bias=True)
    (5): ReLU()
  )
)>AE2<bound method Module.state_dict of Encoder(
  (encoder): Sequential(
    (0): Linear(in_features=40, out_features=20, bias=True)
    (1): ReLU()
    (2): Linear(in_features=20, out_features=10, bias=True)
    (3): ReLU()
    (4): Linear(in_features=10, out_features=5, bias=True)
    (5): ReLU()
  )
)>AE1<bound method Module.state_dict of Encoder(
  (encoder): Sequential(
    (0): Linear(in_features=40, out_features=20, bias=True)
    (1): ReLU()
    (2): Linear(in_features=20, out_features=10, bias=True)
    (3): ReLU()
    (4): Linear(in_features=10, out_features=5, bias=True)
    (5): ReLU()
  )
)>AE2<bound method Module.state_dict of Encoder(
  (encoder): Sequential(
    (0): Linear(in_features=40, out_features=20, bias=True)
    (1): ReLU()
    (2): Linear(in_features=20, out_features=10, bias=True)
    (3): ReLU()
    (4): Linear(in_features=10, out_features=5, bias=True)
    (5): ReLU()
  )
)>AE1<bound method Module.state_dict of Encoder(
  (encoder): Sequential(
    (0): Linear(in_features=40, out_features=20, bias=True)
    (1): ReLU()
    (2): Linear(in_features=20, out_features=10, bias=True)
    (3): ReLU()
    (4): Linear(in_features=10, out_features=5, bias=True)
    (5): ReLU()
  )
)>AE2<bound method Module.state_dict of Encoder(
  (encoder): Sequential(
    (0): Linear(in_features=40, out_features=20, bias=True)
    (1): ReLU()
    (2): Linear(in_features=20, out_features=10, bias=True)
    (3): ReLU()
    (4): Linear(in_features=10, out_features=5, bias=True)
    (5): ReLU()
  )
)>AE1<bound method Module.state_dict of Encoder(
  (encoder): Sequential(
    (0): Linear(in_features=40, out_features=20, bias=True)
    (1): ReLU()
    (2): Linear(in_features=20, out_features=10, bias=True)
    (3): ReLU()
    (4): Linear(in_features=10, out_features=5, bias=True)
    (5): ReLU()
  )
)>AE2<bound method Module.state_dict of Encoder(
  (encoder): Sequential(
    (0): Linear(in_features=40, out_features=20, bias=True)
    (1): ReLU()
    (2): Linear(in_features=20, out_features=10, bias=True)
    (3): ReLU()
    (4): Linear(in_features=10, out_features=5, bias=True)
    (5): ReLU()
  )
)>AE1<bound method Module.state_dict of Encoder(
  (encoder): Sequential(
    (0): Linear(in_features=40, out_features=20, bias=True)
    (1): ReLU()
    (2): Linear(in_features=20, out_features=10, bias=True)
    (3): ReLU()
    (4): Linear(in_features=10, out_features=5, bias=True)
    (5): ReLU()
  )
)>AE2<bound method Module.state_dict of Encoder(
  (encoder): Sequential(
    (0): Linear(in_features=40, out_features=20, bias=True)
    (1): ReLU()
    (2): Linear(in_features=20, out_features=10, bias=True)
    (3): ReLU()
    (4): Linear(in_features=10, out_features=5, bias=True)
    (5): ReLU()
  )
)>AE1<bound method Module.state_dict of Encoder(
  (encoder): Sequential(
    (0): Linear(in_features=40, out_features=20, bias=True)
    (1): ReLU()
    (2): Linear(in_features=20, out_features=10, bias=True)
    (3): ReLU()
    (4): Linear(in_features=10, out_features=5, bias=True)
    (5): ReLU()
  )
)>AE2<bound method Module.state_dict of Encoder(
  (encoder): Sequential(
    (0): Linear(in_features=40, out_features=20, bias=True)
    (1): ReLU()
    (2): Linear(in_features=20, out_features=10, bias=True)
    (3): ReLU()
    (4): Linear(in_features=10, out_features=5, bias=True)
    (5): ReLU()
  )
)>AE1<bound method Module.state_dict of Encoder(
  (encoder): Sequential(
    (0): Linear(in_features=40, out_features=20, bias=True)
    (1): ReLU()
    (2): Linear(in_features=20, out_features=10, bias=True)
    (3): ReLU()
    (4): Linear(in_features=10, out_features=5, bias=True)
    (5): ReLU()
  )
)>AE2<bound method Module.state_dict of Encoder(
  (encoder): Sequential(
    (0): Linear(in_features=40, out_features=20, bias=True)
    (1): ReLU()
    (2): Linear(in_features=20, out_features=10, bias=True)
    (3): ReLU()
    (4): Linear(in_features=10, out_features=5, bias=True)
    (5): ReLU()
  )
)>AE1<bound method Module.state_dict of Encoder(
  (encoder): Sequential(
    (0): Linear(in_features=40, out_features=20, bias=True)
    (1): ReLU()
    (2): Linear(in_features=20, out_features=10, bias=True)
    (3): ReLU()
    (4): Linear(in_features=10, out_features=5, bias=True)
    (5): ReLU()
  )
)>AE2<bound method Module.state_dict of Encoder(
  (encoder): Sequential(
    (0): Linear(in_features=40, out_features=20, bias=True)
    (1): ReLU()
    (2): Linear(in_features=20, out_features=10, bias=True)
    (3): ReLU()
    (4): Linear(in_features=10, out_features=5, bias=True)
    (5): ReLU()
  )
)>AE1<bound method Module.state_dict of Encoder(
  (encoder): Sequential(
    (0): Linear(in_features=40, out_features=20, bias=True)
    (1): ReLU()
    (2): Linear(in_features=20, out_features=10, bias=True)
    (3): ReLU()
    (4): Linear(in_features=10, out_features=5, bias=True)
    (5): ReLU()
  )
)>AE2<bound method Module.state_dict of Encoder(
  (encoder): Sequential(
    (0): Linear(in_features=40, out_features=20, bias=True)
    (1): ReLU()
    (2): Linear(in_features=20, out_features=10, bias=True)
    (3): ReLU()
    (4): Linear(in_features=10, out_features=5, bias=True)
    (5): ReLU()
  )
)>AE1<bound method Module.state_dict of Encoder(
  (encoder): Sequential(
    (0): Linear(in_features=40, out_features=20, bias=True)
    (1): ReLU()
    (2): Linear(in_features=20, out_features=10, bias=True)
    (3): ReLU()
    (4): Linear(in_features=10, out_features=5, bias=True)
    (5): ReLU()
  )
)>AE2<bound method Module.state_dict of Encoder(
  (encoder): Sequential(
    (0): Linear(in_features=40, out_features=20, bias=True)
    (1): ReLU()
    (2): Linear(in_features=20, out_features=10, bias=True)
    (3): ReLU()
    (4): Linear(in_features=10, out_features=5, bias=True)
    (5): ReLU()
  )
)>AE1<bound method Module.state_dict of Encoder(
  (encoder): Sequential(
    (0): Linear(in_features=40, out_features=20, bias=True)
    (1): ReLU()
    (2): Linear(in_features=20, out_features=10, bias=True)
    (3): ReLU()
    (4): Linear(in_features=10, out_features=5, bias=True)
    (5): ReLU()
  )
)>AE2<bound method Module.state_dict of Encoder(
  (encoder): Sequential(
    (0): Linear(in_features=40, out_features=20, bias=True)
    (1): ReLU()
    (2): Linear(in_features=20, out_features=10, bias=True)
    (3): ReLU()
    (4): Linear(in_features=10, out_features=5, bias=True)
    (5): ReLU()
  )
)>AE1<bound method Module.state_dict of Encoder(
  (encoder): Sequential(
    (0): Linear(in_features=40, out_features=20, bias=True)
    (1): ReLU()
    (2): Linear(in_features=20, out_features=10, bias=True)
    (3): ReLU()
    (4): Linear(in_features=10, out_features=5, bias=True)
    (5): ReLU()
  )
)>AE2<bound method Module.state_dict of Encoder(
  (encoder): Sequential(
    (0): Linear(in_features=40, out_features=20, bias=True)
    (1): ReLU()
    (2): Linear(in_features=20, out_features=10, bias=True)
    (3): ReLU()
    (4): Linear(in_features=10, out_features=5, bias=True)
    (5): ReLU()
  )
)>AE1<bound method Module.state_dict of Encoder(
  (encoder): Sequential(
    (0): Linear(in_features=40, out_features=20, bias=True)
    (1): ReLU()
    (2): Linear(in_features=20, out_features=10, bias=True)
    (3): ReLU()
    (4): Linear(in_features=10, out_features=5, bias=True)
    (5): ReLU()
  )
)>AE2<bound method Module.state_dict of Encoder(
  (encoder): Sequential(
    (0): Linear(in_features=40, out_features=20, bias=True)
    (1): ReLU()
    (2): Linear(in_features=20, out_features=10, bias=True)
    (3): ReLU()
    (4): Linear(in_features=10, out_features=5, bias=True)
    (5): ReLU()
  )
)>AE1<bound method Module.state_dict of Encoder(
  (encoder): Sequential(
    (0): Linear(in_features=40, out_features=20, bias=True)
    (1): ReLU()
    (2): Linear(in_features=20, out_features=10, bias=True)
    (3): ReLU()
    (4): Linear(in_features=10, out_features=5, bias=True)
    (5): ReLU()
  )
)>AE2<bound method Module.state_dict of Encoder(
  (encoder): Sequential(
    (0): Linear(in_features=40, out_features=20, bias=True)
    (1): ReLU()
    (2): Linear(in_features=20, out_features=10, bias=True)
    (3): ReLU()
    (4): Linear(in_features=10, out_features=5, bias=True)
    (5): ReLU()
  )
)>AE1<bound method Module.state_dict of Encoder(
  (encoder): Sequential(
    (0): Linear(in_features=40, out_features=20, bias=True)
    (1): ReLU()
    (2): Linear(in_features=20, out_features=10, bias=True)
    (3): ReLU()
    (4): Linear(in_features=10, out_features=5, bias=True)
    (5): ReLU()
  )
)>AE2<bound method Module.state_dict of Encoder(
  (encoder): Sequential(
    (0): Linear(in_features=40, out_features=20, bias=True)
    (1): ReLU()
    (2): Linear(in_features=20, out_features=10, bias=True)
    (3): ReLU()
    (4): Linear(in_features=10, out_features=5, bias=True)
    (5): ReLU()
  )
)>AE1<bound method Module.state_dict of Encoder(
  (encoder): Sequential(
    (0): Linear(in_features=40, out_features=20, bias=True)
    (1): ReLU()
    (2): Linear(in_features=20, out_features=10, bias=True)
    (3): ReLU()
    (4): Linear(in_features=10, out_features=5, bias=True)
    (5): ReLU()
  )
)>AE2<bound method Module.state_dict of Encoder(
  (encoder): Sequential(
    (0): Linear(in_features=40, out_features=20, bias=True)
    (1): ReLU()
    (2): Linear(in_features=20, out_features=10, bias=True)
    (3): ReLU()
    (4): Linear(in_features=10, out_features=5, bias=True)
    (5): ReLU()
  )
)>AE1<bound method Module.state_dict of Encoder(
  (encoder): Sequential(
    (0): Linear(in_features=40, out_features=20, bias=True)
    (1): ReLU()
    (2): Linear(in_features=20, out_features=10, bias=True)
    (3): ReLU()
    (4): Linear(in_features=10, out_features=5, bias=True)
    (5): ReLU()
  )
)>AE2<bound method Module.state_dict of Encoder(
  (encoder): Sequential(
    (0): Linear(in_features=40, out_features=20, bias=True)
    (1): ReLU()
    (2): Linear(in_features=20, out_features=10, bias=True)
    (3): ReLU()
    (4): Linear(in_features=10, out_features=5, bias=True)
    (5): ReLU()
  )
)>AE1<bound method Module.state_dict of Encoder(
  (encoder): Sequential(
    (0): Linear(in_features=40, out_features=20, bias=True)
    (1): ReLU()
    (2): Linear(in_features=20, out_features=10, bias=True)
    (3): ReLU()
    (4): Linear(in_features=10, out_features=5, bias=True)
    (5): ReLU()
  )
)>AE2<bound method Module.state_dict of Encoder(
  (encoder): Sequential(
    (0): Linear(in_features=40, out_features=20, bias=True)
    (1): ReLU()
    (2): Linear(in_features=20, out_features=10, bias=True)
    (3): ReLU()
    (4): Linear(in_features=10, out_features=5, bias=True)
    (5): ReLU()
  )
)>AE1<bound method Module.state_dict of Encoder(
  (encoder): Sequential(
    (0): Linear(in_features=40, out_features=20, bias=True)
    (1): ReLU()
    (2): Linear(in_features=20, out_features=10, bias=True)
    (3): ReLU()
    (4): Linear(in_features=10, out_features=5, bias=True)
    (5): ReLU()
  )
)>AE2<bound method Module.state_dict of Encoder(
  (encoder): Sequential(
    (0): Linear(in_features=40, out_features=20, bias=True)
    (1): ReLU()
    (2): Linear(in_features=20, out_features=10, bias=True)
    (3): ReLU()
    (4): Linear(in_features=10, out_features=5, bias=True)
    (5): ReLU()
  )
)>AE1<bound method Module.state_dict of Encoder(
  (encoder): Sequential(
    (0): Linear(in_features=40, out_features=20, bias=True)
    (1): ReLU()
    (2): Linear(in_features=20, out_features=10, bias=True)
    (3): ReLU()
    (4): Linear(in_features=10, out_features=5, bias=True)
    (5): ReLU()
  )
)>AE2<bound method Module.state_dict of Encoder(
  (encoder): Sequential(
    (0): Linear(in_features=40, out_features=20, bias=True)
    (1): ReLU()
    (2): Linear(in_features=20, out_features=10, bias=True)
    (3): ReLU()
    (4): Linear(in_features=10, out_features=5, bias=True)
    (5): ReLU()
  )
)>AE1<bound method Module.state_dict of Encoder(
  (encoder): Sequential(
    (0): Linear(in_features=40, out_features=20, bias=True)
    (1): ReLU()
    (2): Linear(in_features=20, out_features=10, bias=True)
    (3): ReLU()
    (4): Linear(in_features=10, out_features=5, bias=True)
    (5): ReLU()
  )
)>AE2<bound method Module.state_dict of Encoder(
  (encoder): Sequential(
    (0): Linear(in_features=40, out_features=20, bias=True)
    (1): ReLU()
    (2): Linear(in_features=20, out_features=10, bias=True)
    (3): ReLU()
    (4): Linear(in_features=10, out_features=5, bias=True)
    (5): ReLU()
  )
)>AE1<bound method Module.state_dict of Encoder(
  (encoder): Sequential(
    (0): Linear(in_features=40, out_features=20, bias=True)
    (1): ReLU()
    (2): Linear(in_features=20, out_features=10, bias=True)
    (3): ReLU()
    (4): Linear(in_features=10, out_features=5, bias=True)
    (5): ReLU()
  )
)>AE2<bound method Module.state_dict of Encoder(
  (encoder): Sequential(
    (0): Linear(in_features=40, out_features=20, bias=True)
    (1): ReLU()
    (2): Linear(in_features=20, out_features=10, bias=True)
    (3): ReLU()
    (4): Linear(in_features=10, out_features=5, bias=True)
    (5): ReLU()
  )
)>AE1<bound method Module.state_dict of Encoder(
  (encoder): Sequential(
    (0): Linear(in_features=40, out_features=20, bias=True)
    (1): ReLU()
    (2): Linear(in_features=20, out_features=10, bias=True)
    (3): ReLU()
    (4): Linear(in_features=10, out_features=5, bias=True)
    (5): ReLU()
  )
)>AE2<bound method Module.state_dict of Encoder(
  (encoder): Sequential(
    (0): Linear(in_features=40, out_features=20, bias=True)
    (1): ReLU()
    (2): Linear(in_features=20, out_features=10, bias=True)
    (3): ReLU()
    (4): Linear(in_features=10, out_features=5, bias=True)
    (5): ReLU()
  )
)>AE1<bound method Module.state_dict of Encoder(
  (encoder): Sequential(
    (0): Linear(in_features=40, out_features=20, bias=True)
    (1): ReLU()
    (2): Linear(in_features=20, out_features=10, bias=True)
    (3): ReLU()
    (4): Linear(in_features=10, out_features=5, bias=True)
    (5): ReLU()
  )
)>AE2<bound method Module.state_dict of Encoder(
  (encoder): Sequential(
    (0): Linear(in_features=40, out_features=20, bias=True)
    (1): ReLU()
    (2): Linear(in_features=20, out_features=10, bias=True)
    (3): ReLU()
    (4): Linear(in_features=10, out_features=5, bias=True)
    (5): ReLU()
  )
)>AE1<bound method Module.state_dict of Encoder(
  (encoder): Sequential(
    (0): Linear(in_features=40, out_features=20, bias=True)
    (1): ReLU()
    (2): Linear(in_features=20, out_features=10, bias=True)
    (3): ReLU()
    (4): Linear(in_features=10, out_features=5, bias=True)
    (5): ReLU()
  )
)>AE2<bound method Module.state_dict of Encoder(
  (encoder): Sequential(
    (0): Linear(in_features=40, out_features=20, bias=True)
    (1): ReLU()
    (2): Linear(in_features=20, out_features=10, bias=True)
    (3): ReLU()
    (4): Linear(in_features=10, out_features=5, bias=True)
    (5): ReLU()
  )
)>AE1<bound method Module.state_dict of Encoder(
  (encoder): Sequential(
    (0): Linear(in_features=40, out_features=20, bias=True)
    (1): ReLU()
    (2): Linear(in_features=20, out_features=10, bias=True)
    (3): ReLU()
    (4): Linear(in_features=10, out_features=5, bias=True)
    (5): ReLU()
  )
)>AE2<bound method Module.state_dict of Encoder(
  (encoder): Sequential(
    (0): Linear(in_features=40, out_features=20, bias=True)
    (1): ReLU()
    (2): Linear(in_features=20, out_features=10, bias=True)
    (3): ReLU()
    (4): Linear(in_features=10, out_features=5, bias=True)
    (5): ReLU()
  )
)>AE1<bound method Module.state_dict of Encoder(
  (encoder): Sequential(
    (0): Linear(in_features=40, out_features=20, bias=True)
    (1): ReLU()
    (2): Linear(in_features=20, out_features=10, bias=True)
    (3): ReLU()
    (4): Linear(in_features=10, out_features=5, bias=True)
    (5): ReLU()
  )
)>AE2<bound method Module.state_dict of Encoder(
  (encoder): Sequential(
    (0): Linear(in_features=40, out_features=20, bias=True)
    (1): ReLU()
    (2): Linear(in_features=20, out_features=10, bias=True)
    (3): ReLU()
    (4): Linear(in_features=10, out_features=5, bias=True)
    (5): ReLU()
  )
)>AE1<bound method Module.state_dict of Encoder(
  (encoder): Sequential(
    (0): Linear(in_features=40, out_features=20, bias=True)
    (1): ReLU()
    (2): Linear(in_features=20, out_features=10, bias=True)
    (3): ReLU()
    (4): Linear(in_features=10, out_features=5, bias=True)
    (5): ReLU()
  )
)>AE2<bound method Module.state_dict of Encoder(
  (encoder): Sequential(
    (0): Linear(in_features=40, out_features=20, bias=True)
    (1): ReLU()
    (2): Linear(in_features=20, out_features=10, bias=True)
    (3): ReLU()
    (4): Linear(in_features=10, out_features=5, bias=True)
    (5): ReLU()
  )
)>AE1<bound method Module.state_dict of Encoder(
  (encoder): Sequential(
    (0): Linear(in_features=40, out_features=20, bias=True)
    (1): ReLU()
    (2): Linear(in_features=20, out_features=10, bias=True)
    (3): ReLU()
    (4): Linear(in_features=10, out_features=5, bias=True)
    (5): ReLU()
  )
)>AE2<bound method Module.state_dict of Encoder(
  (encoder): Sequential(
    (0): Linear(in_features=40, out_features=20, bias=True)
    (1): ReLU()
    (2): Linear(in_features=20, out_features=10, bias=True)
    (3): ReLU()
    (4): Linear(in_features=10, out_features=5, bias=True)
    (5): ReLU()
  )
)>AE1<bound method Module.state_dict of Encoder(
  (encoder): Sequential(
    (0): Linear(in_features=40, out_features=20, bias=True)
    (1): ReLU()
    (2): Linear(in_features=20, out_features=10, bias=True)
    (3): ReLU()
    (4): Linear(in_features=10, out_features=5, bias=True)
    (5): ReLU()
  )
)>AE2<bound method Module.state_dict of Encoder(
  (encoder): Sequential(
    (0): Linear(in_features=40, out_features=20, bias=True)
    (1): ReLU()
    (2): Linear(in_features=20, out_features=10, bias=True)
    (3): ReLU()
    (4): Linear(in_features=10, out_features=5, bias=True)
    (5): ReLU()
  )
)>AE1<bound method Module.state_dict of Encoder(
  (encoder): Sequential(
    (0): Linear(in_features=40, out_features=20, bias=True)
    (1): ReLU()
    (2): Linear(in_features=20, out_features=10, bias=True)
    (3): ReLU()
    (4): Linear(in_features=10, out_features=5, bias=True)
    (5): ReLU()
  )
)>AE2<bound method Module.state_dict of Encoder(
  (encoder): Sequential(
    (0): Linear(in_features=40, out_features=20, bias=True)
    (1): ReLU()
    (2): Linear(in_features=20, out_features=10, bias=True)
    (3): ReLU()
    (4): Linear(in_features=10, out_features=5, bias=True)
    (5): ReLU()
  )
)>AE1<bound method Module.state_dict of Encoder(
  (encoder): Sequential(
    (0): Linear(in_features=40, out_features=20, bias=True)
    (1): ReLU()
    (2): Linear(in_features=20, out_features=10, bias=True)
    (3): ReLU()
    (4): Linear(in_features=10, out_features=5, bias=True)
    (5): ReLU()
  )
)>AE2<bound method Module.state_dict of Encoder(
  (encoder): Sequential(
    (0): Linear(in_features=40, out_features=20, bias=True)
    (1): ReLU()
    (2): Linear(in_features=20, out_features=10, bias=True)
    (3): ReLU()
    (4): Linear(in_features=10, out_features=5, bias=True)
    (5): ReLU()
  )
)>AE1<bound method Module.state_dict of Encoder(
  (encoder): Sequential(
    (0): Linear(in_features=40, out_features=20, bias=True)
    (1): ReLU()
    (2): Linear(in_features=20, out_features=10, bias=True)
    (3): ReLU()
    (4): Linear(in_features=10, out_features=5, bias=True)
    (5): ReLU()
  )
)>AE2<bound method Module.state_dict of Encoder(
  (encoder): Sequential(
    (0): Linear(in_features=40, out_features=20, bias=True)
    (1): ReLU()
    (2): Linear(in_features=20, out_features=10, bias=True)
    (3): ReLU()
    (4): Linear(in_features=10, out_features=5, bias=True)
    (5): ReLU()
  )
)>AE1<bound method Module.state_dict of Encoder(
  (encoder): Sequential(
    (0): Linear(in_features=40, out_features=20, bias=True)
    (1): ReLU()
    (2): Linear(in_features=20, out_features=10, bias=True)
    (3): ReLU()
    (4): Linear(in_features=10, out_features=5, bias=True)
    (5): ReLU()
  )
)>AE2<bound method Module.state_dict of Encoder(
  (encoder): Sequential(
    (0): Linear(in_features=40, out_features=20, bias=True)
    (1): ReLU()
    (2): Linear(in_features=20, out_features=10, bias=True)
    (3): ReLU()
    (4): Linear(in_features=10, out_features=5, bias=True)
    (5): ReLU()
  )
)>AE1<bound method Module.state_dict of Encoder(
  (encoder): Sequential(
    (0): Linear(in_features=40, out_features=20, bias=True)
    (1): ReLU()
    (2): Linear(in_features=20, out_features=10, bias=True)
    (3): ReLU()
    (4): Linear(in_features=10, out_features=5, bias=True)
    (5): ReLU()
  )
)>AE2<bound method Module.state_dict of Encoder(
  (encoder): Sequential(
    (0): Linear(in_features=40, out_features=20, bias=True)
    (1): ReLU()
    (2): Linear(in_features=20, out_features=10, bias=True)
    (3): ReLU()
    (4): Linear(in_features=10, out_features=5, bias=True)
    (5): ReLU()
  )
)>AE1<bound method Module.state_dict of Encoder(
  (encoder): Sequential(
    (0): Linear(in_features=40, out_features=20, bias=True)
    (1): ReLU()
    (2): Linear(in_features=20, out_features=10, bias=True)
    (3): ReLU()
    (4): Linear(in_features=10, out_features=5, bias=True)
    (5): ReLU()
  )
)>AE2<bound method Module.state_dict of Encoder(
  (encoder): Sequential(
    (0): Linear(in_features=40, out_features=20, bias=True)
    (1): ReLU()
    (2): Linear(in_features=20, out_features=10, bias=True)
    (3): ReLU()
    (4): Linear(in_features=10, out_features=5, bias=True)
    (5): ReLU()
  )
)>AE1<bound method Module.state_dict of Encoder(
  (encoder): Sequential(
    (0): Linear(in_features=40, out_features=20, bias=True)
    (1): ReLU()
    (2): Linear(in_features=20, out_features=10, bias=True)
    (3): ReLU()
    (4): Linear(in_features=10, out_features=5, bias=True)
    (5): ReLU()
  )
)>AE2<bound method Module.state_dict of Encoder(
  (encoder): Sequential(
    (0): Linear(in_features=40, out_features=20, bias=True)
    (1): ReLU()
    (2): Linear(in_features=20, out_features=10, bias=True)
    (3): ReLU()
    (4): Linear(in_features=10, out_features=5, bias=True)
    (5): ReLU()
  )
)>AE1<bound method Module.state_dict of Encoder(
  (encoder): Sequential(
    (0): Linear(in_features=40, out_features=20, bias=True)
    (1): ReLU()
    (2): Linear(in_features=20, out_features=10, bias=True)
    (3): ReLU()
    (4): Linear(in_features=10, out_features=5, bias=True)
    (5): ReLU()
  )
)>AE2<bound method Module.state_dict of Encoder(
  (encoder): Sequential(
    (0): Linear(in_features=40, out_features=20, bias=True)
    (1): ReLU()
    (2): Linear(in_features=20, out_features=10, bias=True)
    (3): ReLU()
    (4): Linear(in_features=10, out_features=5, bias=True)
    (5): ReLU()
  )
)>AE1<bound method Module.state_dict of Encoder(
  (encoder): Sequential(
    (0): Linear(in_features=40, out_features=20, bias=True)
    (1): ReLU()
    (2): Linear(in_features=20, out_features=10, bias=True)
    (3): ReLU()
    (4): Linear(in_features=10, out_features=5, bias=True)
    (5): ReLU()
  )
)>AE2<bound method Module.state_dict of Encoder(
  (encoder): Sequential(
    (0): Linear(in_features=40, out_features=20, bias=True)
    (1): ReLU()
    (2): Linear(in_features=20, out_features=10, bias=True)
    (3): ReLU()
    (4): Linear(in_features=10, out_features=5, bias=True)
    (5): ReLU()
  )
)>AE1<bound method Module.state_dict of Encoder(
  (encoder): Sequential(
    (0): Linear(in_features=40, out_features=20, bias=True)
    (1): ReLU()
    (2): Linear(in_features=20, out_features=10, bias=True)
    (3): ReLU()
    (4): Linear(in_features=10, out_features=5, bias=True)
    (5): ReLU()
  )
)>AE2<bound method Module.state_dict of Encoder(
  (encoder): Sequential(
    (0): Linear(in_features=40, out_features=20, bias=True)
    (1): ReLU()
    (2): Linear(in_features=20, out_features=10, bias=True)
    (3): ReLU()
    (4): Linear(in_features=10, out_features=5, bias=True)
    (5): ReLU()
  )
)>AE1<bound method Module.state_dict of Encoder(
  (encoder): Sequential(
    (0): Linear(in_features=40, out_features=20, bias=True)
    (1): ReLU()
    (2): Linear(in_features=20, out_features=10, bias=True)
    (3): ReLU()
    (4): Linear(in_features=10, out_features=5, bias=True)
    (5): ReLU()
  )
)>AE2<bound method Module.state_dict of Encoder(
  (encoder): Sequential(
    (0): Linear(in_features=40, out_features=20, bias=True)
    (1): ReLU()
    (2): Linear(in_features=20, out_features=10, bias=True)
    (3): ReLU()
    (4): Linear(in_features=10, out_features=5, bias=True)
    (5): ReLU()
  )
)>AE1<bound method Module.state_dict of Encoder(
  (encoder): Sequential(
    (0): Linear(in_features=40, out_features=20, bias=True)
    (1): ReLU()
    (2): Linear(in_features=20, out_features=10, bias=True)
    (3): ReLU()
    (4): Linear(in_features=10, out_features=5, bias=True)
    (5): ReLU()
  )
)>AE2<bound method Module.state_dict of Encoder(
  (encoder): Sequential(
    (0): Linear(in_features=40, out_features=20, bias=True)
    (1): ReLU()
    (2): Linear(in_features=20, out_features=10, bias=True)
    (3): ReLU()
    (4): Linear(in_features=10, out_features=5, bias=True)
    (5): ReLU()
  )
)>AE1<bound method Module.state_dict of Encoder(
  (encoder): Sequential(
    (0): Linear(in_features=40, out_features=20, bias=True)
    (1): ReLU()
    (2): Linear(in_features=20, out_features=10, bias=True)
    (3): ReLU()
    (4): Linear(in_features=10, out_features=5, bias=True)
    (5): ReLU()
  )
)>AE2<bound method Module.state_dict of Encoder(
  (encoder): Sequential(
    (0): Linear(in_features=40, out_features=20, bias=True)
    (1): ReLU()
    (2): Linear(in_features=20, out_features=10, bias=True)
    (3): ReLU()
    (4): Linear(in_features=10, out_features=5, bias=True)
    (5): ReLU()
  )
)>AE1<bound method Module.state_dict of Encoder(
  (encoder): Sequential(
    (0): Linear(in_features=40, out_features=20, bias=True)
    (1): ReLU()
    (2): Linear(in_features=20, out_features=10, bias=True)
    (3): ReLU()
    (4): Linear(in_features=10, out_features=5, bias=True)
    (5): ReLU()
  )
)>AE2<bound method Module.state_dict of Encoder(
  (encoder): Sequential(
    (0): Linear(in_features=40, out_features=20, bias=True)
    (1): ReLU()
    (2): Linear(in_features=20, out_features=10, bias=True)
    (3): ReLU()
    (4): Linear(in_features=10, out_features=5, bias=True)
    (5): ReLU()
  )
)>AE1<bound method Module.state_dict of Encoder(
  (encoder): Sequential(
    (0): Linear(in_features=40, out_features=20, bias=True)
    (1): ReLU()
    (2): Linear(in_features=20, out_features=10, bias=True)
    (3): ReLU()
    (4): Linear(in_features=10, out_features=5, bias=True)
    (5): ReLU()
  )
)>AE2<bound method Module.state_dict of Encoder(
  (encoder): Sequential(
    (0): Linear(in_features=40, out_features=20, bias=True)
    (1): ReLU()
    (2): Linear(in_features=20, out_features=10, bias=True)
    (3): ReLU()
    (4): Linear(in_features=10, out_features=5, bias=True)
    (5): ReLU()
  )
)>AE1<bound method Module.state_dict of Encoder(
  (encoder): Sequential(
    (0): Linear(in_features=40, out_features=20, bias=True)
    (1): ReLU()
    (2): Linear(in_features=20, out_features=10, bias=True)
    (3): ReLU()
    (4): Linear(in_features=10, out_features=5, bias=True)
    (5): ReLU()
  )
)>AE2<bound method Module.state_dict of Encoder(
  (encoder): Sequential(
    (0): Linear(in_features=40, out_features=20, bias=True)
    (1): ReLU()
    (2): Linear(in_features=20, out_features=10, bias=True)
    (3): ReLU()
    (4): Linear(in_features=10, out_features=5, bias=True)
    (5): ReLU()
  )
)>AE1<bound method Module.state_dict of Encoder(
  (encoder): Sequential(
    (0): Linear(in_features=40, out_features=20, bias=True)
    (1): ReLU()
    (2): Linear(in_features=20, out_features=10, bias=True)
    (3): ReLU()
    (4): Linear(in_features=10, out_features=5, bias=True)
    (5): ReLU()
  )
)>AE2<bound method Module.state_dict of Encoder(
  (encoder): Sequential(
    (0): Linear(in_features=40, out_features=20, bias=True)
    (1): ReLU()
    (2): Linear(in_features=20, out_features=10, bias=True)
    (3): ReLU()
    (4): Linear(in_features=10, out_features=5, bias=True)
    (5): ReLU()
  )
)>AE1<bound method Module.state_dict of Encoder(
  (encoder): Sequential(
    (0): Linear(in_features=40, out_features=20, bias=True)
    (1): ReLU()
    (2): Linear(in_features=20, out_features=10, bias=True)
    (3): ReLU()
    (4): Linear(in_features=10, out_features=5, bias=True)
    (5): ReLU()
  )
)>AE2<bound method Module.state_dict of Encoder(
  (encoder): Sequential(
    (0): Linear(in_features=40, out_features=20, bias=True)
    (1): ReLU()
    (2): Linear(in_features=20, out_features=10, bias=True)
    (3): ReLU()
    (4): Linear(in_features=10, out_features=5, bias=True)
    (5): ReLU()
  )
)>AE1<bound method Module.state_dict of Encoder(
  (encoder): Sequential(
    (0): Linear(in_features=40, out_features=20, bias=True)
    (1): ReLU()
    (2): Linear(in_features=20, out_features=10, bias=True)
    (3): ReLU()
    (4): Linear(in_features=10, out_features=5, bias=True)
    (5): ReLU()
  )
)>AE2<bound method Module.state_dict of Encoder(
  (encoder): Sequential(
    (0): Linear(in_features=40, out_features=20, bias=True)
    (1): ReLU()
    (2): Linear(in_features=20, out_features=10, bias=True)
    (3): ReLU()
    (4): Linear(in_features=10, out_features=5, bias=True)
    (5): ReLU()
  )
)>AE1<bound method Module.state_dict of Encoder(
  (encoder): Sequential(
    (0): Linear(in_features=40, out_features=20, bias=True)
    (1): ReLU()
    (2): Linear(in_features=20, out_features=10, bias=True)
    (3): ReLU()
    (4): Linear(in_features=10, out_features=5, bias=True)
    (5): ReLU()
  )
)>AE2<bound method Module.state_dict of Encoder(
  (encoder): Sequential(
    (0): Linear(in_features=40, out_features=20, bias=True)
    (1): ReLU()
    (2): Linear(in_features=20, out_features=10, bias=True)
    (3): ReLU()
    (4): Linear(in_features=10, out_features=5, bias=True)
    (5): ReLU()
  )
)>AE1<bound method Module.state_dict of Encoder(
  (encoder): Sequential(
    (0): Linear(in_features=40, out_features=20, bias=True)
    (1): ReLU()
    (2): Linear(in_features=20, out_features=10, bias=True)
    (3): ReLU()
    (4): Linear(in_features=10, out_features=5, bias=True)
    (5): ReLU()
  )
)>AE2<bound method Module.state_dict of Encoder(
  (encoder): Sequential(
    (0): Linear(in_features=40, out_features=20, bias=True)
    (1): ReLU()
    (2): Linear(in_features=20, out_features=10, bias=True)
    (3): ReLU()
    (4): Linear(in_features=10, out_features=5, bias=True)
    (5): ReLU()
  )
)>AE1<bound method Module.state_dict of Encoder(
  (encoder): Sequential(
    (0): Linear(in_features=40, out_features=20, bias=True)
    (1): ReLU()
    (2): Linear(in_features=20, out_features=10, bias=True)
    (3): ReLU()
    (4): Linear(in_features=10, out_features=5, bias=True)
    (5): ReLU()
  )
)>AE2<bound method Module.state_dict of Encoder(
  (encoder): Sequential(
    (0): Linear(in_features=40, out_features=20, bias=True)
    (1): ReLU()
    (2): Linear(in_features=20, out_features=10, bias=True)
    (3): ReLU()
    (4): Linear(in_features=10, out_features=5, bias=True)
    (5): ReLU()
  )
)>AE1<bound method Module.state_dict of Encoder(
  (encoder): Sequential(
    (0): Linear(in_features=40, out_features=20, bias=True)
    (1): ReLU()
    (2): Linear(in_features=20, out_features=10, bias=True)
    (3): ReLU()
    (4): Linear(in_features=10, out_features=5, bias=True)
    (5): ReLU()
  )
)>AE2<bound method Module.state_dict of Encoder(
  (encoder): Sequential(
    (0): Linear(in_features=40, out_features=20, bias=True)
    (1): ReLU()
    (2): Linear(in_features=20, out_features=10, bias=True)
    (3): ReLU()
    (4): Linear(in_features=10, out_features=5, bias=True)
    (5): ReLU()
  )
)>AE1<bound method Module.state_dict of Encoder(
  (encoder): Sequential(
    (0): Linear(in_features=40, out_features=20, bias=True)
    (1): ReLU()
    (2): Linear(in_features=20, out_features=10, bias=True)
    (3): ReLU()
    (4): Linear(in_features=10, out_features=5, bias=True)
    (5): ReLU()
  )
)>AE2<bound method Module.state_dict of Encoder(
  (encoder): Sequential(
    (0): Linear(in_features=40, out_features=20, bias=True)
    (1): ReLU()
    (2): Linear(in_features=20, out_features=10, bias=True)
    (3): ReLU()
    (4): Linear(in_features=10, out_features=5, bias=True)
    (5): ReLU()
  )
)>AE1<bound method Module.state_dict of Encoder(
  (encoder): Sequential(
    (0): Linear(in_features=40, out_features=20, bias=True)
    (1): ReLU()
    (2): Linear(in_features=20, out_features=10, bias=True)
    (3): ReLU()
    (4): Linear(in_features=10, out_features=5, bias=True)
    (5): ReLU()
  )
)>AE2<bound method Module.state_dict of Encoder(
  (encoder): Sequential(
    (0): Linear(in_features=40, out_features=20, bias=True)
    (1): ReLU()
    (2): Linear(in_features=20, out_features=10, bias=True)
    (3): ReLU()
    (4): Linear(in_features=10, out_features=5, bias=True)
    (5): ReLU()
  )
)>AE1<bound method Module.state_dict of Encoder(
  (encoder): Sequential(
    (0): Linear(in_features=40, out_features=20, bias=True)
    (1): ReLU()
    (2): Linear(in_features=20, out_features=10, bias=True)
    (3): ReLU()
    (4): Linear(in_features=10, out_features=5, bias=True)
    (5): ReLU()
  )
)>AE2<bound method Module.state_dict of Encoder(
  (encoder): Sequential(
    (0): Linear(in_features=40, out_features=20, bias=True)
    (1): ReLU()
    (2): Linear(in_features=20, out_features=10, bias=True)
    (3): ReLU()
    (4): Linear(in_features=10, out_features=5, bias=True)
    (5): ReLU()
  )
)>AE1<bound method Module.state_dict of Encoder(
  (encoder): Sequential(
    (0): Linear(in_features=40, out_features=20, bias=True)
    (1): ReLU()
    (2): Linear(in_features=20, out_features=10, bias=True)
    (3): ReLU()
    (4): Linear(in_features=10, out_features=5, bias=True)
    (5): ReLU()
  )
)>AE2<bound method Module.state_dict of Encoder(
  (encoder): Sequential(
    (0): Linear(in_features=40, out_features=20, bias=True)
    (1): ReLU()
    (2): Linear(in_features=20, out_features=10, bias=True)
    (3): ReLU()
    (4): Linear(in_features=10, out_features=5, bias=True)
    (5): ReLU()
  )
)>AE1<bound method Module.state_dict of Encoder(
  (encoder): Sequential(
    (0): Linear(in_features=40, out_features=20, bias=True)
    (1): ReLU()
    (2): Linear(in_features=20, out_features=10, bias=True)
    (3): ReLU()
    (4): Linear(in_features=10, out_features=5, bias=True)
    (5): ReLU()
  )
)>AE2<bound method Module.state_dict of Encoder(
  (encoder): Sequential(
    (0): Linear(in_features=40, out_features=20, bias=True)
    (1): ReLU()
    (2): Linear(in_features=20, out_features=10, bias=True)
    (3): ReLU()
    (4): Linear(in_features=10, out_features=5, bias=True)
    (5): ReLU()
  )
)>AE1<bound method Module.state_dict of Encoder(
  (encoder): Sequential(
    (0): Linear(in_features=40, out_features=20, bias=True)
    (1): ReLU()
    (2): Linear(in_features=20, out_features=10, bias=True)
    (3): ReLU()
    (4): Linear(in_features=10, out_features=5, bias=True)
    (5): ReLU()
  )
)>AE2<bound method Module.state_dict of Encoder(
  (encoder): Sequential(
    (0): Linear(in_features=40, out_features=20, bias=True)
    (1): ReLU()
    (2): Linear(in_features=20, out_features=10, bias=True)
    (3): ReLU()
    (4): Linear(in_features=10, out_features=5, bias=True)
    (5): ReLU()
  )
)>AE1<bound method Module.state_dict of Encoder(
  (encoder): Sequential(
    (0): Linear(in_features=40, out_features=20, bias=True)
    (1): ReLU()
    (2): Linear(in_features=20, out_features=10, bias=True)
    (3): ReLU()
    (4): Linear(in_features=10, out_features=5, bias=True)
    (5): ReLU()
  )
)>AE2<bound method Module.state_dict of Encoder(
  (encoder): Sequential(
    (0): Linear(in_features=40, out_features=20, bias=True)
    (1): ReLU()
    (2): Linear(in_features=20, out_features=10, bias=True)
    (3): ReLU()
    (4): Linear(in_features=10, out_features=5, bias=True)
    (5): ReLU()
  )
)>AE1<bound method Module.state_dict of Encoder(
  (encoder): Sequential(
    (0): Linear(in_features=40, out_features=20, bias=True)
    (1): ReLU()
    (2): Linear(in_features=20, out_features=10, bias=True)
    (3): ReLU()
    (4): Linear(in_features=10, out_features=5, bias=True)
    (5): ReLU()
  )
)>AE2<bound method Module.state_dict of Encoder(
  (encoder): Sequential(
    (0): Linear(in_features=40, out_features=20, bias=True)
    (1): ReLU()
    (2): Linear(in_features=20, out_features=10, bias=True)
    (3): ReLU()
    (4): Linear(in_features=10, out_features=5, bias=True)
    (5): ReLU()
  )
)>AE1<bound method Module.state_dict of Encoder(
  (encoder): Sequential(
    (0): Linear(in_features=40, out_features=20, bias=True)
    (1): ReLU()
    (2): Linear(in_features=20, out_features=10, bias=True)
    (3): ReLU()
    (4): Linear(in_features=10, out_features=5, bias=True)
    (5): ReLU()
  )
)>AE2<bound method Module.state_dict of Encoder(
  (encoder): Sequential(
    (0): Linear(in_features=40, out_features=20, bias=True)
    (1): ReLU()
    (2): Linear(in_features=20, out_features=10, bias=True)
    (3): ReLU()
    (4): Linear(in_features=10, out_features=5, bias=True)
    (5): ReLU()
  )
)>AE1<bound method Module.state_dict of Encoder(
  (encoder): Sequential(
    (0): Linear(in_features=40, out_features=20, bias=True)
    (1): ReLU()
    (2): Linear(in_features=20, out_features=10, bias=True)
    (3): ReLU()
    (4): Linear(in_features=10, out_features=5, bias=True)
    (5): ReLU()
  )
)>AE2<bound method Module.state_dict of Encoder(
  (encoder): Sequential(
    (0): Linear(in_features=40, out_features=20, bias=True)
    (1): ReLU()
    (2): Linear(in_features=20, out_features=10, bias=True)
    (3): ReLU()
    (4): Linear(in_features=10, out_features=5, bias=True)
    (5): ReLU()
  )
)>AE1<bound method Module.state_dict of Encoder(
  (encoder): Sequential(
    (0): Linear(in_features=40, out_features=20, bias=True)
    (1): ReLU()
    (2): Linear(in_features=20, out_features=10, bias=True)
    (3): ReLU()
    (4): Linear(in_features=10, out_features=5, bias=True)
    (5): ReLU()
  )
)>AE2<bound method Module.state_dict of Encoder(
  (encoder): Sequential(
    (0): Linear(in_features=40, out_features=20, bias=True)
    (1): ReLU()
    (2): Linear(in_features=20, out_features=10, bias=True)
    (3): ReLU()
    (4): Linear(in_features=10, out_features=5, bias=True)
    (5): ReLU()
  )
)>AE1<bound method Module.state_dict of Encoder(
  (encoder): Sequential(
    (0): Linear(in_features=40, out_features=20, bias=True)
    (1): ReLU()
    (2): Linear(in_features=20, out_features=10, bias=True)
    (3): ReLU()
    (4): Linear(in_features=10, out_features=5, bias=True)
    (5): ReLU()
  )
)>AE2<bound method Module.state_dict of Encoder(
  (encoder): Sequential(
    (0): Linear(in_features=40, out_features=20, bias=True)
    (1): ReLU()
    (2): Linear(in_features=20, out_features=10, bias=True)
    (3): ReLU()
    (4): Linear(in_features=10, out_features=5, bias=True)
    (5): ReLU()
  )
)>AE1<bound method Module.state_dict of Encoder(
  (encoder): Sequential(
    (0): Linear(in_features=40, out_features=20, bias=True)
    (1): ReLU()
    (2): Linear(in_features=20, out_features=10, bias=True)
    (3): ReLU()
    (4): Linear(in_features=10, out_features=5, bias=True)
    (5): ReLU()
  )
)>AE2<bound method Module.state_dict of Encoder(
  (encoder): Sequential(
    (0): Linear(in_features=40, out_features=20, bias=True)
    (1): ReLU()
    (2): Linear(in_features=20, out_features=10, bias=True)
    (3): ReLU()
    (4): Linear(in_features=10, out_features=5, bias=True)
    (5): ReLU()
  )
)>AE1<bound method Module.state_dict of Encoder(
  (encoder): Sequential(
    (0): Linear(in_features=40, out_features=20, bias=True)
    (1): ReLU()
    (2): Linear(in_features=20, out_features=10, bias=True)
    (3): ReLU()
    (4): Linear(in_features=10, out_features=5, bias=True)
    (5): ReLU()
  )
)>AE2<bound method Module.state_dict of Encoder(
  (encoder): Sequential(
    (0): Linear(in_features=40, out_features=20, bias=True)
    (1): ReLU()
    (2): Linear(in_features=20, out_features=10, bias=True)
    (3): ReLU()
    (4): Linear(in_features=10, out_features=5, bias=True)
    (5): ReLU()
  )
)>AE1<bound method Module.state_dict of Encoder(
  (encoder): Sequential(
    (0): Linear(in_features=40, out_features=20, bias=True)
    (1): ReLU()
    (2): Linear(in_features=20, out_features=10, bias=True)
    (3): ReLU()
    (4): Linear(in_features=10, out_features=5, bias=True)
    (5): ReLU()
  )
)>AE2<bound method Module.state_dict of Encoder(
  (encoder): Sequential(
    (0): Linear(in_features=40, out_features=20, bias=True)
    (1): ReLU()
    (2): Linear(in_features=20, out_features=10, bias=True)
    (3): ReLU()
    (4): Linear(in_features=10, out_features=5, bias=True)
    (5): ReLU()
  )
)>AE1<bound method Module.state_dict of Encoder(
  (encoder): Sequential(
    (0): Linear(in_features=40, out_features=20, bias=True)
    (1): ReLU()
    (2): Linear(in_features=20, out_features=10, bias=True)
    (3): ReLU()
    (4): Linear(in_features=10, out_features=5, bias=True)
    (5): ReLU()
  )
)>AE2<bound method Module.state_dict of Encoder(
  (encoder): Sequential(
    (0): Linear(in_features=40, out_features=20, bias=True)
    (1): ReLU()
    (2): Linear(in_features=20, out_features=10, bias=True)
    (3): ReLU()
    (4): Linear(in_features=10, out_features=5, bias=True)
    (5): ReLU()
  )
)>AE1<bound method Module.state_dict of Encoder(
  (encoder): Sequential(
    (0): Linear(in_features=40, out_features=20, bias=True)
    (1): ReLU()
    (2): Linear(in_features=20, out_features=10, bias=True)
    (3): ReLU()
    (4): Linear(in_features=10, out_features=5, bias=True)
    (5): ReLU()
  )
)>AE2<bound method Module.state_dict of Encoder(
  (encoder): Sequential(
    (0): Linear(in_features=40, out_features=20, bias=True)
    (1): ReLU()
    (2): Linear(in_features=20, out_features=10, bias=True)
    (3): ReLU()
    (4): Linear(in_features=10, out_features=5, bias=True)
    (5): ReLU()
  )
)>AE1<bound method Module.state_dict of Encoder(
  (encoder): Sequential(
    (0): Linear(in_features=40, out_features=20, bias=True)
    (1): ReLU()
    (2): Linear(in_features=20, out_features=10, bias=True)
    (3): ReLU()
    (4): Linear(in_features=10, out_features=5, bias=True)
    (5): ReLU()
  )
)>AE2<bound method Module.state_dict of Encoder(
  (encoder): Sequential(
    (0): Linear(in_features=40, out_features=20, bias=True)
    (1): ReLU()
    (2): Linear(in_features=20, out_features=10, bias=True)
    (3): ReLU()
    (4): Linear(in_features=10, out_features=5, bias=True)
    (5): ReLU()
  )
)>AE1<bound method Module.state_dict of Encoder(
  (encoder): Sequential(
    (0): Linear(in_features=40, out_features=20, bias=True)
    (1): ReLU()
    (2): Linear(in_features=20, out_features=10, bias=True)
    (3): ReLU()
    (4): Linear(in_features=10, out_features=5, bias=True)
    (5): ReLU()
  )
)>AE2<bound method Module.state_dict of Encoder(
  (encoder): Sequential(
    (0): Linear(in_features=40, out_features=20, bias=True)
    (1): ReLU()
    (2): Linear(in_features=20, out_features=10, bias=True)
    (3): ReLU()
    (4): Linear(in_features=10, out_features=5, bias=True)
    (5): ReLU()
  )
)>AE1<bound method Module.state_dict of Encoder(
  (encoder): Sequential(
    (0): Linear(in_features=40, out_features=20, bias=True)
    (1): ReLU()
    (2): Linear(in_features=20, out_features=10, bias=True)
    (3): ReLU()
    (4): Linear(in_features=10, out_features=5, bias=True)
    (5): ReLU()
  )
)>AE2<bound method Module.state_dict of Encoder(
  (encoder): Sequential(
    (0): Linear(in_features=40, out_features=20, bias=True)
    (1): ReLU()
    (2): Linear(in_features=20, out_features=10, bias=True)
    (3): ReLU()
    (4): Linear(in_features=10, out_features=5, bias=True)
    (5): ReLU()
  )
)>AE1<bound method Module.state_dict of Encoder(
  (encoder): Sequential(
    (0): Linear(in_features=40, out_features=20, bias=True)
    (1): ReLU()
    (2): Linear(in_features=20, out_features=10, bias=True)
    (3): ReLU()
    (4): Linear(in_features=10, out_features=5, bias=True)
    (5): ReLU()
  )
)>AE2<bound method Module.state_dict of Encoder(
  (encoder): Sequential(
    (0): Linear(in_features=40, out_features=20, bias=True)
    (1): ReLU()
    (2): Linear(in_features=20, out_features=10, bias=True)
    (3): ReLU()
    (4): Linear(in_features=10, out_features=5, bias=True)
    (5): ReLU()
  )
)>AE1<bound method Module.state_dict of Encoder(
  (encoder): Sequential(
    (0): Linear(in_features=40, out_features=20, bias=True)
    (1): ReLU()
    (2): Linear(in_features=20, out_features=10, bias=True)
    (3): ReLU()
    (4): Linear(in_features=10, out_features=5, bias=True)
    (5): ReLU()
  )
)>AE2<bound method Module.state_dict of Encoder(
  (encoder): Sequential(
    (0): Linear(in_features=40, out_features=20, bias=True)
    (1): ReLU()
    (2): Linear(in_features=20, out_features=10, bias=True)
    (3): ReLU()
    (4): Linear(in_features=10, out_features=5, bias=True)
    (5): ReLU()
  )
)>AE1<bound method Module.state_dict of Encoder(
  (encoder): Sequential(
    (0): Linear(in_features=40, out_features=20, bias=True)
    (1): ReLU()
    (2): Linear(in_features=20, out_features=10, bias=True)
    (3): ReLU()
    (4): Linear(in_features=10, out_features=5, bias=True)
    (5): ReLU()
  )
)>AE2<bound method Module.state_dict of Encoder(
  (encoder): Sequential(
    (0): Linear(in_features=40, out_features=20, bias=True)
    (1): ReLU()
    (2): Linear(in_features=20, out_features=10, bias=True)
    (3): ReLU()
    (4): Linear(in_features=10, out_features=5, bias=True)
    (5): ReLU()
  )
)>AE1<bound method Module.state_dict of Encoder(
  (encoder): Sequential(
    (0): Linear(in_features=40, out_features=20, bias=True)
    (1): ReLU()
    (2): Linear(in_features=20, out_features=10, bias=True)
    (3): ReLU()
    (4): Linear(in_features=10, out_features=5, bias=True)
    (5): ReLU()
  )
)>AE2<bound method Module.state_dict of Encoder(
  (encoder): Sequential(
    (0): Linear(in_features=40, out_features=20, bias=True)
    (1): ReLU()
    (2): Linear(in_features=20, out_features=10, bias=True)
    (3): ReLU()
    (4): Linear(in_features=10, out_features=5, bias=True)
    (5): ReLU()
  )
)>AE1<bound method Module.state_dict of Encoder(
  (encoder): Sequential(
    (0): Linear(in_features=40, out_features=20, bias=True)
    (1): ReLU()
    (2): Linear(in_features=20, out_features=10, bias=True)
    (3): ReLU()
    (4): Linear(in_features=10, out_features=5, bias=True)
    (5): ReLU()
  )
)>AE2<bound method Module.state_dict of Encoder(
  (encoder): Sequential(
    (0): Linear(in_features=40, out_features=20, bias=True)
    (1): ReLU()
    (2): Linear(in_features=20, out_features=10, bias=True)
    (3): ReLU()
    (4): Linear(in_features=10, out_features=5, bias=True)
    (5): ReLU()
  )
)>AE1<bound method Module.state_dict of Encoder(
  (encoder): Sequential(
    (0): Linear(in_features=40, out_features=20, bias=True)
    (1): ReLU()
    (2): Linear(in_features=20, out_features=10, bias=True)
    (3): ReLU()
    (4): Linear(in_features=10, out_features=5, bias=True)
    (5): ReLU()
  )
)>AE2<bound method Module.state_dict of Encoder(
  (encoder): Sequential(
    (0): Linear(in_features=40, out_features=20, bias=True)
    (1): ReLU()
    (2): Linear(in_features=20, out_features=10, bias=True)
    (3): ReLU()
    (4): Linear(in_features=10, out_features=5, bias=True)
    (5): ReLU()
  )
)>AE1<bound method Module.state_dict of Encoder(
  (encoder): Sequential(
    (0): Linear(in_features=40, out_features=20, bias=True)
    (1): ReLU()
    (2): Linear(in_features=20, out_features=10, bias=True)
    (3): ReLU()
    (4): Linear(in_features=10, out_features=5, bias=True)
    (5): ReLU()
  )
)>AE2<bound method Module.state_dict of Encoder(
  (encoder): Sequential(
    (0): Linear(in_features=40, out_features=20, bias=True)
    (1): ReLU()
    (2): Linear(in_features=20, out_features=10, bias=True)
    (3): ReLU()
    (4): Linear(in_features=10, out_features=5, bias=True)
    (5): ReLU()
  )
)>AE1<bound method Module.state_dict of Encoder(
  (encoder): Sequential(
    (0): Linear(in_features=40, out_features=20, bias=True)
    (1): ReLU()
    (2): Linear(in_features=20, out_features=10, bias=True)
    (3): ReLU()
    (4): Linear(in_features=10, out_features=5, bias=True)
    (5): ReLU()
  )
)>AE2<bound method Module.state_dict of Encoder(
  (encoder): Sequential(
    (0): Linear(in_features=40, out_features=20, bias=True)
    (1): ReLU()
    (2): Linear(in_features=20, out_features=10, bias=True)
    (3): ReLU()
    (4): Linear(in_features=10, out_features=5, bias=True)
    (5): ReLU()
  )
)>AE1<bound method Module.state_dict of Encoder(
  (encoder): Sequential(
    (0): Linear(in_features=40, out_features=20, bias=True)
    (1): ReLU()
    (2): Linear(in_features=20, out_features=10, bias=True)
    (3): ReLU()
    (4): Linear(in_features=10, out_features=5, bias=True)
    (5): ReLU()
  )
)>AE2<bound method Module.state_dict of Encoder(
  (encoder): Sequential(
    (0): Linear(in_features=40, out_features=20, bias=True)
    (1): ReLU()
    (2): Linear(in_features=20, out_features=10, bias=True)
    (3): ReLU()
    (4): Linear(in_features=10, out_features=5, bias=True)
    (5): ReLU()
  )
)>AE1<bound method Module.state_dict of Encoder(
  (encoder): Sequential(
    (0): Linear(in_features=40, out_features=20, bias=True)
    (1): ReLU()
    (2): Linear(in_features=20, out_features=10, bias=True)
    (3): ReLU()
    (4): Linear(in_features=10, out_features=5, bias=True)
    (5): ReLU()
  )
)>AE2<bound method Module.state_dict of Encoder(
  (encoder): Sequential(
    (0): Linear(in_features=40, out_features=20, bias=True)
    (1): ReLU()
    (2): Linear(in_features=20, out_features=10, bias=True)
    (3): ReLU()
    (4): Linear(in_features=10, out_features=5, bias=True)
    (5): ReLU()
  )
)>AE1<bound method Module.state_dict of Encoder(
  (encoder): Sequential(
    (0): Linear(in_features=40, out_features=20, bias=True)
    (1): ReLU()
    (2): Linear(in_features=20, out_features=10, bias=True)
    (3): ReLU()
    (4): Linear(in_features=10, out_features=5, bias=True)
    (5): ReLU()
  )
)>AE2<bound method Module.state_dict of Encoder(
  (encoder): Sequential(
    (0): Linear(in_features=40, out_features=20, bias=True)
    (1): ReLU()
    (2): Linear(in_features=20, out_features=10, bias=True)
    (3): ReLU()
    (4): Linear(in_features=10, out_features=5, bias=True)
    (5): ReLU()
  )
)>AE1<bound method Module.state_dict of Encoder(
  (encoder): Sequential(
    (0): Linear(in_features=40, out_features=20, bias=True)
    (1): ReLU()
    (2): Linear(in_features=20, out_features=10, bias=True)
    (3): ReLU()
    (4): Linear(in_features=10, out_features=5, bias=True)
    (5): ReLU()
  )
)>AE2<bound method Module.state_dict of Encoder(
  (encoder): Sequential(
    (0): Linear(in_features=40, out_features=20, bias=True)
    (1): ReLU()
    (2): Linear(in_features=20, out_features=10, bias=True)
    (3): ReLU()
    (4): Linear(in_features=10, out_features=5, bias=True)
    (5): ReLU()
  )
)>AE1<bound method Module.state_dict of Encoder(
  (encoder): Sequential(
    (0): Linear(in_features=40, out_features=20, bias=True)
    (1): ReLU()
    (2): Linear(in_features=20, out_features=10, bias=True)
    (3): ReLU()
    (4): Linear(in_features=10, out_features=5, bias=True)
    (5): ReLU()
  )
)>AE2<bound method Module.state_dict of Encoder(
  (encoder): Sequential(
    (0): Linear(in_features=40, out_features=20, bias=True)
    (1): ReLU()
    (2): Linear(in_features=20, out_features=10, bias=True)
    (3): ReLU()
    (4): Linear(in_features=10, out_features=5, bias=True)
    (5): ReLU()
  )
)>AE1<bound method Module.state_dict of Encoder(
  (encoder): Sequential(
    (0): Linear(in_features=40, out_features=20, bias=True)
    (1): ReLU()
    (2): Linear(in_features=20, out_features=10, bias=True)
    (3): ReLU()
    (4): Linear(in_features=10, out_features=5, bias=True)
    (5): ReLU()
  )
)>AE2<bound method Module.state_dict of Encoder(
  (encoder): Sequential(
    (0): Linear(in_features=40, out_features=20, bias=True)
    (1): ReLU()
    (2): Linear(in_features=20, out_features=10, bias=True)
    (3): ReLU()
    (4): Linear(in_features=10, out_features=5, bias=True)
    (5): ReLU()
  )
)>AE1<bound method Module.state_dict of Encoder(
  (encoder): Sequential(
    (0): Linear(in_features=40, out_features=20, bias=True)
    (1): ReLU()
    (2): Linear(in_features=20, out_features=10, bias=True)
    (3): ReLU()
    (4): Linear(in_features=10, out_features=5, bias=True)
    (5): ReLU()
  )
)>AE2<bound method Module.state_dict of Encoder(
  (encoder): Sequential(
    (0): Linear(in_features=40, out_features=20, bias=True)
    (1): ReLU()
    (2): Linear(in_features=20, out_features=10, bias=True)
    (3): ReLU()
    (4): Linear(in_features=10, out_features=5, bias=True)
    (5): ReLU()
  )
)>AE1<bound method Module.state_dict of Encoder(
  (encoder): Sequential(
    (0): Linear(in_features=40, out_features=20, bias=True)
    (1): ReLU()
    (2): Linear(in_features=20, out_features=10, bias=True)
    (3): ReLU()
    (4): Linear(in_features=10, out_features=5, bias=True)
    (5): ReLU()
  )
)>AE2<bound method Module.state_dict of Encoder(
  (encoder): Sequential(
    (0): Linear(in_features=40, out_features=20, bias=True)
    (1): ReLU()
    (2): Linear(in_features=20, out_features=10, bias=True)
    (3): ReLU()
    (4): Linear(in_features=10, out_features=5, bias=True)
    (5): ReLU()
  )
)>AE1<bound method Module.state_dict of Encoder(
  (encoder): Sequential(
    (0): Linear(in_features=40, out_features=20, bias=True)
    (1): ReLU()
    (2): Linear(in_features=20, out_features=10, bias=True)
    (3): ReLU()
    (4): Linear(in_features=10, out_features=5, bias=True)
    (5): ReLU()
  )
)>AE2<bound method Module.state_dict of Encoder(
  (encoder): Sequential(
    (0): Linear(in_features=40, out_features=20, bias=True)
    (1): ReLU()
    (2): Linear(in_features=20, out_features=10, bias=True)
    (3): ReLU()
    (4): Linear(in_features=10, out_features=5, bias=True)
    (5): ReLU()
  )
)>AE1<bound method Module.state_dict of Encoder(
  (encoder): Sequential(
    (0): Linear(in_features=40, out_features=20, bias=True)
    (1): ReLU()
    (2): Linear(in_features=20, out_features=10, bias=True)
    (3): ReLU()
    (4): Linear(in_features=10, out_features=5, bias=True)
    (5): ReLU()
  )
)>AE2<bound method Module.state_dict of Encoder(
  (encoder): Sequential(
    (0): Linear(in_features=40, out_features=20, bias=True)
    (1): ReLU()
    (2): Linear(in_features=20, out_features=10, bias=True)
    (3): ReLU()
    (4): Linear(in_features=10, out_features=5, bias=True)
    (5): ReLU()
  )
)>AE1<bound method Module.state_dict of Encoder(
  (encoder): Sequential(
    (0): Linear(in_features=40, out_features=20, bias=True)
    (1): ReLU()
    (2): Linear(in_features=20, out_features=10, bias=True)
    (3): ReLU()
    (4): Linear(in_features=10, out_features=5, bias=True)
    (5): ReLU()
  )
)>AE2<bound method Module.state_dict of Encoder(
  (encoder): Sequential(
    (0): Linear(in_features=40, out_features=20, bias=True)
    (1): ReLU()
    (2): Linear(in_features=20, out_features=10, bias=True)
    (3): ReLU()
    (4): Linear(in_features=10, out_features=5, bias=True)
    (5): ReLU()
  )
)>AE1<bound method Module.state_dict of Encoder(
  (encoder): Sequential(
    (0): Linear(in_features=40, out_features=20, bias=True)
    (1): ReLU()
    (2): Linear(in_features=20, out_features=10, bias=True)
    (3): ReLU()
    (4): Linear(in_features=10, out_features=5, bias=True)
    (5): ReLU()
  )
)>AE2<bound method Module.state_dict of Encoder(
  (encoder): Sequential(
    (0): Linear(in_features=40, out_features=20, bias=True)
    (1): ReLU()
    (2): Linear(in_features=20, out_features=10, bias=True)
    (3): ReLU()
    (4): Linear(in_features=10, out_features=5, bias=True)
    (5): ReLU()
  )
)>AE1<bound method Module.state_dict of Encoder(
  (encoder): Sequential(
    (0): Linear(in_features=40, out_features=20, bias=True)
    (1): ReLU()
    (2): Linear(in_features=20, out_features=10, bias=True)
    (3): ReLU()
    (4): Linear(in_features=10, out_features=5, bias=True)
    (5): ReLU()
  )
)>AE2<bound method Module.state_dict of Encoder(
  (encoder): Sequential(
    (0): Linear(in_features=40, out_features=20, bias=True)
    (1): ReLU()
    (2): Linear(in_features=20, out_features=10, bias=True)
    (3): ReLU()
    (4): Linear(in_features=10, out_features=5, bias=True)
    (5): ReLU()
  )
)>AE1<bound method Module.state_dict of Encoder(
  (encoder): Sequential(
    (0): Linear(in_features=40, out_features=20, bias=True)
    (1): ReLU()
    (2): Linear(in_features=20, out_features=10, bias=True)
    (3): ReLU()
    (4): Linear(in_features=10, out_features=5, bias=True)
    (5): ReLU()
  )
)>AE2<bound method Module.state_dict of Encoder(
  (encoder): Sequential(
    (0): Linear(in_features=40, out_features=20, bias=True)
    (1): ReLU()
    (2): Linear(in_features=20, out_features=10, bias=True)
    (3): ReLU()
    (4): Linear(in_features=10, out_features=5, bias=True)
    (5): ReLU()
  )
)>AE1<bound method Module.state_dict of Encoder(
  (encoder): Sequential(
    (0): Linear(in_features=40, out_features=20, bias=True)
    (1): ReLU()
    (2): Linear(in_features=20, out_features=10, bias=True)
    (3): ReLU()
    (4): Linear(in_features=10, out_features=5, bias=True)
    (5): ReLU()
  )
)>AE2<bound method Module.state_dict of Encoder(
  (encoder): Sequential(
    (0): Linear(in_features=40, out_features=20, bias=True)
    (1): ReLU()
    (2): Linear(in_features=20, out_features=10, bias=True)
    (3): ReLU()
    (4): Linear(in_features=10, out_features=5, bias=True)
    (5): ReLU()
  )
)>AE1<bound method Module.state_dict of Encoder(
  (encoder): Sequential(
    (0): Linear(in_features=40, out_features=20, bias=True)
    (1): ReLU()
    (2): Linear(in_features=20, out_features=10, bias=True)
    (3): ReLU()
    (4): Linear(in_features=10, out_features=5, bias=True)
    (5): ReLU()
  )
)>AE2<bound method Module.state_dict of Encoder(
  (encoder): Sequential(
    (0): Linear(in_features=40, out_features=20, bias=True)
    (1): ReLU()
    (2): Linear(in_features=20, out_features=10, bias=True)
    (3): ReLU()
    (4): Linear(in_features=10, out_features=5, bias=True)
    (5): ReLU()
  )
)>AE1<bound method Module.state_dict of Encoder(
  (encoder): Sequential(
    (0): Linear(in_features=40, out_features=20, bias=True)
    (1): ReLU()
    (2): Linear(in_features=20, out_features=10, bias=True)
    (3): ReLU()
    (4): Linear(in_features=10, out_features=5, bias=True)
    (5): ReLU()
  )
)>AE2<bound method Module.state_dict of Encoder(
  (encoder): Sequential(
    (0): Linear(in_features=40, out_features=20, bias=True)
    (1): ReLU()
    (2): Linear(in_features=20, out_features=10, bias=True)
    (3): ReLU()
    (4): Linear(in_features=10, out_features=5, bias=True)
    (5): ReLU()
  )
)>AE1<bound method Module.state_dict of Encoder(
  (encoder): Sequential(
    (0): Linear(in_features=40, out_features=20, bias=True)
    (1): ReLU()
    (2): Linear(in_features=20, out_features=10, bias=True)
    (3): ReLU()
    (4): Linear(in_features=10, out_features=5, bias=True)
    (5): ReLU()
  )
)>AE2<bound method Module.state_dict of Encoder(
  (encoder): Sequential(
    (0): Linear(in_features=40, out_features=20, bias=True)
    (1): ReLU()
    (2): Linear(in_features=20, out_features=10, bias=True)
    (3): ReLU()
    (4): Linear(in_features=10, out_features=5, bias=True)
    (5): ReLU()
  )
)>AE1<bound method Module.state_dict of Encoder(
  (encoder): Sequential(
    (0): Linear(in_features=40, out_features=20, bias=True)
    (1): ReLU()
    (2): Linear(in_features=20, out_features=10, bias=True)
    (3): ReLU()
    (4): Linear(in_features=10, out_features=5, bias=True)
    (5): ReLU()
  )
)>AE2<bound method Module.state_dict of Encoder(
  (encoder): Sequential(
    (0): Linear(in_features=40, out_features=20, bias=True)
    (1): ReLU()
    (2): Linear(in_features=20, out_features=10, bias=True)
    (3): ReLU()
    (4): Linear(in_features=10, out_features=5, bias=True)
    (5): ReLU()
  )
)>AE1<bound method Module.state_dict of Encoder(
  (encoder): Sequential(
    (0): Linear(in_features=40, out_features=20, bias=True)
    (1): ReLU()
    (2): Linear(in_features=20, out_features=10, bias=True)
    (3): ReLU()
    (4): Linear(in_features=10, out_features=5, bias=True)
    (5): ReLU()
  )
)>AE2<bound method Module.state_dict of Encoder(
  (encoder): Sequential(
    (0): Linear(in_features=40, out_features=20, bias=True)
    (1): ReLU()
    (2): Linear(in_features=20, out_features=10, bias=True)
    (3): ReLU()
    (4): Linear(in_features=10, out_features=5, bias=True)
    (5): ReLU()
  )
)>AE1<bound method Module.state_dict of Encoder(
  (encoder): Sequential(
    (0): Linear(in_features=40, out_features=20, bias=True)
    (1): ReLU()
    (2): Linear(in_features=20, out_features=10, bias=True)
    (3): ReLU()
    (4): Linear(in_features=10, out_features=5, bias=True)
    (5): ReLU()
  )
)>AE2<bound method Module.state_dict of Encoder(
  (encoder): Sequential(
    (0): Linear(in_features=40, out_features=20, bias=True)
    (1): ReLU()
    (2): Linear(in_features=20, out_features=10, bias=True)
    (3): ReLU()
    (4): Linear(in_features=10, out_features=5, bias=True)
    (5): ReLU()
  )
)>AE1<bound method Module.state_dict of Encoder(
  (encoder): Sequential(
    (0): Linear(in_features=40, out_features=20, bias=True)
    (1): ReLU()
    (2): Linear(in_features=20, out_features=10, bias=True)
    (3): ReLU()
    (4): Linear(in_features=10, out_features=5, bias=True)
    (5): ReLU()
  )
)>AE2<bound method Module.state_dict of Encoder(
  (encoder): Sequential(
    (0): Linear(in_features=40, out_features=20, bias=True)
    (1): ReLU()
    (2): Linear(in_features=20, out_features=10, bias=True)
    (3): ReLU()
    (4): Linear(in_features=10, out_features=5, bias=True)
    (5): ReLU()
  )
)>AE1<bound method Module.state_dict of Encoder(
  (encoder): Sequential(
    (0): Linear(in_features=40, out_features=20, bias=True)
    (1): ReLU()
    (2): Linear(in_features=20, out_features=10, bias=True)
    (3): ReLU()
    (4): Linear(in_features=10, out_features=5, bias=True)
    (5): ReLU()
  )
)>AE2<bound method Module.state_dict of Encoder(
  (encoder): Sequential(
    (0): Linear(in_features=40, out_features=20, bias=True)
    (1): ReLU()
    (2): Linear(in_features=20, out_features=10, bias=True)
    (3): ReLU()
    (4): Linear(in_features=10, out_features=5, bias=True)
    (5): ReLU()
  )
)>AE1<bound method Module.state_dict of Encoder(
  (encoder): Sequential(
    (0): Linear(in_features=40, out_features=20, bias=True)
    (1): ReLU()
    (2): Linear(in_features=20, out_features=10, bias=True)
    (3): ReLU()
…
)>AE1<bound method Module.state_dict of Encoder(
  (encoder): Sequential(
    (0): Linear(in_features=40, out_features=20, bias=True)
    (1): ReLU()
    (2): Linear(in_features=20, out_features=10, bias=True)
    (3): ReLU()
    (4): Linear(in_features=10, out_features=5, bias=True)
    (5): ReLU()
  )
)>AE2<bound method Module.state_dict of Encoder(
  (encoder): Sequential(
    (0): Linear(in_features=40, out_features=20, bias=True)
    (1): ReLU()
    (2): Linear(in_features=20, out_features=10, bias=True)
    (3): ReLU()
    (4): Linear(in_features=10, out_features=5, bias=True)
    (5): ReLU()
  )
)>AE1<bound method Module.state_dict of Encoder(
  (encoder): Sequential(
    (0): Linear(in_features=40, out_features=20, bias=True)
    (1): ReLU()
    (2): Linear(in_features=20, out_features=10, bias=True)
    (3): ReLU()
    (4): Linear(in_features=10, out_features=5, bias=True)
    (5): ReLU()
  )
)>AE2<bound method Module.state_dict of Encoder(
  (encoder): Sequential(
    (0): Linear(in_features=40, out_features=20, bias=True)
    (1): ReLU()
    (2): Linear(in_features=20, out_features=10, bias=True)
    (3): ReLU()
    (4): Linear(in_features=10, out_features=5, bias=True)
    (5): ReLU()
  )
)>AE1<bound method Module.state_dict of Encoder(
  (encoder): Sequential(
    (0): Linear(in_features=40, out_features=20, bias=True)
    (1): ReLU()
    (2): Linear(in_features=20, out_features=10, bias=True)
    (3): ReLU()
    (4): Linear(in_features=10, out_features=5, bias=True)
    (5): ReLU()
  )
)>AE2<bound method Module.state_dict of Encoder(
  (encoder): Sequential(
    (0): Linear(in_features=40, out_features=20, bias=True)
    (1): ReLU()
    (2): Linear(in_features=20, out_features=10, bias=True)
    (3): ReLU()
    (4): Linear(in_features=10, out_features=5, bias=True)
    (5): ReLU()
  )
)>AE1<bound method Module.state_dict of Encoder(
  (encoder): Sequential(
    (0): Linear(in_features=40, out_features=20, bias=True)
    (1): ReLU()
    (2): Linear(in_features=20, out_features=10, bias=True)
    (3): ReLU()
    (4): Linear(in_features=10, out_features=5, bias=True)
    (5): ReLU()
  )
)>AE2<bound method Module.state_dict of Encoder(
  (encoder): Sequential(
    (0): Linear(in_features=40, out_features=20, bias=True)
    (1): ReLU()
    (2): Linear(in_features=20, out_features=10, bias=True)
    (3): ReLU()
    (4): Linear(in_features=10, out_features=5, bias=True)
    (5): ReLU()
  )
)>AE1<bound method Module.state_dict of Encoder(
  (encoder): Sequential(
    (0): Linear(in_features=40, out_features=20, bias=True)
    (1): ReLU()
    (2): Linear(in_features=20, out_features=10, bias=True)
    (3): ReLU()
    (4): Linear(in_features=10, out_features=5, bias=True)
    (5): ReLU()
  )
)>AE2<bound method Module.state_dict of Encoder(
  (encoder): Sequential(
    (0): Linear(in_features=40, out_features=20, bias=True)
    (1): ReLU()
    (2): Linear(in_features=20, out_features=10, bias=True)
    (3): ReLU()
    (4): Linear(in_features=10, out_features=5, bias=True)
    (5): ReLU()
  )
)>AE1<bound method Module.state_dict of Encoder(
  (encoder): Sequential(
    (0): Linear(in_features=40, out_features=20, bias=True)
    (1): ReLU()
    (2): Linear(in_features=20, out_features=10, bias=True)
    (3): ReLU()
    (4): Linear(in_features=10, out_features=5, bias=True)
    (5): ReLU()
  )
)>AE2<bound method Module.state_dict of Encoder(
  (encoder): Sequential(
    (0): Linear(in_features=40, out_features=20, bias=True)
    (1): ReLU()
    (2): Linear(in_features=20, out_features=10, bias=True)
    (3): ReLU()
    (4): Linear(in_features=10, out_features=5, bias=True)
    (5): ReLU()
  )
)>AE1<bound method Module.state_dict of Encoder(
  (encoder): Sequential(
    (0): Linear(in_features=40, out_features=20, bias=True)
    (1): ReLU()
    (2): Linear(in_features=20, out_features=10, bias=True)
    (3): ReLU()
    (4): Linear(in_features=10, out_features=5, bias=True)
    (5): ReLU()
  )
)>AE2<bound method Module.state_dict of Encoder(
  (encoder): Sequential(
    (0): Linear(in_features=40, out_features=20, bias=True)
    (1): ReLU()
    (2): Linear(in_features=20, out_features=10, bias=True)
    (3): ReLU()
    (4): Linear(in_features=10, out_features=5, bias=True)
    (5): ReLU()
  )
)>AE1<bound method Module.state_dict of Encoder(
  (encoder): Sequential(
    (0): Linear(in_features=40, out_features=20, bias=True)
    (1): ReLU()
    (2): Linear(in_features=20, out_features=10, bias=True)
    (3): ReLU()
    (4): Linear(in_features=10, out_features=5, bias=True)
    (5): ReLU()
  )
)>AE2<bound method Module.state_dict of Encoder(
  (encoder): Sequential(
    (0): Linear(in_features=40, out_features=20, bias=True)
    (1): ReLU()
    (2): Linear(in_features=20, out_features=10, bias=True)
    (3): ReLU()
    (4): Linear(in_features=10, out_features=5, bias=True)
    (5): ReLU()
  )
)>AE1<bound method Module.state_dict of Encoder(
  (encoder): Sequential(
    (0): Linear(in_features=40, out_features=20, bias=True)
    (1): ReLU()
    (2): Linear(in_features=20, out_features=10, bias=True)
    (3): ReLU()
    (4): Linear(in_features=10, out_features=5, bias=True)
    (5): ReLU()
  )
)>AE2<bound method Module.state_dict of Encoder(
  (encoder): Sequential(
    (0): Linear(in_features=40, out_features=20, bias=True)
    (1): ReLU()
    (2): Linear(in_features=20, out_features=10, bias=True)
    (3): ReLU()
    (4): Linear(in_features=10, out_features=5, bias=True)
    (5): ReLU()
  )
)>AE1<bound method Module.state_dict of Encoder(
  (encoder): Sequential(
    (0): Linear(in_features=40, out_features=20, bias=True)
    (1): ReLU()
    (2): Linear(in_features=20, out_features=10, bias=True)
    (3): ReLU()
    (4): Linear(in_features=10, out_features=5, bias=True)
    (5): ReLU()
  )
)>AE2<bound method Module.state_dict of Encoder(
  (encoder): Sequential(
    (0): Linear(in_features=40, out_features=20, bias=True)
    (1): ReLU()
    (2): Linear(in_features=20, out_features=10, bias=True)
    (3): ReLU()
    (4): Linear(in_features=10, out_features=5, bias=True)
    (5): ReLU()
  )
)>AE1<bound method Module.state_dict of Encoder(
  (encoder): Sequential(
    (0): Linear(in_features=40, out_features=20, bias=True)
    (1): ReLU()
    (2): Linear(in_features=20, out_features=10, bias=True)
    (3): ReLU()
    (4): Linear(in_features=10, out_features=5, bias=True)
    (5): ReLU()
  )
)>AE2<bound method Module.state_dict of Encoder(
  (encoder): Sequential(
    (0): Linear(in_features=40, out_features=20, bias=True)
    (1): ReLU()
    (2): Linear(in_features=20, out_features=10, bias=True)
    (3): ReLU()
    (4): Linear(in_features=10, out_features=5, bias=True)
    (5): ReLU()
  )
)>AE1<bound method Module.state_dict of Encoder(
  (encoder): Sequential(
    (0): Linear(in_features=40, out_features=20, bias=True)
    (1): ReLU()
    (2): Linear(in_features=20, out_features=10, bias=True)
    (3): ReLU()
    (4): Linear(in_features=10, out_features=5, bias=True)
    (5): ReLU()
  )
)>AE2<bound method Module.state_dict of Encoder(
  (encoder): Sequential(
    (0): Linear(in_features=40, out_features=20, bias=True)
    (1): ReLU()
    (2): Linear(in_features=20, out_features=10, bias=True)
    (3): ReLU()
    (4): Linear(in_features=10, out_features=5, bias=True)
    (5): ReLU()
  )
)>AE1<bound method Module.state_dict of Encoder(
  (encoder): Sequential(
    (0): Linear(in_features=40, out_features=20, bias=True)
    (1): ReLU()
    (2): Linear(in_features=20, out_features=10, bias=True)
    (3): ReLU()
    (4): Linear(in_features=10, out_features=5, bias=True)
    (5): ReLU()
  )
)>AE2<bound method Module.state_dict of Encoder(
  (encoder): Sequential(
    (0): Linear(in_features=40, out_features=20, bias=True)
    (1): ReLU()
    (2): Linear(in_features=20, out_features=10, bias=True)
    (3): ReLU()
    (4): Linear(in_features=10, out_features=5, bias=True)
    (5): ReLU()
  )
)>AE1<bound method Module.state_dict of Encoder(
  (encoder): Sequential(
    (0): Linear(in_features=40, out_features=20, bias=True)
    (1): ReLU()
    (2): Linear(in_features=20, out_features=10, bias=True)
    (3): ReLU()
    (4): Linear(in_features=10, out_features=5, bias=True)
    (5): ReLU()
  )
)>AE2<bound method Module.state_dict of Encoder(
  (encoder): Sequential(
    (0): Linear(in_features=40, out_features=20, bias=True)
    (1): ReLU()
    (2): Linear(in_features=20, out_features=10, bias=True)
    (3): ReLU()
    (4): Linear(in_features=10, out_features=5, bias=True)
    (5): ReLU()
  )
)>AE1<bound method Module.state_dict of Encoder(
  (encoder): Sequential(
    (0): Linear(in_features=40, out_features=20, bias=True)
    (1): ReLU()
    (2): Linear(in_features=20, out_features=10, bias=True)
    (3): ReLU()
    (4): Linear(in_features=10, out_features=5, bias=True)
    (5): ReLU()
  )
)>AE2<bound method Module.state_dict of Encoder(
  (encoder): Sequential(
    (0): Linear(in_features=40, out_features=20, bias=True)
    (1): ReLU()
    (2): Linear(in_features=20, out_features=10, bias=True)
    (3): ReLU()
    (4): Linear(in_features=10, out_features=5, bias=True)
    (5): ReLU()
  )
)>AE1<bound method Module.state_dict of Encoder(
  (encoder): Sequential(
    (0): Linear(in_features=40, out_features=20, bias=True)
    (1): ReLU()
    (2): Linear(in_features=20, out_features=10, bias=True)
    (3): ReLU()
    (4): Linear(in_features=10, out_features=5, bias=True)
    (5): ReLU()
  )
)>AE2<bound method Module.state_dict of Encoder(
  (encoder): Sequential(
    (0): Linear(in_features=40, out_features=20, bias=True)
    (1): ReLU()
    (2): Linear(in_features=20, out_features=10, bias=True)
    (3): ReLU()
    (4): Linear(in_features=10, out_features=5, bias=True)
    (5): ReLU()
  )
)>AE1<bound method Module.state_dict of Encoder(
  (encoder): Sequential(
    (0): Linear(in_features=40, out_features=20, bias=True)
    (1): ReLU()
    (2): Linear(in_features=20, out_features=10, bias=True)
    (3): ReLU()
    (4): Linear(in_features=10, out_features=5, bias=True)
    (5): ReLU()
  )
)>AE2<bound method Module.state_dict of Encoder(
  (encoder): Sequential(
    (0): Linear(in_features=40, out_features=20, bias=True)
    (1): ReLU()
    (2): Linear(in_features=20, out_features=10, bias=True)
    (3): ReLU()
    (4): Linear(in_features=10, out_features=5, bias=True)
    (5): ReLU()
  )
)>AE1<bound method Module.state_dict of Encoder(
  (encoder): Sequential(
    (0): Linear(in_features=40, out_features=20, bias=True)
    (1): ReLU()
    (2): Linear(in_features=20, out_features=10, bias=True)
    (3): ReLU()
    (4): Linear(in_features=10, out_features=5, bias=True)
    (5): ReLU()
  )
)>AE2<bound method Module.state_dict of Encoder(
  (encoder): Sequential(
    (0): Linear(in_features=40, out_features=20, bias=True)
    (1): ReLU()
    (2): Linear(in_features=20, out_features=10, bias=True)
    (3): ReLU()
    (4): Linear(in_features=10, out_features=5, bias=True)
    (5): ReLU()
  )
)>AE1<bound method Module.state_dict of Encoder(
  (encoder): Sequential(
    (0): Linear(in_features=40, out_features=20, bias=True)
    (1): ReLU()
    (2): Linear(in_features=20, out_features=10, bias=True)
    (3): ReLU()
    (4): Linear(in_features=10, out_features=5, bias=True)
    (5): ReLU()
  )
)>AE2<bound method Module.state_dict of Encoder(
  (encoder): Sequential(
    (0): Linear(in_features=40, out_features=20, bias=True)
    (1): ReLU()
    (2): Linear(in_features=20, out_features=10, bias=True)
    (3): ReLU()
    (4): Linear(in_features=10, out_features=5, bias=True)
    (5): ReLU()
  )
)>AE1<bound method Module.state_dict of Encoder(
  (encoder): Sequential(
    (0): Linear(in_features=40, out_features=20, bias=True)
    (1): ReLU()
    (2): Linear(in_features=20, out_features=10, bias=True)
    (3): ReLU()
    (4): Linear(in_features=10, out_features=5, bias=True)
    (5): ReLU()
  )
)>AE2<bound method Module.state_dict of Encoder(
  (encoder): Sequential(
    (0): Linear(in_features=40, out_features=20, bias=True)
    (1): ReLU()
    (2): Linear(in_features=20, out_features=10, bias=True)
    (3): ReLU()
    (4): Linear(in_features=10, out_features=5, bias=True)
    (5): ReLU()
  )
)>AE1<bound method Module.state_dict of Encoder(
  (encoder): Sequential(
    (0): Linear(in_features=40, out_features=20, bias=True)
    (1): ReLU()
    (2): Linear(in_features=20, out_features=10, bias=True)
    (3): ReLU()
    (4): Linear(in_features=10, out_features=5, bias=True)
    (5): ReLU()
  )
)>AE2<bound method Module.state_dict of Encoder(
  (encoder): Sequential(
    (0): Linear(in_features=40, out_features=20, bias=True)
    (1): ReLU()
    (2): Linear(in_features=20, out_features=10, bias=True)
    (3): ReLU()
    (4): Linear(in_features=10, out_features=5, bias=True)
    (5): ReLU()
  )
)>AE1<bound method Module.state_dict of Encoder(
  (encoder): Sequential(
    (0): Linear(in_features=40, out_features=20, bias=True)
    (1): ReLU()
    (2): Linear(in_features=20, out_features=10, bias=True)
    (3): ReLU()
    (4): Linear(in_features=10, out_features=5, bias=True)
    (5): ReLU()
  )
)>AE2<bound method Module.state_dict of Encoder(
  (encoder): Sequential(
    (0): Linear(in_features=40, out_features=20, bias=True)
    (1): ReLU()
    (2): Linear(in_features=20, out_features=10, bias=True)
    (3): ReLU()
    (4): Linear(in_features=10, out_features=5, bias=True)
    (5): ReLU()
  )
)>AE1<bound method Module.state_dict of Encoder(
  (encoder): Sequential(
    (0): Linear(in_features=40, out_features=20, bias=True)
    (1): ReLU()
    (2): Linear(in_features=20, out_features=10, bias=True)
    (3): ReLU()
    (4): Linear(in_features=10, out_features=5, bias=True)
    (5): ReLU()
  )
)>AE2<bound method Module.state_dict of Encoder(
  (encoder): Sequential(
    (0): Linear(in_features=40, out_features=20, bias=True)
    (1): ReLU()
    (2): Linear(in_features=20, out_features=10, bias=True)
    (3): ReLU()
    (4): Linear(in_features=10, out_features=5, bias=True)
    (5): ReLU()
  )
)>AE1<bound method Module.state_dict of Encoder(
  (encoder): Sequential(
    (0): Linear(in_features=40, out_features=20, bias=True)
    (1): ReLU()
    (2): Linear(in_features=20, out_features=10, bias=True)
    (3): ReLU()
    (4): Linear(in_features=10, out_features=5, bias=True)
    (5): ReLU()
  )
)>AE2<bound method Module.state_dict of Encoder(
  (encoder): Sequential(
    (0): Linear(in_features=40, out_features=20, bias=True)
    (1): ReLU()
    (2): Linear(in_features=20, out_features=10, bias=True)
    (3): ReLU()
    (4): Linear(in_features=10, out_features=5, bias=True)
    (5): ReLU()
  )
)>AE1<bound method Module.state_dict of Encoder(
  (encoder): Sequential(
    (0): Linear(in_features=40, out_features=20, bias=True)
    (1): ReLU()
    (2): Linear(in_features=20, out_features=10, bias=True)
    (3): ReLU()
    (4): Linear(in_features=10, out_features=5, bias=True)
    (5): ReLU()
  )
)>AE2<bound method Module.state_dict of Encoder(
  (encoder): Sequential(
    (0): Linear(in_features=40, out_features=20, bias=True)
    (1): ReLU()
    (2): Linear(in_features=20, out_features=10, bias=True)
    (3): ReLU()
    (4): Linear(in_features=10, out_features=5, bias=True)
    (5): ReLU()
  )
)>AE1<bound method Module.state_dict of Encoder(
  (encoder): Sequential(
    (0): Linear(in_features=40, out_features=20, bias=True)
    (1): ReLU()
    (2): Linear(in_features=20, out_features=10, bias=True)
    (3): ReLU()
    (4): Linear(in_features=10, out_features=5, bias=True)
    (5): ReLU()
  )
)>AE2<bound method Module.state_dict of Encoder(
  (encoder): Sequential(
    (0): Linear(in_features=40, out_features=20, bias=True)
    (1): ReLU()
    (2): Linear(in_features=20, out_features=10, bias=True)
    (3): ReLU()
    (4): Linear(in_features=10, out_features=5, bias=True)
    (5): ReLU()
  )
)>AE1<bound method Module.state_dict of Encoder(
  (encoder): Sequential(
    (0): Linear(in_features=40, out_features=20, bias=True)
    (1): ReLU()
    (2): Linear(in_features=20, out_features=10, bias=True)
    (3): ReLU()
    (4): Linear(in_features=10, out_features=5, bias=True)
    (5): ReLU()
  )
)>AE2<bound method Module.state_dict of Encoder(
  (encoder): Sequential(
    (0): Linear(in_features=40, out_features=20, bias=True)
    (1): ReLU()
    (2): Linear(in_features=20, out_features=10, bias=True)
    (3): ReLU()
    (4): Linear(in_features=10, out_features=5, bias=True)
    (5): ReLU()
  )
)>AE1<bound method Module.state_dict of Encoder(
  (encoder): Sequential(
    (0): Linear(in_features=40, out_features=20, bias=True)
    (1): ReLU()
    (2): Linear(in_features=20, out_features=10, bias=True)
    (3): ReLU()
    (4): Linear(in_features=10, out_features=5, bias=True)
    (5): ReLU()
  )
)>AE2<bound method Module.state_dict of Encoder(
  (encoder): Sequential(
    (0): Linear(in_features=40, out_features=20, bias=True)
    (1): ReLU()
    (2): Linear(in_features=20, out_features=10, bias=True)
    (3): ReLU()
    (4): Linear(in_features=10, out_features=5, bias=True)
    (5): ReLU()
  )
)>AE1<bound method Module.state_dict of Encoder(
  (encoder): Sequential(
    (0): Linear(in_features=40, out_features=20, bias=True)
    (1): ReLU()
    (2): Linear(in_features=20, out_features=10, bias=True)
    (3): ReLU()
    (4): Linear(in_features=10, out_features=5, bias=True)
    (5): ReLU()
  )
)>AE2<bound method Module.state_dict of Encoder(
  (encoder): Sequential(
    (0): Linear(in_features=40, out_features=20, bias=True)
    (1): ReLU()
    (2): Linear(in_features=20, out_features=10, bias=True)
    (3): ReLU()
    (4): Linear(in_features=10, out_features=5, bias=True)
    (5): ReLU()
  )
)>AE1<bound method Module.state_dict of Encoder(
  (encoder): Sequential(
    (0): Linear(in_features=40, out_features=20, bias=True)
    (1): ReLU()
    (2): Linear(in_features=20, out_features=10, bias=True)
    (3): ReLU()
    (4): Linear(in_features=10, out_features=5, bias=True)
    (5): ReLU()
  )
)>AE2<bound method Module.state_dict of Encoder(
  (encoder): Sequential(
    (0): Linear(in_features=40, out_features=20, bias=True)
    (1): ReLU()
    (2): Linear(in_features=20, out_features=10, bias=True)
    (3): ReLU()
    (4): Linear(in_features=10, out_features=5, bias=True)
    (5): ReLU()
  )
)>AE1<bound method Module.state_dict of Encoder(
  (encoder): Sequential(
    (0): Linear(in_features=40, out_features=20, bias=True)
    (1): ReLU()
    (2): Linear(in_features=20, out_features=10, bias=True)
    (3): ReLU()
    (4): Linear(in_features=10, out_features=5, bias=True)
    (5): ReLU()
  )
)>AE2<bound method Module.state_dict of Encoder(
  (encoder): Sequential(
    (0): Linear(in_features=40, out_features=20, bias=True)
    (1): ReLU()
    (2): Linear(in_features=20, out_features=10, bias=True)
    (3): ReLU()
    (4): Linear(in_features=10, out_features=5, bias=True)
    (5): ReLU()
  )
)>AE1<bound method Module.state_dict of Encoder(
  (encoder): Sequential(
    (0): Linear(in_features=40, out_features=20, bias=True)
    (1): ReLU()
    (2): Linear(in_features=20, out_features=10, bias=True)
    (3): ReLU()
    (4): Linear(in_features=10, out_features=5, bias=True)
    (5): ReLU()
  )
)>AE2<bound method Module.state_dict of Encoder(
  (encoder): Sequential(
    (0): Linear(in_features=40, out_features=20, bias=True)
    (1): ReLU()
    (2): Linear(in_features=20, out_features=10, bias=True)
    (3): ReLU()
    (4): Linear(in_features=10, out_features=5, bias=True)
    (5): ReLU()
  )
)>AE1<bound method Module.state_dict of Encoder(
  (encoder): Sequential(
    (0): Linear(in_features=40, out_features=20, bias=True)
    (1): ReLU()
    (2): Linear(in_features=20, out_features=10, bias=True)
    (3): ReLU()
    (4): Linear(in_features=10, out_features=5, bias=True)
    (5): ReLU()
  )
)>AE2<bound method Module.state_dict of Encoder(
  (encoder): Sequential(
    (0): Linear(in_features=40, out_features=20, bias=True)
    (1): ReLU()
    (2): Linear(in_features=20, out_features=10, bias=True)
    (3): ReLU()
    (4): Linear(in_features=10, out_features=5, bias=True)
    (5): ReLU()
  )
)>AE1<bound method Module.state_dict of Encoder(
  (encoder): Sequential(
    (0): Linear(in_features=40, out_features=20, bias=True)
    (1): ReLU()
    (2): Linear(in_features=20, out_features=10, bias=True)
    (3): ReLU()
    (4): Linear(in_features=10, out_features=5, bias=True)
    (5): ReLU()
  )
)>AE2<bound method Module.state_dict of Encoder(
  (encoder): Sequential(
    (0): Linear(in_features=40, out_features=20, bias=True)
    (1): ReLU()
    (2): Linear(in_features=20, out_features=10, bias=True)
    (3): ReLU()
    (4): Linear(in_features=10, out_features=5, bias=True)
    (5): ReLU()
  )
)>AE1<bound method Module.state_dict of Encoder(
  (encoder): Sequential(
    (0): Linear(in_features=40, out_features=20, bias=True)
    (1): ReLU()
    (2): Linear(in_features=20, out_features=10, bias=True)
    (3): ReLU()
    (4): Linear(in_features=10, out_features=5, bias=True)
    (5): ReLU()
  )
)>AE2<bound method Module.state_dict of Encoder(
  (encoder): Sequential(
    (0): Linear(in_features=40, out_features=20, bias=True)
    (1): ReLU()
    (2): Linear(in_features=20, out_features=10, bias=True)
    (3): ReLU()
    (4): Linear(in_features=10, out_features=5, bias=True)
    (5): ReLU()
  )
)>AE1<bound method Module.state_dict of Encoder(
  (encoder): Sequential(
    (0): Linear(in_features=40, out_features=20, bias=True)
    (1): ReLU()
    (2): Linear(in_features=20, out_features=10, bias=True)
    (3): ReLU()
    (4): Linear(in_features=10, out_features=5, bias=True)
    (5): ReLU()
  )
)>AE2<bound method Module.state_dict of Encoder(
  (encoder): Sequential(
    (0): Linear(in_features=40, out_features=20, bias=True)
    (1): ReLU()
    (2): Linear(in_features=20, out_features=10, bias=True)
    (3): ReLU()
    (4): Linear(in_features=10, out_features=5, bias=True)
    (5): ReLU()
  )
)>AE1<bound method Module.state_dict of Encoder(
  (encoder): Sequential(
    (0): Linear(in_features=40, out_features=20, bias=True)
    (1): ReLU()
    (2): Linear(in_features=20, out_features=10, bias=True)
    (3): ReLU()
    (4): Linear(in_features=10, out_features=5, bias=True)
    (5): ReLU()
  )
)>AE2<bound method Module.state_dict of Encoder(
  (encoder): Sequential(
    (0): Linear(in_features=40, out_features=20, bias=True)
    (1): ReLU()
    (2): Linear(in_features=20, out_features=10, bias=True)
    (3): ReLU()
    (4): Linear(in_features=10, out_features=5, bias=True)
    (5): ReLU()
  )
)>AE1<bound method Module.state_dict of Encoder(
  (encoder): Sequential(
    (0): Linear(in_features=40, out_features=20, bias=True)
    (1): ReLU()
    (2): Linear(in_features=20, out_features=10, bias=True)
    (3): ReLU()
    (4): Linear(in_features=10, out_features=5, bias=True)
    (5): ReLU()
  )
)>AE2<bound method Module.state_dict of Encoder(
  (encoder): Sequential(
    (0): Linear(in_features=40, out_features=20, bias=True)
    (1): ReLU()
    (2): Linear(in_features=20, out_features=10, bias=True)
    (3): ReLU()
    (4): Linear(in_features=10, out_features=5, bias=True)
    (5): ReLU()
  )
)>AE1<bound method Module.state_dict of Encoder(
  (encoder): Sequential(
    (0): Linear(in_features=40, out_features=20, bias=True)
    (1): ReLU()
    (2): Linear(in_features=20, out_features=10, bias=True)
    (3): ReLU()
    (4): Linear(in_features=10, out_features=5, bias=True)
    (5): ReLU()
  )
)>AE2<bound method Module.state_dict of Encoder(
  (encoder): Sequential(
    (0): Linear(in_features=40, out_features=20, bias=True)
    (1): ReLU()
    (2): Linear(in_features=20, out_features=10, bias=True)
    (3): ReLU()
    (4): Linear(in_features=10, out_features=5, bias=True)
    (5): ReLU()
  )
)>AE1<bound method Module.state_dict of Encoder(
  (encoder): Sequential(
    (0): Linear(in_features=40, out_features=20, bias=True)
    (1): ReLU()
    (2): Linear(in_features=20, out_features=10, bias=True)
    (3): ReLU()
    (4): Linear(in_features=10, out_features=5, bias=True)
    (5): ReLU()
  )
)>AE2<bound method Module.state_dict of Encoder(
  (encoder): Sequential(
    (0): Linear(in_features=40, out_features=20, bias=True)
    (1): ReLU()
    (2): Linear(in_features=20, out_features=10, bias=True)
    (3): ReLU()
    (4): Linear(in_features=10, out_features=5, bias=True)
    (5): ReLU()
  )
)>AE1<bound method Module.state_dict of Encoder(
  (encoder): Sequential(
    (0): Linear(in_features=40, out_features=20, bias=True)
    (1): ReLU()
    (2): Linear(in_features=20, out_features=10, bias=True)
    (3): ReLU()
    (4): Linear(in_features=10, out_features=5, bias=True)
    (5): ReLU()
  )
)>AE2<bound method Module.state_dict of Encoder(
  (encoder): Sequential(
    (0): Linear(in_features=40, out_features=20, bias=True)
    (1): ReLU()
    (2): Linear(in_features=20, out_features=10, bias=True)
    (3): ReLU()
    (4): Linear(in_features=10, out_features=5, bias=True)
    (5): ReLU()
  )
)>AE1<bound method Module.state_dict of Encoder(
  (encoder): Sequential(
    (0): Linear(in_features=40, out_features=20, bias=True)
    (1): ReLU()
    (2): Linear(in_features=20, out_features=10, bias=True)
    (3): ReLU()
    (4): Linear(in_features=10, out_features=5, bias=True)
    (5): ReLU()
  )
)>AE2<bound method Module.state_dict of Encoder(
  (encoder): Sequential(
    (0): Linear(in_features=40, out_features=20, bias=True)
    (1): ReLU()
    (2): Linear(in_features=20, out_features=10, bias=True)
    (3): ReLU()
    (4): Linear(in_features=10, out_features=5, bias=True)
    (5): ReLU()
  )
)>AE1<bound method Module.state_dict of Encoder(
  (encoder): Sequential(
    (0): Linear(in_features=40, out_features=20, bias=True)
    (1): ReLU()
    (2): Linear(in_features=20, out_features=10, bias=True)
    (3): ReLU()
    (4): Linear(in_features=10, out_features=5, bias=True)
    (5): ReLU()
  )
)>AE2<bound method Module.state_dict of Encoder(
  (encoder): Sequential(
    (0): Linear(in_features=40, out_features=20, bias=True)
    (1): ReLU()
    (2): Linear(in_features=20, out_features=10, bias=True)
    (3): ReLU()
    (4): Linear(in_features=10, out_features=5, bias=True)
    (5): ReLU()
  )
)>AE1<bound method Module.state_dict of Encoder(
  (encoder): Sequential(
    (0): Linear(in_features=40, out_features=20, bias=True)
    (1): ReLU()
    (2): Linear(in_features=20, out_features=10, bias=True)
    (3): ReLU()
    (4): Linear(in_features=10, out_features=5, bias=True)
    (5): ReLU()
  )
)>AE2<bound method Module.state_dict of Encoder(
  (encoder): Sequential(
    (0): Linear(in_features=40, out_features=20, bias=True)
    (1): ReLU()
    (2): Linear(in_features=20, out_features=10, bias=True)
    (3): ReLU()
    (4): Linear(in_features=10, out_features=5, bias=True)
    (5): ReLU()
  )
)>AE1<bound method Module.state_dict of Encoder(
  (encoder): Sequential(
    (0): Linear(in_features=40, out_features=20, bias=True)
    (1): ReLU()
    (2): Linear(in_features=20, out_features=10, bias=True)
    (3): ReLU()
    (4): Linear(in_features=10, out_features=5, bias=True)
    (5): ReLU()
  )
)>AE2<bound method Module.state_dict of Encoder(
  (encoder): Sequential(
    (0): Linear(in_features=40, out_features=20, bias=True)
    (1): ReLU()
    (2): Linear(in_features=20, out_features=10, bias=True)
    (3): ReLU()
    (4): Linear(in_features=10, out_features=5, bias=True)
    (5): ReLU()
  )
)>AE1<bound method Module.state_dict of Encoder(
  (encoder): Sequential(
    (0): Linear(in_features=40, out_features=20, bias=True)
    (1): ReLU()
    (2): Linear(in_features=20, out_features=10, bias=True)
    (3): ReLU()
    (4): Linear(in_features=10, out_features=5, bias=True)
    (5): ReLU()
  )
)>AE2<bound method Module.state_dict of Encoder(
  (encoder): Sequential(
    (0): Linear(in_features=40, out_features=20, bias=True)
    (1): ReLU()
    (2): Linear(in_features=20, out_features=10, bias=True)
    (3): ReLU()
    (4): Linear(in_features=10, out_features=5, bias=True)
    (5): ReLU()
  )
)>AE1<bound method Module.state_dict of Encoder(
  (encoder): Sequential(
    (0): Linear(in_features=40, out_features=20, bias=True)
    (1): ReLU()
    (2): Linear(in_features=20, out_features=10, bias=True)
    (3): ReLU()
    (4): Linear(in_features=10, out_features=5, bias=True)
    (5): ReLU()
  )
)>AE2<bound method Module.state_dict of Encoder(
  (encoder): Sequential(
    (0): Linear(in_features=40, out_features=20, bias=True)
    (1): ReLU()
    (2): Linear(in_features=20, out_features=10, bias=True)
    (3): ReLU()
    (4): Linear(in_features=10, out_features=5, bias=True)
    (5): ReLU()
  )
)>AE1<bound method Module.state_dict of Encoder(
  (encoder): Sequential(
    (0): Linear(in_features=40, out_features=20, bias=True)
    (1): ReLU()
    (2): Linear(in_features=20, out_features=10, bias=True)
    (3): ReLU()
    (4): Linear(in_features=10, out_features=5, bias=True)
    (5): ReLU()
  )
)>AE2<bound method Module.state_dict of Encoder(
  (encoder): Sequential(
    (0): Linear(in_features=40, out_features=20, bias=True)
    (1): ReLU()
    (2): Linear(in_features=20, out_features=10, bias=True)
    (3): ReLU()
    (4): Linear(in_features=10, out_features=5, bias=True)
    (5): ReLU()
  )
)>AE1<bound method Module.state_dict of Encoder(
  (encoder): Sequential(
    (0): Linear(in_features=40, out_features=20, bias=True)
    (1): ReLU()
    (2): Linear(in_features=20, out_features=10, bias=True)
    (3): ReLU()
    (4): Linear(in_features=10, out_features=5, bias=True)
    (5): ReLU()
  )
)>AE2<bound method Module.state_dict of Encoder(
  (encoder): Sequential(
    (0): Linear(in_features=40, out_features=20, bias=True)
    (1): ReLU()
    (2): Linear(in_features=20, out_features=10, bias=True)
    (3): ReLU()
    (4): Linear(in_features=10, out_features=5, bias=True)
    (5): ReLU()
  )
)>AE1<bound method Module.state_dict of Encoder(
  (encoder): Sequential(
    (0): Linear(in_features=40, out_features=20, bias=True)
    (1): ReLU()
    (2): Linear(in_features=20, out_features=10, bias=True)
    (3): ReLU()
    (4): Linear(in_features=10, out_features=5, bias=True)
    (5): ReLU()
  )
)>AE2<bound method Module.state_dict of Encoder(
  (encoder): Sequential(
    (0): Linear(in_features=40, out_features=20, bias=True)
    (1): ReLU()
    (2): Linear(in_features=20, out_features=10, bias=True)
    (3): ReLU()
    (4): Linear(in_features=10, out_features=5, bias=True)
    (5): ReLU()
  )
)>AE1<bound method Module.state_dict of Encoder(
  (encoder): Sequential(
    (0): Linear(in_features=40, out_features=20, bias=True)
    (1): ReLU()
    (2): Linear(in_features=20, out_features=10, bias=True)
    (3): ReLU()
    (4): Linear(in_features=10, out_features=5, bias=True)
    (5): ReLU()
  )
)>AE2<bound method Module.state_dict of Encoder(
  (encoder): Sequential(
    (0): Linear(in_features=40, out_features=20, bias=True)
    (1): ReLU()
    (2): Linear(in_features=20, out_features=10, bias=True)
    (3): ReLU()
    (4): Linear(in_features=10, out_features=5, bias=True)
    (5): ReLU()
  )
)>AE1<bound method Module.state_dict of Encoder(
  (encoder): Sequential(
    (0): Linear(in_features=40, out_features=20, bias=True)
    (1): ReLU()
    (2): Linear(in_features=20, out_features=10, bias=True)
    (3): ReLU()
    (4): Linear(in_features=10, out_features=5, bias=True)
    (5): ReLU()
  )
)>AE2<bound method Module.state_dict of Encoder(
  (encoder): Sequential(
    (0): Linear(in_features=40, out_features=20, bias=True)
    (1): ReLU()
    (2): Linear(in_features=20, out_features=10, bias=True)
    (3): ReLU()
    (4): Linear(in_features=10, out_features=5, bias=True)
    (5): ReLU()
  )
)>AE1<bound method Module.state_dict of Encoder(
  (encoder): Sequential(
    (0): Linear(in_features=40, out_features=20, bias=True)
    (1): ReLU()
    (2): Linear(in_features=20, out_features=10, bias=True)
    (3): ReLU()
    (4): Linear(in_features=10, out_features=5, bias=True)
    (5): ReLU()
  )
)>AE2<bound method Module.state_dict of Encoder(
  (encoder): Sequential(
    (0): Linear(in_features=40, out_features=20, bias=True)
    (1): ReLU()
    (2): Linear(in_features=20, out_features=10, bias=True)
    (3): ReLU()
    (4): Linear(in_features=10, out_features=5, bias=True)
    (5): ReLU()
  )
)>AE1<bound method Module.state_dict of Encoder(
  (encoder): Sequential(
    (0): Linear(in_features=40, out_features=20, bias=True)
    (1): ReLU()
    (2): Linear(in_features=20, out_features=10, bias=True)
    (3): ReLU()
    (4): Linear(in_features=10, out_features=5, bias=True)
    (5): ReLU()
  )
)>AE2<bound method Module.state_dict of Encoder(
  (encoder): Sequential(
    (0): Linear(in_features=40, out_features=20, bias=True)
    (1): ReLU()
    (2): Linear(in_features=20, out_features=10, bias=True)
    (3): ReLU()
    (4): Linear(in_features=10, out_features=5, bias=True)
    (5): ReLU()
  )
)>AE1<bound method Module.state_dict of Encoder(
  (encoder): Sequential(
    (0): Linear(in_features=40, out_features=20, bias=True)
    (1): ReLU()
    (2): Linear(in_features=20, out_features=10, bias=True)
    (3): ReLU()
    (4): Linear(in_features=10, out_features=5, bias=True)
    (5): ReLU()
  )
)>AE2<bound method Module.state_dict of Encoder(
  (encoder): Sequential(
    (0): Linear(in_features=40, out_features=20, bias=True)
    (1): ReLU()
    (2): Linear(in_features=20, out_features=10, bias=True)
    (3): ReLU()
    (4): Linear(in_features=10, out_features=5, bias=True)
    (5): ReLU()
  )
)>AE1<bound method Module.state_dict of Encoder(
  (encoder): Sequential(
    (0): Linear(in_features=40, out_features=20, bias=True)
    (1): ReLU()
    (2): Linear(in_features=20, out_features=10, bias=True)
    (3): ReLU()
    (4): Linear(in_features=10, out_features=5, bias=True)
    (5): ReLU()
  )
)>AE2<bound method Module.state_dict of Encoder(
  (encoder): Sequential(
    (0): Linear(in_features=40, out_features=20, bias=True)
    (1): ReLU()
    (2): Linear(in_features=20, out_features=10, bias=True)
    (3): ReLU()
    (4): Linear(in_features=10, out_features=5, bias=True)
    (5): ReLU()
  )
)>AE1<bound method Module.state_dict of Encoder(
  (encoder): Sequential(
    (0): Linear(in_features=40, out_features=20, bias=True)
    (1): ReLU()
    (2): Linear(in_features=20, out_features=10, bias=True)
    (3): ReLU()
    (4): Linear(in_features=10, out_features=5, bias=True)
    (5): ReLU()
  )
)>AE2<bound method Module.state_dict of Encoder(
  (encoder): Sequential(
    (0): Linear(in_features=40, out_features=20, bias=True)
    (1): ReLU()
    (2): Linear(in_features=20, out_features=10, bias=True)
    (3): ReLU()
    (4): Linear(in_features=10, out_features=5, bias=True)
    (5): ReLU()
  )
)>AE1<bound method Module.state_dict of Encoder(
  (encoder): Sequential(
    (0): Linear(in_features=40, out_features=20, bias=True)
    (1): ReLU()
    (2): Linear(in_features=20, out_features=10, bias=True)
    (3): ReLU()
    (4): Linear(in_features=10, out_features=5, bias=True)
    (5): ReLU()
  )
)>AE2<bound method Module.state_dict of Encoder(
  (encoder): Sequential(
    (0): Linear(in_features=40, out_features=20, bias=True)
    (1): ReLU()
    (2): Linear(in_features=20, out_features=10, bias=True)
    (3): ReLU()
    (4): Linear(in_features=10, out_features=5, bias=True)
    (5): ReLU()
  )
)>AE1<bound method Module.state_dict of Encoder(
  (encoder): Sequential(
    (0): Linear(in_features=40, out_features=20, bias=True)
    (1): ReLU()
    (2): Linear(in_features=20, out_features=10, bias=True)
    (3): ReLU()
    (4): Linear(in_features=10, out_features=5, bias=True)
    (5): ReLU()
  )
)>AE2<bound method Module.state_dict of Encoder(
  (encoder): Sequential(
    (0): Linear(in_features=40, out_features=20, bias=True)
    (1): ReLU()
    (2): Linear(in_features=20, out_features=10, bias=True)
    (3): ReLU()
    (4): Linear(in_features=10, out_features=5, bias=True)
    (5): ReLU()
  )
)>AE1<bound method Module.state_dict of Encoder(
  (encoder): Sequential(
    (0): Linear(in_features=40, out_features=20, bias=True)
    (1): ReLU()
    (2): Linear(in_features=20, out_features=10, bias=True)
    (3): ReLU()
    (4): Linear(in_features=10, out_features=5, bias=True)
    (5): ReLU()
  )
)>AE2<bound method Module.state_dict of Encoder(
  (encoder): Sequential(
    (0): Linear(in_features=40, out_features=20, bias=True)
    (1): ReLU()
    (2): Linear(in_features=20, out_features=10, bias=True)
    (3): ReLU()
    (4): Linear(in_features=10, out_features=5, bias=True)
    (5): ReLU()
  )
)>AE1<bound method Module.state_dict of Encoder(
  (encoder): Sequential(
    (0): Linear(in_features=40, out_features=20, bias=True)
    (1): ReLU()
    (2): Linear(in_features=20, out_features=10, bias=True)
    (3): ReLU()
    (4): Linear(in_features=10, out_features=5, bias=True)
    (5): ReLU()
  )
)>AE2<bound method Module.state_dict of Encoder(
  (encoder): Sequential(
    (0): Linear(in_features=40, out_features=20, bias=True)
    (1): ReLU()
    (2): Linear(in_features=20, out_features=10, bias=True)
    (3): ReLU()
    (4): Linear(in_features=10, out_features=5, bias=True)
    (5): ReLU()
  )
)>AE1<bound method Module.state_dict of Encoder(
  (encoder): Sequential(
    (0): Linear(in_features=40, out_features=20, bias=True)
    (1): ReLU()
    (2): Linear(in_features=20, out_features=10, bias=True)
    (3): ReLU()
    (4): Linear(in_features=10, out_features=5, bias=True)
    (5): ReLU()
  )
)>AE2<bound method Module.state_dict of Encoder(
  (encoder): Sequential(
    (0): Linear(in_features=40, out_features=20, bias=True)
    (1): ReLU()
    (2): Linear(in_features=20, out_features=10, bias=True)
    (3): ReLU()
    (4): Linear(in_features=10, out_features=5, bias=True)
    (5): ReLU()
  )
)>AE1<bound method Module.state_dict of Encoder(
  (encoder): Sequential(
    (0): Linear(in_features=40, out_features=20, bias=True)
    (1): ReLU()
    (2): Linear(in_features=20, out_features=10, bias=True)
    (3): ReLU()
    (4): Linear(in_features=10, out_features=5, bias=True)
    (5): ReLU()
  )
)>AE2<bound method Module.state_dict of Encoder(
  (encoder): Sequential(
    (0): Linear(in_features=40, out_features=20, bias=True)
    (1): ReLU()
    (2): Linear(in_features=20, out_features=10, bias=True)
    (3): ReLU()
    (4): Linear(in_features=10, out_features=5, bias=True)
    (5): ReLU()
  )
)>AE1<bound method Module.state_dict of Encoder(
  (encoder): Sequential(
    (0): Linear(in_features=40, out_features=20, bias=True)
    (1): ReLU()
    (2): Linear(in_features=20, out_features=10, bias=True)
    (3): ReLU()
    (4): Linear(in_features=10, out_features=5, bias=True)
    (5): ReLU()
  )
)>AE2<bound method Module.state_dict of Encoder(
  (encoder): Sequential(
    (0): Linear(in_features=40, out_features=20, bias=True)
    (1): ReLU()
    (2): Linear(in_features=20, out_features=10, bias=True)
    (3): ReLU()
    (4): Linear(in_features=10, out_features=5, bias=True)
    (5): ReLU()
  )
)>AE1<bound method Module.state_dict of Encoder(
  (encoder): Sequential(
    (0): Linear(in_features=40, out_features=20, bias=True)
    (1): ReLU()
    (2): Linear(in_features=20, out_features=10, bias=True)
    (3): ReLU()
    (4): Linear(in_features=10, out_features=5, bias=True)
    (5): ReLU()
  )
)>AE2<bound method Module.state_dict of Encoder(
  (encoder): Sequential(
    (0): Linear(in_features=40, out_features=20, bias=True)
    (1): ReLU()
    (2): Linear(in_features=20, out_features=10, bias=True)
    (3): ReLU()
    (4): Linear(in_features=10, out_features=5, bias=True)
    (5): ReLU()
  )
)>AE1<bound method Module.state_dict of Encoder(
  (encoder): Sequential(
    (0): Linear(in_features=40, out_features=20, bias=True)
    (1): ReLU()
    (2): Linear(in_features=20, out_features=10, bias=True)
    (3): ReLU()
    (4): Linear(in_features=10, out_features=5, bias=True)
    (5): ReLU()
  )
)>AE2<bound method Module.state_dict of Encoder(
  (encoder): Sequential(
    (0): Linear(in_features=40, out_features=20, bias=True)
    (1): ReLU()
    (2): Linear(in_features=20, out_features=10, bias=True)
    (3): ReLU()
    (4): Linear(in_features=10, out_features=5, bias=True)
    (5): ReLU()
  )
)>AE1<bound method Module.state_dict of Encoder(
  (encoder): Sequential(
    (0): Linear(in_features=40, out_features=20, bias=True)
    (1): ReLU()
    (2): Linear(in_features=20, out_features=10, bias=True)
    (3): ReLU()
    (4): Linear(in_features=10, out_features=5, bias=True)
    (5): ReLU()
  )
)>AE2<bound method Module.state_dict of Encoder(
  (encoder): Sequential(
    (0): Linear(in_features=40, out_features=20, bias=True)
    (1): ReLU()
    (2): Linear(in_features=20, out_features=10, bias=True)
    (3): ReLU()
    (4): Linear(in_features=10, out_features=5, bias=True)
    (5): ReLU()
  )
)>AE1<bound method Module.state_dict of Encoder(
  (encoder): Sequential(
    (0): Linear(in_features=40, out_features=20, bias=True)
    (1): ReLU()
    (2): Linear(in_features=20, out_features=10, bias=True)
    (3): ReLU()
    (4): Linear(in_features=10, out_features=5, bias=True)
    (5): ReLU()
  )
)>AE2<bound method Module.state_dict of Encoder(
  (encoder): Sequential(
    (0): Linear(in_features=40, out_features=20, bias=True)
    (1): ReLU()
    (2): Linear(in_features=20, out_features=10, bias=True)
    (3): ReLU()
    (4): Linear(in_features=10, out_features=5, bias=True)
    (5): ReLU()
  )
)>AE1<bound method Module.state_dict of Encoder(
  (encoder): Sequential(
    (0): Linear(in_features=40, out_features=20, bias=True)
    (1): ReLU()
    (2): Linear(in_features=20, out_features=10, bias=True)
    (3): ReLU()
    (4): Linear(in_features=10, out_features=5, bias=True)
    (5): ReLU()
  )
)>AE2<bound method Module.state_dict of Encoder(
  (encoder): Sequential(
    (0): Linear(in_features=40, out_features=20, bias=True)
    (1): ReLU()
    (2): Linear(in_features=20, out_features=10, bias=True)
    (3): ReLU()
    (4): Linear(in_features=10, out_features=5, bias=True)
    (5): ReLU()
  )
)>AE1<bound method Module.state_dict of Encoder(
  (encoder): Sequential(
    (0): Linear(in_features=40, out_features=20, bias=True)
    (1): ReLU()
    (2): Linear(in_features=20, out_features=10, bias=True)
    (3): ReLU()
    (4): Linear(in_features=10, out_features=5, bias=True)
    (5): ReLU()
  )
)>AE2<bound method Module.state_dict of Encoder(
  (encoder): Sequential(
    (0): Linear(in_features=40, out_features=20, bias=True)
    (1): ReLU()
    (2): Linear(in_features=20, out_features=10, bias=True)
    (3): ReLU()
    (4): Linear(in_features=10, out_features=5, bias=True)
    (5): ReLU()
  )
)>AE1<bound method Module.state_dict of Encoder(
  (encoder): Sequential(
    (0): Linear(in_features=40, out_features=20, bias=True)
    (1): ReLU()
    (2): Linear(in_features=20, out_features=10, bias=True)
    (3): ReLU()
    (4): Linear(in_features=10, out_features=5, bias=True)
    (5): ReLU()
  )
)>AE2<bound method Module.state_dict of Encoder(
  (encoder): Sequential(
    (0): Linear(in_features=40, out_features=20, bias=True)
    (1): ReLU()
    (2): Linear(in_features=20, out_features=10, bias=True)
    (3): ReLU()
    (4): Linear(in_features=10, out_features=5, bias=True)
    (5): ReLU()
  )
)>AE1<bound method Module.state_dict of Encoder(
  (encoder): Sequential(
    (0): Linear(in_features=40, out_features=20, bias=True)
    (1): ReLU()
    (2): Linear(in_features=20, out_features=10, bias=True)
    (3): ReLU()
    (4): Linear(in_features=10, out_features=5, bias=True)
    (5): ReLU()
  )
)>AE2<bound method Module.state_dict of Encoder(
  (encoder): Sequential(
    (0): Linear(in_features=40, out_features=20, bias=True)
    (1): ReLU()
    (2): Linear(in_features=20, out_features=10, bias=True)
    (3): ReLU()
    (4): Linear(in_features=10, out_features=5, bias=True)
    (5): ReLU()
  )
)>AE1<bound method Module.state_dict of Encoder(
  (encoder): Sequential(
    (0): Linear(in_features=40, out_features=20, bias=True)
    (1): ReLU()
    (2): Linear(in_features=20, out_features=10, bias=True)
    (3): ReLU()
    (4): Linear(in_features=10, out_features=5, bias=True)
    (5): ReLU()
  )
)>AE2<bound method Module.state_dict of Encoder(
  (encoder): Sequential(
    (0): Linear(in_features=40, out_features=20, bias=True)
    (1): ReLU()
    (2): Linear(in_features=20, out_features=10, bias=True)
    (3): ReLU()
    (4): Linear(in_features=10, out_features=5, bias=True)
    (5): ReLU()
  )
)>AE1<bound method Module.state_dict of Encoder(
  (encoder): Sequential(
    (0): Linear(in_features=40, out_features=20, bias=True)
    (1): ReLU()
    (2): Linear(in_features=20, out_features=10, bias=True)
    (3): ReLU()
    (4): Linear(in_features=10, out_features=5, bias=True)
    (5): ReLU()
  )
)>AE2<bound method Module.state_dict of Encoder(
  (encoder): Sequential(
    (0): Linear(in_features=40, out_features=20, bias=True)
    (1): ReLU()
    (2): Linear(in_features=20, out_features=10, bias=True)
    (3): ReLU()
    (4): Linear(in_features=10, out_features=5, bias=True)
    (5): ReLU()
  )
)>AE1<bound method Module.state_dict of Encoder(
  (encoder): Sequential(
    (0): Linear(in_features=40, out_features=20, bias=True)
    (1): ReLU()
    (2): Linear(in_features=20, out_features=10, bias=True)
    (3): ReLU()
    (4): Linear(in_features=10, out_features=5, bias=True)
    (5): ReLU()
  )
)>AE2<bound method Module.state_dict of Encoder(
  (encoder): Sequential(
    (0): Linear(in_features=40, out_features=20, bias=True)
    (1): ReLU()
    (2): Linear(in_features=20, out_features=10, bias=True)
    (3): ReLU()
    (4): Linear(in_features=10, out_features=5, bias=True)
    (5): ReLU()
  )
)>AE1<bound method Module.state_dict of Encoder(
  (encoder): Sequential(
    (0): Linear(in_features=40, out_features=20, bias=True)
    (1): ReLU()
    (2): Linear(in_features=20, out_features=10, bias=True)
    (3): ReLU()
    (4): Linear(in_features=10, out_features=5, bias=True)
    (5): ReLU()
  )
)>AE2<bound method Module.state_dict of Encoder(
  (encoder): Sequential(
    (0): Linear(in_features=40, out_features=20, bias=True)
    (1): ReLU()
    (2): Linear(in_features=20, out_features=10, bias=True)
    (3): ReLU()
    (4): Linear(in_features=10, out_features=5, bias=True)
    (5): ReLU()
  )
)>AE1<bound method Module.state_dict of Encoder(
  (encoder): Sequential(
    (0): Linear(in_features=40, out_features=20, bias=True)
    (1): ReLU()
    (2): Linear(in_features=20, out_features=10, bias=True)
    (3): ReLU()
    (4): Linear(in_features=10, out_features=5, bias=True)
    (5): ReLU()
  )
)>AE2<bound method Module.state_dict of Encoder(
  (encoder): Sequential(
    (0): Linear(in_features=40, out_features=20, bias=True)
    (1): ReLU()
    (2): Linear(in_features=20, out_features=10, bias=True)
    (3): ReLU()
    (4): Linear(in_features=10, out_features=5, bias=True)
    (5): ReLU()
  )
)>AE1<bound method Module.state_dict of Encoder(
  (encoder): Sequential(
    (0): Linear(in_features=40, out_features=20, bias=True)
    (1): ReLU()
    (2): Linear(in_features=20, out_features=10, bias=True)
    (3): ReLU()
    (4): Linear(in_features=10, out_features=5, bias=True)
    (5): ReLU()
  )
)>AE2<bound method Module.state_dict of Encoder(
  (encoder): Sequential(
    (0): Linear(in_features=40, out_features=20, bias=True)
    (1): ReLU()
    (2): Linear(in_features=20, out_features=10, bias=True)
    (3): ReLU()
    (4): Linear(in_features=10, out_features=5, bias=True)
    (5): ReLU()
  )
)>AE1<bound method Module.state_dict of Encoder(
  (encoder): Sequential(
    (0): Linear(in_features=40, out_features=20, bias=True)
    (1): ReLU()
    (2): Linear(in_features=20, out_features=10, bias=True)
    (3): ReLU()
    (4): Linear(in_features=10, out_features=5, bias=True)
    (5): ReLU()
  )
)>AE2<bound method Module.state_dict of Encoder(
  (encoder): Sequential(
    (0): Linear(in_features=40, out_features=20, bias=True)
    (1): ReLU()
    (2): Linear(in_features=20, out_features=10, bias=True)
    (3): ReLU()
    (4): Linear(in_features=10, out_features=5, bias=True)
    (5): ReLU()
  )
)>AE1<bound method Module.state_dict of Encoder(
  (encoder): Sequential(
    (0): Linear(in_features=40, out_features=20, bias=True)
    (1): ReLU()
    (2): Linear(in_features=20, out_features=10, bias=True)
    (3): ReLU()
    (4): Linear(in_features=10, out_features=5, bias=True)
    (5): ReLU()
  )
)>AE2<bound method Module.state_dict of Encoder(
  (encoder): Sequential(
    (0): Linear(in_features=40, out_features=20, bias=True)
    (1): ReLU()
    (2): Linear(in_features=20, out_features=10, bias=True)
    (3): ReLU()
    (4): Linear(in_features=10, out_features=5, bias=True)
    (5): ReLU()
  )
)>AE1<bound method Module.state_dict of Encoder(
  (encoder): Sequential(
    (0): Linear(in_features=40, out_features=20, bias=True)
    (1): ReLU()
    (2): Linear(in_features=20, out_features=10, bias=True)
    (3): ReLU()
    (4): Linear(in_features=10, out_features=5, bias=True)
    (5): ReLU()
  )
)>AE2<bound method Module.state_dict of Encoder(
  (encoder): Sequential(
    (0): Linear(in_features=40, out_features=20, bias=True)
    (1): ReLU()
    (2): Linear(in_features=20, out_features=10, bias=True)
    (3): ReLU()
    (4): Linear(in_features=10, out_features=5, bias=True)
    (5): ReLU()
  )
)>AE1<bound method Module.state_dict of Encoder(
  (encoder): Sequential(
    (0): Linear(in_features=40, out_features=20, bias=True)
    (1): ReLU()
    (2): Linear(in_features=20, out_features=10, bias=True)
    (3): ReLU()
    (4): Linear(in_features=10, out_features=5, bias=True)
    (5): ReLU()
  )
)>AE2<bound method Module.state_dict of Encoder(
  (encoder): Sequential(
    (0): Linear(in_features=40, out_features=20, bias=True)
    (1): ReLU()
    (2): Linear(in_features=20, out_features=10, bias=True)
    (3): ReLU()
    (4): Linear(in_features=10, out_features=5, bias=True)
    (5): ReLU()
  